en/TARS/TARS.tflite (tflite, 206748 bytes, 9 tensors)

Const_1 f4 [32]
0.00939952 -0.017036727 0.014172941 0.003595676 0.011159378 0.029447937 -0.02175212 0.010203902
0.030938705 -0.0007533863 0.013133715 0.0058817333 0.024523888 -0.008981296 0.003253312 -0.001023495
-0.012101619 0.027275903 -0.023593275 -0.0053818426 0.009523608 0.027390286 -0.02265401 0.013745996
0.015744174 -0.012365064 0.016091682 0.023614518 0.0073616276 -0.00766418 -0.027013639 -0.017925136
00000000: 7200 1a3c 9b90 8bbc a035 683c 6fa5 6b3b
00000010: d3d5 363c cd3c f13c 8131 b2bc 442e 273c
00000020: 2b73 fd3c e67e 45ba cb2e 573c 8ebb c03b
00000030: 52e6 c83c 4926 13bc 8535 553b cb26 86ba
00000040: de45 46bc b771 df3c af46 c1bc 2b5a b0bb
00000050: e808 1c3c 9861 e03c e794 b9bc e336 613c
00000060: edf9 803c d696 4abc b4d2 833c 3c73 c13c
00000070: cf39 f13b cd23 fbbb b54b ddbc bcd7 92bc

Const_2 f4 [32]
0.99782985 1.0075907 0.98860687 0.9956483 1.0022683 0.95734066 1.0082268 1.0000892
1.001932 0.99825394 0.99263877 0.9997792 1.0150045 0.99856156 1.0196393 0.9985874
1.0023617 0.9995677 0.99545664 1.0653008 1.0344553 1.0007753 1.0226266 0.9961792
0.9947649 1.1049067 0.99249125 1.0020242 1.0254564 0.99147236 0.9835405 1.0216688
00000000: c771 7f3f bbf8 803f 5715 7d3f cfe2 7e3f
00000010: 544a 803f 4714 753f 930d 813f ec02 803f
00000020: 4f3f 803f 928d 7f3f 931d 7e3f 88f1 7f3f
00000030: abeb 813f bba1 7f3f 8a83 823f 6da3 7f3f
00000040: 634d 803f abe3 7f3f 3fd6 7e3f c75b 883f
00000050: 0869 843f 6819 803f 6ee5 823f 9a05 7f3f
00000060: eaa8 7e3f 956d 8d3f e813 7e3f 5442 803f
00000070: 2842 833f 22d1 7d3f 4fc9 7b3f 0bc6 823f

Const_3 f4 [32]
-0.011503561 0.004256284 -0.014697874 0.028385201 0.026531626 0.016718432 -0.0050435443 -0.0031052763
0.01711709 -0.012115448 -0.009807407 0.009153027 0.02608699 -0.008552645 -0.008079599 -0.0071299598
-0.0017448863 0.017213685 -0.012371063 0.016943576 -0.0057107257 0.012109763 0.00067722594 -0.014412557
-0.0052616973 0.027871082 -0.008787192 -0.010017212 0.029290458 0.025401175 -0.021718146 -0.01261646
00000000: 6f79 3cbc 4c78 8b3b 5acf 70bc 1588 e83c
00000010: da58 d93c 18f5 883c 5144 a5bb e481 4bbb
00000020: 2439 8c3c df7f 46bc 3faf 20bc 94f6 153c
00000030: 62b4 d53c 6520 0cbc 4b60 04bc 70a2 e9bb
00000040: abb4 e4ba b703 8d3c 00b0 4abc 41cd 8a3c
00000050: 0a21 bbbb 0768 463c dd87 313a a522 6cbc
00000060: 516a acbb e551 e43c 28f8 0fbc 3b1f 24bc
00000070: 8bf2 ef3c 2016 d03c 41ea b1bc 45b5 4ebc

Const_5 f4 [32]
-0.022625256 0.021455519 -0.12963659 -0.06075389 0.09944522 0.07329987 0.046952784 -0.020850401
-0.14468788 -0.06783117 0.1335927 -0.1041893 -0.08914957 0.103557706 -0.025537584 0.031334788
0.02407253 0.11848648 0.1300013 -0.07433065 0.10701378 0.09500922 -0.18983012 -0.08057749
0.014928855 0.077456735 0.03766992 0.16614687 -0.1265523 -0.07479614 0.17779104 0.03910794
00000000: 9a58 b9bc 7cc3 af3c 74bf 04be 12d9 78bd
00000010: efa9 cb3d 3e1e 963d 9051 403d 76ce aabc
00000020: 0f29 14be 12eb 8abd 86cc 083e 3361 d5bd
00000030: 0d94 b6bd 1016 d43d 3234 d1bc e858 003d
00000040: c133 c53c 0aa9 f23d 101f 053e ab3a 98bd
00000050: 0a2a db3d 3294 c23d d462 42be d005 a5bd
00000060: 2898 743c a3a1 9e3d c64b 1a3d 6822 2a3e
00000070: ed96 01be b82e 99bd db0e 363e a62f 203d

Const_6 f4 [32]
1.2258561 0.9949288 1.0062519 1.04501 0.9875485 1.2613924 1.2881278 1.0334681
1.0253958 0.9743242 1.3002344 1.3816636 1.2573999 1.0287794 0.9696955 0.9972051
0.99711037 1.0065657 0.9966283 1.0816183 0.99020666 0.992675 1.0044571 1.2541529
1.0006783 1.0056162 1.0141038 1.0040789 0.99703294 0.9746788 1.398742 1.0250787
00000000: dae8 9c3f a7b3 7e3f ddcc 803f e3c2 853f
00000010: facf 7c3f 4e75 a13f 5fe1 a43f af48 843f
00000020: 2b40 833f 506d 793f 156e a63f 5ada b03f
00000030: 7bf2 a03f 0baf 833f f73d 783f d548 7f3f
00000040: a042 7f3f 25d7 803f 0823 7f3f 7872 8a3f
00000050: 2f7e 7d3f f31f 7e3f 0d92 803f 1588 a03f
00000060: 3a16 803f 08b8 803f 27ce 813f a885 803f
00000070: 8d3d 7f3f 8d84 793f fa09 b33f c735 833f

Const_7 f4 [32]
0.2512991 -0.0043177945 0.003933566 0.024328854 -0.018008586 0.26720116 0.27176753 0.019978449
0.0130632445 -0.04668359 0.29050586 0.31747046 0.2638665 0.016109867 -0.04119777 0.002841978
-0.0036150978 0.002465898 -0.013850975 0.017168202 -0.014465298 -0.009375003 0.0037117389 0.25682724
0.0014265281 0.0059429086 0.025366573 0.007954039 -0.0002086045 -0.03873257 0.3226641 0.010738569
00000000: 47aa 803e 497c 8dbb 25e5 803b 4e4d c73c
00000010: be86 93bc 97ce 883e 1d25 8b3e d8a9 a33c
00000020: 3807 563c 4b37 3fbd 2fbd 943e 7d8b a23e
00000030: 8319 873e d7f8 833c febe 28bd 7b40 3a3b
00000040: 47eb 6cbb e79a 213b 33ef 62bc 54a4 8c3c
00000050: dbff 6cbc 9d99 19bc a540 733b dc7e 833e
00000060: 57fa ba3a bbbc c23b 8fcd cf3c a851 023c
00000070: d8bc 5ab9 0ba6 1ebd 3b34 a53e d3f0 2f3c

MatMul f4 [32, 1536]
0.0152434455 0.015915072 -0.0031858098 -0.028992264 0.014377615 -0.014090814 0.009146697 0.01664023
-0.004989076 -0.01623526 0.01179198 0.019993708 0.011889859 0.019282114 -0.01112531 -0.002251489
0.0017841049 0.014116283 -0.023835786 0.005479061 0.005749604 0.005117356 -0.0007466606 0.0015385672
-0.020539615 0.011459599 0.016588049 -0.009884277 0.00924332 0.013201221 0.02834945 0.0010587189
0.022224277 -0.036276218 0.006954122 -0.010221006 0.021123454 -0.02275977 -0.0052818633 -0.0017954689
0.016707456 0.021867683 -0.024183761 0.026575565 0.012032193 -0.018301768 -0.020564966 -0.0116588995
0.007037312 -0.010342686 -0.015937308 -0.00016694277 0.009123477 0.008254488 0.0038571053 -0.009381076
-0.012100956 -0.010232295 0.013443762 -0.0039517353 0.0032286735 -0.0041893935 -0.0004234612 0.0014263842
-0.018056236 -0.020567127 0.034461837 0.01646125 0.0073602507 -0.02201715 0.021019362 0.003667234
0.010744634 0.015488709 -0.011054608 -0.008864316 0.005599823 -0.0018974803 0.02428078 -0.022441102
-0.017673068 0.017568108 -0.021055236 0.02573517 -0.005220599 0.00093633507 -0.012276477 -0.024035763
0.0051457696 0.010172763 -0.0263888 0.00013126673 -0.011929913 0.012620765 -0.0062116496 0.0126205385
0.004336311 -0.006235686 0.011702522 -0.004336815 0.009982877 -0.009871192 0.0053887116 0.007204929
-0.016171072 -0.0205882 -0.02185057 0.0010457574 -0.0054617724 0.012730047 -0.019345097 0.0018928696
-0.014040547 0.009428345 0.014115847 -0.022971611 -0.0047391052 0.008637389 0.026876254 -0.015443801
0.021887604 0.0005583353 0.018431978 0.01282191 0.013176252 -0.024844557 0.0023615756 -0.017208138
-0.01981705 -0.0028836764 0.0034946918 -0.022616094 0.0016447895 0.020403331 0.0018508759 -0.00793383
-0.023837728 -0.013103132 0.010172837 -0.008720273 0.012903619 0.016935756 0.008110037 0.010057407
0.0018341088 -0.00028517237 -0.0064378767 -0.017201835 -0.020384734 0.0017093354 0.0068051405 0.002426971
0.00016571551 -0.013627342 -0.001601604 0.010655517 0.013964315 0.009463697 0.012863139 -0.014486146
-0.024976607 -0.02147027 0.0033448457 -0.018209076 -0.018665032 -0.019545956 0.012049733 -0.016196724
0.0123576 0.025608853 -0.009520186 0.0109024 -0.015022541 0.011061189 -0.01196897 0.013386107
-0.01982834 -0.007387664 0.009851018 -0.018535666 0.0099873375 -0.012180925 -0.026180515 0.012964024
-0.004484498 0.004854402 -0.007040144 0.015044835 -0.023060916 0.004604219 -0.01206989 -0.013151585
-0.005484953 0.015384248 0.0021216343 0.012500425 -0.00069801736 -0.02570561 0.020661773 -0.025962133
-0.00828852 0.006088713 3.5923014e-05 -0.0022933518 0.0015776346 -0.009772179 -0.013996246 0.004913566
-0.043150697 -0.0004297795 -0.016222656 0.017743576 -0.016177267 -0.017416427 -0.008490356 -0.031504925
0.0071323286 -0.02106825 0.015695108 -0.022245869 0.021743277 -0.0025718177 0.004839491 -0.02286431
-0.01077355 0.0007845155 0.016745387 -0.0041405633 -0.020594379 -0.0060719247 -0.032427102 -0.0067660413
-0.025188802 0.006706778 -0.011863552 0.0072741914 0.02391884 -0.0248869 0.00056239474 0.006599647
-0.02009455 -0.021257848 0.024886644 0.020283509 0.01821264 0.007011559 -0.008809711 0.016285583
-0.0012009084 0.019718364 -0.010553858 0.016599149 -0.0010763103 0.011623835 0.0056716297 0.011076313
00000000: a5bf 793c 5360 823c 05c9 50bb 2f81 edbc
00000010: 1790 6b3c 28dd 66bc 07dc 153c 1751 883c
00000020: 677b a3bb cfff 84bc 2633 413c d8c9 a33c
00000030: afcd 423c 86f5 9d3c ef46 36bc b88d 13bb
00000040: a0d8 e93a fb47 673c 4443 c3bc b289 b33b
00000050: 2d67 bc3b 7eaf a73b 8bbb 43ba c0a9 c93a
00000060: b242 a8bc 0bc1 3b3c a9e3 873c aaf1 21bc
00000070: 4b71 173c ef49 583c 1b3d e83c b6c4 8a3a
00000080: b00f b63c 5f96 14bd 67df e33b 0276 27bc
00000090: 180b ad3c b272 babc 7b13 adbb f055 ebba
000000a0: 13de 883c db23 b33c 061d c6bc 00b5 d93c
000000b0: ad22 453c 97ed 95bc dc77 a8bc f804 3fbc
000000c0: 4099 e63b 5f74 29bc f58e 82bc 5c0d 2fb9
000000d0: a37a 153c d53d 073c 7dc7 7c3b 16b3 19bc
000000e0: 1743 46bc 5ba5 27bc 3a43 5c3c 8f7d 81bb
000000f0: 2798 533b 2e47 89bb 0004 deb9 83f5 ba3a
00000100: acea 93bc 647c a8bc db27 0d3d bed9 863c
00000110: 422e f13b 4f5d b4bc cc30 ac3c fa55 703b
00000120: 430a 303c 5bc4 7d3c 631e 35bc a33b 11bc
00000130: b87e b73b e0b4 f8ba 7de8 c63c 67d6 b7bc
00000140: 1cc7 90bc feea 8f3c 087c acbc 90d2 d23c
00000150: 8f11 abbb 6274 753a 4723 49bc a6e6 c4bc
00000160: d89d a83b a9ab 263c 532d d8bc a5a4 0939
00000170: af75 43bc 53c7 4e3c 188b cbbb 60c6 4e3c
00000180: 9d17 8e3b ba54 ccbb efbb 3f3c d71b 8ebb
00000190: 398f 233c c8ba 21bc ca93 b03b 5317 ec3b
000001a0: 3279 84bc 96a8 a8bc f7ff b2bc cc11 893a
000001b0: abf8 b2bb b091 503c 9c79 9ebc 2a1a f83a
000001c0: 530a 66bc 5879 1a3c 2746 673c f62e bcbc
000001d0: 7f4a 9bbb d683 0d3c 972b dc3c ff07 7dbc
000001e0: a24d b33c 3f5d 123a a9fe 963c fd12 523c
000001f0: 35e1 573c d086 cbbc aac4 1a3b 15f8 8cbc
00000200: 5e57 a2bc 10fc 3cbb 3307 653b 6345 b9bc
00000210: fa95 d73a e324 a73c 1799 f23a e5fc 01bc
00000220: 5747 c3bc 85ae 56bc f9ab 263c 7adf 0ebc
00000230: b369 533c dbbc 8a3c f6df 043c d3c7 243c
00000240: 7b66 f03a 3083 95b9 d3f4 d2bb ddea 8cbc
00000250: e3fd a6bc c70b e03a a8fd de3b d10d 1f3b
00000260: ebc3 2d39 3745 5fbc eaec d1ba 7a94 2e3c
00000270: 95ca 643c 9f0d 1b3c eabf 523c 4d57 6dbc
00000280: be9b ccbc 6be2 afbc 3335 5b3b 332b 95bc
00000290: 69e7 98bc d71e a0bc 3e6c 453c feae 84bc
000002a0: 8877 4a3c a8c9 d13c 8efa 1bbc fb9f 323c
000002b0: 1b21 76bc fd39 353c 8019 44bc 6751 5b3c
000002c0: 0b6f a2bc 3814 f2bb 2a66 213c 1cd8 97bc
000002d0: eea1 233c 8192 47bc 8578 d6bc 0f67 543c
000002e0: b2f2 92bb ad11 9f3b 02b1 e6bb 9d7e 763c
000002f0: 3fea bcbc fdde 963b cac0 45bc bf79 57bc
00000300: 1fbb b3bb 370e 7c3c 1e0b 0b3b 95ce 4c3c
00000310: 27fb 36ba 9294 d2bc e142 a93c 8aae d4bc
00000320: 93cc 07bc d483 c73b 0bac 1638 0f4c 16bb
00000330: a2c8 ce3a 7d1b 20bc 8350 65bc fb01 a13b
00000340: c9be 30bd 0754 e1b9 60e5 84bc fa5a 913c
00000350: 3086 84bc e5ac 8ebc 221b 0bbc 4f0b 01bd
00000360: 4fb6 e93b 5397 acbc 0793 803c f83c b6bc
00000370: f51e b23c f18b 28bb 9894 9e3b ef4d bbbc
00000380: 8b83 30bc f2a7 4d3a 9f2d 893c 90ad 87bb
00000390: 8bb5 a8bc fff6 c6bb 48d2 04bd abb5 ddbb
000003a0: bf58 cebc 88c4 db3b 585f 42bc 575c ee3b
000003b0: 71f1 c33c 9ddf cbbc ac6d 133a da41 d83b
000003c0: 539d a4bc f024 aebc 13df cb3c 9a29 a63c
000003d0: ad32 953c 38c1 e53b 9b56 10bc 5869 853c
000003e0: cd67 9dba 6888 a13c 17ea 2cbc f0fa 873c
000003f0: fb12 8dba e671 3e3c 14d9 b93b 6d79 353c

MatMul_1 f4 [32, 32]
-0.15192664 -0.11060593 -0.112513475 0.026808903 0.12569816 -0.059115347 -0.106210545 0.029139498
0.1199963 -0.1321715 -0.12904389 0.09024357 -0.15602054 0.102775514 -0.1507149 -0.17431138
-0.08271837 0.10123326 0.058589406 0.16510671 -0.11651384 0.12003509 0.1341336 -0.18437043
-0.10870226 0.061294645 0.17060433 0.04971548 -0.003203588 0.08753302 0.016670093 -0.03640202
0.00835114 0.017969228 -0.042207573 0.15059204 -0.106077574 -0.08274838 -0.011356824 0.07494475
-0.08515763 0.12483211 -0.009070064 0.07102374 -0.16283737 0.13019252 0.12079046 0.14496747
0.022919094 -0.11568785 -0.08314157 0.09502126 0.119126104 0.14224653 -0.13026457 -0.008652669
-0.17912112 -0.008478818 0.091942444 -0.1134577 -0.07660752 0.07089021 0.059602 0.014185208
-0.076057605 0.16797058 0.093808986 0.09017438 -0.016076079 -0.122590594 0.055386342 -0.0021930737
0.00011368003 0.095611684 0.039821096 -0.010535619 0.0056094746 -0.13476925 -0.15076144 0.015094538
-0.08990041 -0.17392594 -0.15053962 0.10483491 -0.083987854 0.010998796 -0.006612682 -0.07854129
-0.061084963 -0.031088168 -0.13639659 -0.13809638 0.01210546 -0.06241423 -0.1403036 0.18261044
0.14419495 -0.117827915 0.03488669 -0.09291597 -0.019222986 0.07718311 -0.16322158 0.058785047
0.043243077 0.1266165 -0.14470734 0.12640496 0.12872045 0.04073195 0.21846183 -0.039084792
0.14397293 -0.07276052 -0.09958195 -0.10341358 -0.09063521 -0.08729013 -0.060840804 -0.11613896
-0.054964215 -0.1472785 -0.14139494 0.16307662 0.0034975794 0.079350315 -0.055165466 0.016922286
0.10272266 -0.0054872213 -0.13716246 0.0463765 -0.10559441 -0.047502007 0.16023006 0.1653742
-0.08601756 -0.1459919 0.14902698 -0.039328434 0.10544069 0.16984779 0.16334447 0.1744794
-0.00042013993 -0.0867072 -0.031891163 0.0952293 -0.077837616 -0.062500656 0.008195951 -0.15872116
0.019970113 -0.0037875918 -0.07498517 -0.014291926 -0.056358993 -0.19781047 0.025361482 0.16942544
-0.12156301 -0.12496021 -0.1740155 -0.09262307 -0.000918025 0.04294392 0.15791607 0.16360603
-0.006958092 0.16435556 -0.033414554 0.06553494 0.01111022 -0.11050421 -0.19062945 -0.051300794
0.044129156 -0.14816676 -0.09269548 0.08684891 -0.02221668 0.16488974 -0.09206464 -0.18750747
-0.0885823 0.09255978 0.16730423 0.12507121 0.076236404 0.09947386 0.074048564 -0.14804973
-0.069763534 0.021110637 -0.08793407 -0.051534366 0.04249043 -0.00047044648 -0.03322064 -0.085516505
-0.00782626 -0.04751915 -0.029636374 -0.015515394 -0.13556717 -0.03225632 -0.09651 0.1170794
-0.16472475 -0.019549336 0.16423802 0.19753277 -0.19441257 0.1949045 0.029374737 -0.054084804
0.004965684 0.13512038 -0.14710903 0.18099439 0.11431024 -0.036307286 0.013231552 0.14319503
0.11281257 -0.09781769 0.09353168 -0.10389613 -0.1234377 -0.12042995 -0.01019998 0.06172941
-0.12487339 0.012968676 -0.12376406 0.03833057 0.19260547 -0.16573717 0.03593343 0.07840755
-0.14543824 -0.025273621 -0.12908296 -0.11939466 0.20773187 -0.0040331255 0.057659335 -0.14659968
-0.077184804 0.04749898 0.19127129 -0.0909161 0.0074343393 0.07976818 -0.13288422 0.17466608
00000000: a892 1bbe 5d85 e2bd 776d e6bd 589e db3c
00000010: 05b7 003e ef22 72bd ea84 d9bd f5b5 ee3c
00000020: 9fc0 f53d f757 07be 1524 04be 9fd1 b83d
00000030: d9c3 1fbe f87b d23d 0255 1abe af7e 32be
00000040: 4068 a9bd 6253 cf3d 72fb 6f3d bc11 293e
00000050: cf9e eebd f5d4 f53d 525a 093e 9acb 3cbe
00000060: 4a9f debd 1810 7b3d e7b2 2e3e 76a2 4b3d
00000070: 4af3 51bb 8344 b33d b88f 883c 491a 15bd
00000080: 38d3 083c 3434 933c d9e1 2cbd cd34 1a3e
00000090: 333f d9bd fc77 a9bd f911 3abc a27c 993d
000000a0: 2067 aebd faa7 ff3d 9b9a 14bc e574 913d
000000b0: d7be 26be 3051 053e fd60 f73d 5a72 143e
000000c0: d3c0 bb3c c0ed ecbd 2146 aabd 829a c23d
000000d0: 63f8 f33d 13a9 113e 1364 05be edc3 0dbc
000000e0: 876b 37be beea 0abc 524c bc3d 835c e8bd
000000f0: 67e4 9cbd e32e 913d 3a21 743d 1369 683c
00000100: 17c4 9bbd 7b00 2c3e ed1e c03d 58ad b83d
00000110: fbb1 83bc c710 fbbd cadc 623d acb9 0fbb
00000120: 8067 ee38 0fd0 c33d 721b 233d 979d 2cbc
00000130: afcf b73b f300 0abe 3561 1abe 154f 773c
00000140: b51d b8bd a419 32be 0f27 1abe afb3 d63d
00000150: d301 acbd 4b34 343c 32af d8bb 41da a0bd
00000160: 3a34 7abd 9dac febc 8cab 0bbe 2369 0dbe
00000170: fb55 463c 10a6 7fbd bfab 0fbe 3bfe 3a3e
00000180: d7a7 133e c34f f1bd 59e5 0e3d ba4a bebd
00000190: 8679 9dbc 2e12 9e3d 8f23 27be 97c8 703d
000001a0: a71f 313d c1a7 013e 292e 14be 4d70 013e
000001b0: 4bcf 033e 8cd6 263d 75b4 5f3e 6017 20bd
000001c0: a46d 133e 7803 95bd 9ff1 cbbd 80ca d3bd
000001d0: f49e b9bd 2bc5 b2bd 3534 79bd 43da edbd
000001e0: 2822 61bd 2dd0 16be d6c9 10be 8ffd 263e
000001f0: a537 653b 6b82 a23d 2ff5 61bd 9ba0 8a3c
00000200: 4260 d23d 26ce b3bb 5174 0cbe 49f5 3d3d
00000210: e241 d8bd 7791 42bd 5913 243e db57 293e
00000220: f929 b0bd e77e 15be 879a 183e da16 21bd
00000230: 4af1 d73d 94ec 2d3e c643 273e baaa 323e
00000240: 3a46 dcb9 8b93 b1bd 4fa0 02bd 9407 c33d
00000250: 5469 9fbd 5800 80bd 4f48 063c cd87 22be
00000260: 5d98 a33c 3f39 78bb d391 99bd af28 6abc
00000270: b0d8 66bd d48e 4abe e2c2 cf3c dd7d 2d3e
00000280: 07f6 f8bd 23eb ffbd 1f31 32be 2ab1 bdbd
00000290: 9da7 70ba f7e5 2f3d c0b4 213e 5788 273e
000002a0: b500 e4bb d34c 283e b3dd 08bd 2f37 863d
000002b0: a407 363c 0850 e2bd 5e34 43be c820 52bd
000002c0: c6c0 343d 07b9 17be 21d7 bdbd d7dd b13d
000002d0: c1ff b5bc dbd8 283e 638c bcbd f501 40be
000002e0: a36a b5bd fb8f bd3d cd51 2b3e ab12 003e
000002f0: d521 9c3d f3b8 cb3d c6a6 973d 599a 17be
00000300: 2fe0 8ebd 37f0 ac3c c716 b4bd b315 53bd
00000310: 720a 2e3d 42a6 f6b9 5e12 08bd 4723 afbd
00000320: b739 00bc 71a3 42bd fbc7 f2bc 4734 7ebc
00000330: 1fd2 0abe 341f 04bd 09a7 c5bd 53c7 ef3d
00000340: 9bad 28be ee25 a0bc 032e 283e 0846 4a3e
00000350: 1714 47be 0c95 473e 4aa3 f03c 0788 5dbd
00000360: 2db7 a23b ff5c 0a3e c0a3 16be 9856 393e
00000370: 7d1b ea3d f3b6 14bd 27c9 583c b8a1 123e
00000380: 470a e73d a454 c8bd 8a8d bf3d 7fc7 d4bd
00000390: e8cc fcbd faa3 f6bd d11d 27bc fad7 7c3d
000003a0: 9fbd ffbd 927a 543c 0378 fdbd 8400 1d3d
000003b0: 5e3a 453e 01b7 29be ef2e 133d 2394 a03d
000003c0: c3ed 14be a00a cfbc 532e 04be 3085 f4bd
000003d0: aab7 543e 4f28 84bb 322c 6c3d 3a1e 16be
000003e0: 1113 9ebd 4a8e 423d 9fdc 433e 3832 babd
000003f0: c29b f33b 805d a33d cd12 08be aadb 323e

MatMul_2 f4 [1, 32]
-0.3736553 0.10112945 0.08220281 0.20280556 0.013140678 -0.34041998 -0.37536937 0.07925182
0.078469045 -0.04629867 -0.30300137 -0.35025236 -0.36489707 0.18710749 0.12920974 0.015783405
0.050003804 0.025492975 0.12691987 0.09921519 0.020190887 0.006968481 0.1456167 -0.39157286
-0.09989797 -0.03618951 -0.008064926 0.09510329 0.023721958 0.0039935526 -0.36645737 0.030934041
00000000: bf4f bfbe f51c cf3d f259 a83d 43ac 4f3e
00000010: 004c 573c 874b aebe 6a30 c0be c74e a23d
00000020: 61b4 a03d ada3 3dbd ff22 9bbe 4754 b3be
00000030: cad3 babe 1b99 3f3e 8f4f 043e 334c 813c
00000040: cad0 4c3d a5d6 d03c 48f7 013e 5531 cb3d
00000050: 5c67 a53c db57 e43b 8b1c 153e 3d7c c8be
00000060: 4f97 ccbd 743b 14bd c022 04bc 84c5 c23d
00000070: 8d54 c23c 59dc 823b 4da0 bbbe 6369 fd3c
