en/hola_casita/Hola_casita.tflite (tflite, 206380 bytes, 9 tensors)

Const_1 f4 [32]
000000 27 a1 c8 bc 0a 4f 38 bc 12 6b bd 3c fc 62 f3 bb
       -0.024490906 -0.011249313 0.023122344 -0.0074275713
000010 07 d4 dc 3c 75 64 80 3b bc 83 8a 3c 78 ad 37 bb
       0.026956571 0.0039182254 0.016908519 -0.002802698
000020 d6 2a 3b 3c ec b4 76 bc 36 0e 6c bc 8e 8f b9 3c
       0.011423787 -0.015057784 -0.014407685 0.02265146
000030 54 97 9a 3b cb f2 9f bc ba 1c 46 bc 7d dd 81 bc
       0.0047177467 -0.019524952 -0.01209181 -0.015852684
000040 0c 11 41 3a be 2e b0 3c cf 82 3a bc 4c 4b c5 3c
       0.0007364906 0.021506663 -0.011383726 0.024083756
000050 bf 8e a8 3c 49 cc 04 3d 6f dc 24 bc 12 ea d2 3c
       0.02057588 0.032421384 -0.010062321 0.025746379
000060 f8 0b c5 3c 32 c4 bb bb f1 c7 b2 3c 23 a5 1a 3b
       0.024053559 -0.0057301754 0.021823855 0.0023596964
000070 47 83 cb bc b9 f2 bc bc 80 3b 8b bc 8b e5 f8 39
       -0.024842871 -0.023064958 -0.016996145 0.0004747327

Const_2 f4 [32]
000000 f5 8a 7f 3f 9b a2 84 3f 57 d3 7c 3f 22 a6 83 3f
       0.99821407 1.0362123 0.9875998 1.0285075
000010 d6 91 73 3f eb bd 7d 3f 4c a3 7d 3f 09 c5 7e 3f
       0.95144403 0.99117917 0.99077296 0.995194
000020 84 0d 83 3f cd 4e 7f 3f 8c 65 79 3f 96 86 7e 3f
       1.02385 0.99729615 0.97420573 0.9942411
000030 3e 12 7f 3f 85 09 81 3f 50 5f 81 3f 81 6b 7b 3f
       0.9963721 1.008103 1.0107212 0.9821091
000040 c1 8b 76 3f 1c 4d 81 3f 6a dd 7a 3f c2 cb 7b 3f
       0.96307 1.0101657 0.979941 0.98357785
000050 88 00 84 3f 48 ec 85 3f f8 ae 81 3f 6f f1 81 3f
       1.0312662 1.0462732 1.0131521 1.0151805
000060 45 de 80 3f 83 12 7c 3f 16 8b 7a 3f c8 c1 83 3f
       1.0067831 0.98465747 0.9786848 1.0293512
000070 2b 80 79 3f 50 c8 80 3f c8 56 7c 3f 06 19 7d 3f
       0.97461194 1.006113 0.9856992 0.9886631

Const_3 f4 [32]
000000 73 56 75 bc a6 02 83 3c b5 e8 db bc ca 90 94 ba
       -0.014974224 0.015992474 -0.026844362 -0.0011334654
000010 0a 50 34 3c ca f4 4d bc e0 e8 5d bc cc f5 02 3c
       0.011005411 -0.012570569 -0.013544291 0.007993173
000020 b4 f7 90 3c a2 54 22 bc 62 40 d9 3b fd 57 7c bc
       0.017696239 -0.009907873 0.0066299895 -0.015401837
000030 49 53 93 bc 91 4f 76 3c 8d ec 9a b9 c5 68 00 bc
       -0.01798405 0.015033619 -0.00029549413 -0.007837479
000040 66 e5 38 bd 95 dd 64 bb 97 37 81 bc 5c 96 21 bc
       -0.045140646 -0.0034922112 -0.015773578 -0.009862509
000050 69 2d 80 bb fd 5a af 3c 36 a6 79 39 b0 76 8a 3c
       -0.0039116633 0.021405691 0.00023808409 0.016902298
000060 52 3a 82 bc a4 4a 70 bc a2 8d c1 bc ff 13 0b 3d
       -0.01589695 -0.014666233 -0.023627106 0.033954617
000070 4b 06 72 bc 4e ae 5f bc e9 72 cc bc a6 03 3f bc
       -0.014772008 -0.013652397 -0.024957137 -0.011658585

Const_5 f4 [32]
000000 d3 b7 73 3c 3a 0d de bd bc bb c6 3d 83 1a d0 ba
       0.01487537 -0.108423665 0.09703776 -0.0015877042
000010 0f 9b bd 3d 44 ef 08 3e 75 b8 0d be f5 2c 02 3d
       0.09258091 0.13372523 -0.13839896 0.031781156
000020 7f 04 7b bd 3a f1 14 3e d4 8b cd 3d 8a 57 cb bd
       -0.061283585 0.14545146 0.10036436 -0.09928806
000030 f0 0b ed bd fb 59 37 3e fc a3 19 be de c9 00 3e
       -0.115745425 0.17905419 -0.15003961 0.12577006
000040 61 b7 80 bd 21 bd 29 be ce f8 f9 39 c5 07 be 3d
       -0.06284977 -0.16576053 0.00047678355 0.09278826
000050 af fc 19 3e 57 c3 55 3d c2 a1 87 bd 69 eb 22 bd
       0.15037797 0.052188244 -0.0662265 -0.039775286
000060 24 78 d8 3d cb f9 6b 3c 84 23 78 bd fc 95 53 3e
       0.1056979 0.014402817 -0.060580745 0.20662683
000070 f8 52 d5 bd 4c 13 86 bd 45 28 08 3d d7 cb 0c be
       -0.10416216 -0.06546649 0.03324153 -0.13749634

Const_6 f4 [32]
000000 60 c3 86 3f 89 59 a8 3f 3c cf 81 3f d0 f9 82 3f
       1.0528374 1.3152324 1.0141368 1.0232487
000010 0b 77 81 3f 17 ce 81 3f 7d b2 80 3f 27 52 87 3f
       1.0114454 1.0141019 1.005447 1.0571946
000020 f3 60 83 3f 21 18 82 3f ac d5 7e 3f 3c 14 81 3f
       1.0263962 1.0163614 0.9954479 1.00843
000030 98 a6 7f 3f b8 05 89 3f 44 0b 82 3f 66 43 83 3f
       0.99863577 1.070487 1.0159688 1.0254943
000040 71 85 7e 3f 0a 4c c6 3f a0 9d 85 3f 9f 87 86 3f
       0.99422365 1.5491955 1.0438728 1.0510138
000050 86 fb a3 3f 8a 59 84 3f 47 c4 83 3f 1c 36 a6 3f
       1.2811134 1.0339825 1.0294274 1.2985263
000060 20 d1 80 3f ab e1 7d 3f b1 b1 a5 3f 39 45 89 3f
       1.006382 0.99172467 1.2944852 1.072425
000070 94 ec 7f 3f 57 91 7b 3f 5f b5 84 3f 4b 50 87 3f
       0.99970365 0.98268646 1.036785 1.0571378

Const_7 f4 [32]
000000 fe ab 14 3d 9d 27 98 3e 88 e0 eb bb 2e 3f 7d 3c
       0.036296837 0.29717723 -0.007198397 0.015456958
000010 4d a0 71 3b 76 83 6a ba 69 c1 8f 3b 35 b0 c7 3d
       0.0036869228 -0.0008945981 0.00438707 0.09750406
000020 70 c6 8a 3d c4 02 81 bb 2e fb 2d bc 83 4b 26 bc
       0.0677613 -0.0039370973 -0.010618968 -0.010149839
000030 f1 5b ac 3c 4b 44 8a 3c f6 9e 29 3d fc 9c 4f 3d
       0.021039935 0.016878268 0.041411363 0.05068682
000040 9f 66 91 bb e0 d4 df 3e 5a 84 4d 3c b7 c3 6d 3b
       -0.004437282 0.43717098 0.012543762 0.0036279985
000050 86 11 9a 3e 06 97 98 3c 88 a0 53 3d 0f 86 97 3e
       0.30091494 0.018626701 0.051666766 0.29594466
000060 67 a5 f8 ba 13 a2 8d bc 5b 28 9c 3e c9 18 23 3d
       -0.0018970192 -0.017289197 0.3049954 0.03981856
000070 cd d5 64 3c fb 75 b2 bc 9c 1b d8 3b e5 00 44 3c
       0.01396699 -0.021784773 0.006595088 0.011963104

MatMul f4 [32, 1536]
000000 44 b6 f8 bb 41 97 9e 3b b9 3b da 39 ef 7a 25 bd
       -0.007590087 0.004839808 0.00041624697 -0.04040044
000010 f0 8a bc 3c 74 82 f7 ba f1 17 c1 bc 3b a9 c8 bb
       0.02301547 -0.0018883483 -0.023570986 -0.0061236895
000020 9a ac d8 bc 49 8b 47 3c 02 47 a8 39 f8 1f ba bc
       -0.02644949 0.012179204 0.00032096362 -0.022720322
000030 96 16 0b bc 9f bc a2 ba d5 b7 85 3c 75 9b cb 3b
       -0.008489272 -0.0012415833 0.01632301 0.0062136003
000040 11 4d 43 3c c7 39 19 bb b9 27 3a bc 90 22 b1 bc
       0.0119202295 -0.0023380385 -0.01136201 -0.021622926
000050 d7 a4 bc 3c ac db bb 3c 53 67 a5 3a fa 6f d1 bc
       0.02302782 0.022931896 0.0012619294 -0.02556609
000060 d6 eb 78 3c 9c f7 d0 3c eb 96 9c bc 7b 35 93 3c
       0.015192946 0.025508694 -0.019114932 0.017969837
000070 9b c2 48 3c b9 6b 70 3c 60 5f 59 3b 44 66 79 bc
       0.012253429 0.014674121 0.003316842 -0.015222136
000080 6c a5 fb ba 9c 45 ad bc ba cd c1 3c 4f 7f 9b bb
       -0.001919908 -0.021151356 0.023657668 -0.004745401
000090 c8 81 ca 3c 2a b0 26 3b 17 f4 a4 bc 5d d6 8c 3b
       0.024720088 0.0025434592 -0.020135922 0.004298015
0000a0 8d 83 8c 3c 7d ac 86 3c 0c 65 69 3b 85 a1 d6 3c
       0.017152572 0.01643967 0.0035613207 0.026200065
0000b0 39 70 77 bc e0 5d 98 bc 7c a9 dd 3b 4e 4a aa 3c
       -0.01510244 -0.01859945 0.006764589 0.020787384
0000c0 72 95 ae 3c 72 09 99 bc 28 19 95 bb 50 bc 86 3c
       0.021311495 -0.018681262 -0.004550118 0.016447216
0000d0 f8 ec 09 bc c1 81 6d 3c 38 f2 91 3c af c8 36 bc
       -0.008418314 0.014496268 0.017815694 -0.011156245
0000e0 59 b1 16 bc c3 2b d0 3c f5 ef 95 3a 92 50 8e 3c
       -0.009197556 0.025411492 0.0011439311 0.017372403
0000f0 cd a4 a9 bc 2a 98 87 3c de 72 0b 3c b2 83 86 bc
       -0.020708466 0.01655205 0.008511273 -0.01642022
000100 f5 60 a0 bc 4b c5 f5 ba 04 af 6f 3c be dd bc 3c
       -0.019577483 -0.0018750814 0.014629129 0.023054954
000110 32 00 9f 3c e3 1f cc bc e7 df 19 3b 15 2a 2e 3c
       0.019409273 -0.024917549 0.0023479403 0.01063015
000120 9c 37 05 3c 25 cc 84 3c ea a2 27 bc 00 99 05 bc
       0.008130934 0.016210625 -0.010231713 -0.008154154
000130 d6 72 91 bb aa 4e 96 bc 75 a6 d1 3b e3 c8 47 3c
       -0.0044387383 -0.018348057 0.006398017 0.012193891
000140 ff f4 9c bc 4b b3 1d 3a d7 d1 a7 3c c5 4e 57 bb
       -0.019159792 0.00060157914 0.020485802 -0.0032853347
000150 c4 6f cb b8 4b 7e 95 bc dd 1f 46 bc e4 2c 8b bc
       -9.700612e-05 -0.018248698 -0.012092558 -0.016989179
000160 bf 21 a7 3c fa 99 c4 bb 08 e9 0d 3c e8 68 4d bc
       0.020401834 -0.0059998007 0.008661516 -0.012537219
000170 a2 a6 28 bc 93 ac 1f 3c 88 17 5b 3c 84 8c 1d 3c
       -0.010293635 0.009745735 0.0133723095 0.009616021
000180 c4 fd 9e bc 32 da 5f 3c 2b 5e 73 bc 3b 13 67 bc
       -0.019408114 0.013662862 -0.014853994 -0.014103706
000190 ae 08 11 3b 8c 5e 3b bc 86 c7 b0 3c 82 61 4f bc
       0.0022130418 -0.011436116 0.021579515 -0.012657525
0001a0 ab cd 8e bc 82 bb eb bb 29 c6 4e bc d3 62 2b 3a
       -0.017432055 -0.0071939835 -0.012620487 0.0006537858
0001b0 f3 ef 10 bb a2 ea e9 b8 3d e2 80 bc d6 cb e8 bb
       -0.0022115677 -0.000111540096 -0.015732879 -0.0071043773
0001c0 5b 3e f9 3a 9c 5e 95 3c cc bc b8 bb d4 a0 c0 bc
       0.0019015776 0.01823359 -0.0056377407 -0.023514189
0001d0 d7 9d c4 3c 2f e7 11 3c c6 39 8b bc 44 ee 88 bc
       0.024001045 0.008905216 -0.016995322 -0.016715176
0001e0 65 c2 75 bc 5f 7a cb 39 2a 74 6d bb 48 81 93 bc
       -0.014999961 0.0003881035 -0.003623257 -0.018005982
0001f0 6d a0 18 3c 5c ce e2 3b e7 4a 80 bc dd c0 a4 3c
       0.009315592 0.0069215726 -0.015660716 0.020111496
000200 23 9d 75 bc df 2f e8 bc 50 0a 13 bb 81 be de 39
       -0.014991078 -0.02834314 -0.0022436567 0.00042485076
000210 ea 5d c0 bc db 5b 4c bb 62 b5 13 3c 0d 06 1b 3c
       -0.023482282 -0.003118268 0.009015413 0.009461892
000220 14 02 80 bc 25 6d 67 3c 89 66 c3 3c f2 fd 95 bc
       -0.01562599 0.014125143 0.023852604 -0.018309567
000230 af d9 bd bc f1 f4 3d 3b df 0e 43 3c e8 d7 b6 bb
       -0.023175089 0.0028985108 0.011905401 -0.0055799372
000240 d0 53 69 bc a9 e5 2e bc a6 50 ff 3b 13 99 9b 3a
       -0.014241174 -0.010674872 0.0077915965 0.0011871181
000250 67 b4 98 3c 7d 4d 87 bc 16 fd e1 bc db fd b2 bc
       0.01864071 -0.016516441 -0.027586501 -0.021849563
000260 ce 95 83 bc ef 19 53 bc 9b 37 2c 3b 1e ed ed bb
       -0.016062643 -0.012884601 0.002627826 -0.0072609326
000270 1f 31 9f 3c ee b6 b4 3c 26 ea 2a 3c 4c 85 52 3c
       0.019432602 0.022059884 0.010431802 0.012849163
000280 56 27 91 3b 24 5b 8c 3c 6b c2 07 3d da 6e cd bb
       0.004429738 0.017133303 0.033144396 -0.006269318
000290 92 c9 cc bc cd c5 98 bb e2 7d b2 bb cf b0 fe 3b
       -0.02499846 -0.0046622516 -0.0054471353 0.007772542
0002a0 0f 13 c6 bc 8e 0c 90 3c 6d 92 7b 3b dc e9 8c bc
       -0.02417901 0.017584112 0.0038386837 -0.017201357
0002b0 48 23 17 3c 07 28 59 bb c5 1a 43 3c b8 48 21 3c
       0.00922472 -0.003313543 0.011908238 0.009843998
0002c0 43 e0 76 bb 73 4c 98 3b af d8 b8 3c 61 e0 24 3c
       -0.0037670291 0.0046477853 0.02256426 0.010063262
0002d0 62 f2 ad bc 20 7b 4c bc 6a 59 52 bc ff f9 2f 3c
       -0.021233741 -0.012480527 -0.012838701 0.010740756
0002e0 e4 c6 c4 bb 9a 83 e6 3b ad 94 04 3c ff 6c 99 bc
       -0.006005155 0.007034731 0.008092088 -0.018728731
0002f0 97 7b 2a 3c 89 5b ba 3c 34 bb 60 3c 2b 69 b8 3c
       0.010405443 0.022748725 0.013716508 0.022511085
000300 70 3e a1 3c cc 02 b1 3c 38 b0 b0 bc df dd 1e bb
       0.019683093 0.021607779 -0.021568403 -0.0024241132
000310 ce 57 91 3c 48 f3 bb bc e0 f8 f7 3b d1 22 87 bc
       0.017742064 -0.022943154 0.00756751 -0.016496094
000320 54 78 7c 3c 55 50 45 3c df 80 82 3c ef 84 71 bc
       0.015409548 0.012043078 0.015930591 -0.0147411665
000330 30 d7 a2 3c 90 28 1e bc bf 6a c6 3c 80 81 aa 3c
       0.019878 -0.009653226 0.024220822 0.020813704
000340 1e 5d d0 bb 3e 3d 3c bc 68 db 4b bc 0e 25 a9 3c
       -0.0063587567 -0.011489211 -0.012442447 0.020647552
000350 97 16 e3 3c fb 46 8c 3c 09 70 7b bc 0e 37 e3 bc
       0.027720733 0.01712369 -0.0153465355 -0.027736213
000360 29 e9 0b 3c 23 a2 26 3c 37 05 32 3c a5 82 1d bc
       0.008539476 0.010170492 0.010865501 -0.009613668
000370 6a f2 96 3b bc f6 92 3c af 1d 74 3c e2 48 bf bb
       0.0046065347 0.017939918 0.014899655 -0.0058375457
000380 b5 9f 4c bc 20 a5 1e bc c7 75 ea 3a f6 14 a2 bc
       -0.012489249 -0.009682924 0.0017887884 -0.019785386
000390 6b 12 78 bc b0 f1 9a 3c a3 d0 1e bd e1 a6 c3 bb
       -0.01514111 0.018914074 -0.03877319 -0.0059708213
0003a0 f5 9c cb bb 1e 94 86 bc 44 56 a0 3c e7 37 6c 3c
       -0.006213779 -0.01642805 0.019572385 0.014417625
0003b0 92 55 ca 3c d2 13 38 bc e4 6f 61 bb 81 42 72 bc
       0.024699006 -0.011235194 -0.0034398967 -0.014786364
0003c0 2f 55 c1 3c f2 b0 14 bc 29 ec 66 3c f3 a3 1b bc
       0.023600189 -0.00907539 0.014094391 -0.009499538
0003d0 ad c4 b0 3c 92 50 06 3b e5 72 1d bc 52 b4 a1 bc
       0.021578157 0.00204948 -0.0096099125 -0.019739304
0003e0 c3 a8 f4 3b b6 66 0a 3a 82 96 e2 bc a6 f4 fb bb
       0.007466407 0.00052795873 -0.027659658 -0.0076890765
0003f0 00 54 4f 3c be 50 10 bc 45 93 83 bc 9b 69 59 3b
       0.0126543045 -0.008808313 -0.016061435 0.0033174518

MatMul_1 f4 [32, 32]
000000 f7 b7 e7 3d 1d 62 92 bd 91 d4 5d bd 4d aa 40 3e
       0.113143854 -0.0714762 -0.054157797 0.18814965
000010 c2 47 dd bc 4b 05 a4 3d ad 0c 15 3d 0d 35 65 3d
       -0.027011756 0.08008822 0.03638904 0.055958796
000020 00 c5 07 bd 5a b4 f4 bd da 06 b9 3d 79 b0 f3 bd
       -0.03314686 -0.11948462 0.0903451 -0.11898894
000030 6c 4a 45 3c 56 5e 7c bc 4e 08 da 3d 2d c2 03 3e
       0.012041669 -0.015403351 0.10646115 0.12867041
000040 0a 30 d0 3d 65 1b 4e 3e 40 11 d4 3d d6 f6 06 be
       0.10165413 0.20127638 0.10354853 -0.13180098
000050 b2 61 f6 3d 5e fa 23 bc 59 b6 ff bd 7f 4d 53 3c
       0.12030353 -0.010008423 -0.12485952 0.0128968945
000060 f5 d8 c8 3d de 23 30 bd 24 97 c3 bc 66 0b 6c 3d
       0.09807006 -0.043002956 -0.02387578 0.057628058
000070 ce 2e 1e be b2 2e 4e 3d 51 32 70 bb c5 c3 9e bd
       -0.15447542 0.0503375 -0.0036651085 -0.07752184
000080 bd 0e 0d be 7a 17 38 3e 56 91 1e bd 81 39 8b 3c
       -0.13775153 0.17977706 -0.038712822 0.016995193
000090 26 0e 8e 3d a5 d0 14 be 6a 89 d7 bd 5b 0f ff bc
       0.06936292 -0.14532717 -0.105242565 -0.031135252
0000a0 c7 a2 a2 3d dd e4 77 3c 08 74 e9 bc 16 bb 80 3c
       0.079412036 0.015130249 -0.02849771 0.01571421
0000b0 77 7a b5 3d 07 ca bb 3d d2 68 97 bd b4 04 20 be
       0.08861249 0.09169393 -0.0739304 -0.15626794
0000c0 97 f6 10 3d 6d ff 9f 3d 0c e6 4b bc 03 ea d0 3d
       0.035391416 0.078123905 -0.012444984 0.10200884
0000d0 9e b6 22 be 3b 42 cf 3d 27 84 ae bc 37 de 0f 3e
       -0.15889975 0.10120054 -0.02130325 0.14049612
0000e0 84 e1 3e be e6 11 66 bc c7 2d 0c 3e b2 aa 4b 3d
       -0.18640715 -0.014042353 0.13689338 0.049723335
0000f0 f1 8c d1 bc d4 be 37 be bb a8 23 be 39 70 e8 bd
       -0.025579901 -0.17943889 -0.15982334 -0.1134953
000100 d8 15 d5 3b 41 6e 9d 3d 76 ed f7 3d 30 4b ba 3d
       0.006502848 0.07687045 0.12105839 0.09096372
000110 7b 0e 69 3d ed 03 5d 3d 5b 26 97 39 63 ed 70 3d
       0.056898575 0.053958822 0.0002882954 0.05882014
000120 43 46 99 bd ba 54 0e 3e 0e 45 bf bd f0 72 0a 3e
       -0.074841045 0.13899508 -0.09339343 0.13520408
000130 74 31 39 3d e4 93 21 bd 16 04 12 3e 39 c6 c0 bc
       0.045213178 -0.03944768 0.14259371 -0.02353202
000140 16 af 0d 3e 3e 42 69 3b 1a 1f 17 be 99 0e 25 bd
       0.13836321 0.0035592462 -0.14757958 -0.040297125
000150 37 83 0d bb b4 a6 c1 3c 64 5e 2a 3e 66 1e 0a be
       -0.0021593103 0.02363906 0.1663757 -0.13488159
000160 bd 97 27 3e 50 b7 a8 3d 4d e9 27 be fb 92 f1 3d
       0.16366477 0.08238089 -0.16397591 0.117956124
000170 72 7a a2 3d d8 13 02 3c 25 41 d1 3d 9b 1c fc 3d
       0.07933511 0.007939301 0.102175035 0.123101436
000180 bf d8 fd bc 16 99 99 bd 12 56 b2 3d 58 ff 7a 3d
       -0.030987142 -0.07499902 0.08707823 0.06127867
000190 b9 d8 0c be 6a 24 83 bd 0c eb fc bd a8 14 84 bd
       -0.13754548 -0.0640343 -0.12349519 -0.06449252
0001a0 d6 56 f3 3c 14 8c 20 3e cc 59 dc bc 06 2c 0e 3e
       0.029704493 0.15678436 -0.026898287 0.13883981
0001b0 b0 41 28 be de d1 a4 3d d5 95 80 bd 9d 91 e1 bc
       -0.16431308 0.080478415 -0.06278578 -0.027535254
0001c0 4b a4 18 be 0f 8b 8a 3d 97 a9 83 bc 52 67 a9 bd
       -0.14906423 0.067648046 -0.016072078 -0.0827166
0001d0 12 35 3a 3e b2 44 ae bd 1f 16 e9 bd a1 75 a3 3d
       0.18184307 -0.08509196 -0.113811724 0.0798142
0001e0 6a cb 36 3d c2 fb a4 bd 46 12 7c 3d 34 39 05 3d
       0.044627585 -0.080558315 0.061540864 0.032525256
0001f0 7a a4 8e bd 45 de f2 3d 22 72 54 bd fd aa e7 3c
       -0.06964965 0.11858801 -0.051866658 0.028279776
000200 fd 6c 8c 3d 0e a9 0a 3e 83 df 6b 3d 4b 41 45 3e
       0.06856725 0.13541052 0.057586204 0.19263189
000210 17 c3 17 3e 9c 30 19 be 28 37 24 3d 6a a6 05 be
       0.14820515 -0.1495995 0.040091664 -0.13051763
000220 8a eb d1 3c 29 47 8c 3d 77 ce 81 bc e6 2b 0d 3e
       0.02562501 0.0684951 -0.01584552 0.13786277
000230 c4 75 0e 3e 48 cc 14 be 72 dc d8 3d e4 02 5c bd
       0.13912112 -0.14531052 0.105889216 -0.053713694
000240 f2 ee 09 3d c3 6c fc 3d 65 29 15 be dc 9b ca bc
       0.03367514 0.12325432 -0.14566572 -0.024732523
000250 46 ca b8 bb f7 76 89 bd 69 29 26 bc b7 bc 8b bc
       -0.0056393472 -0.06712144 -0.010141709 -0.01705776
000260 d2 c9 82 3d 8e f4 99 bd 42 45 d0 3d 5b 63 40 bd
       0.063861504 -0.07517348 0.1016946 -0.046969753
000270 1f 4a 9d 3d 01 6e 7d bd b7 76 b0 bd 56 fe 9d bd
       0.07680153 -0.061872486 -0.08616393 -0.07714526
000280 10 c4 26 3e 00 0d 01 be b3 6e c8 3d df 33 2d bd
       0.1628573 -0.12602615 0.09786739 -0.042285796
000290 ae 87 a3 bd cc 52 d9 3d dc 4f 1f 3e 49 49 4d 3e
       -0.07984863 0.106114954 0.15557808 0.20047487
0002a0 5f c7 75 bd 68 66 2b 3e 3d 82 f3 3d a0 4e 83 3d
       -0.06000459 0.16738284 0.11890075 0.06411481
0002b0 f7 b0 34 3e c9 3b 1a be a7 c1 7e 3c 2f de ba bd
       0.17645632 -0.15061869 0.0155491 -0.091244094
0002c0 21 a3 93 3d 45 d3 f3 bd a3 4c 2f bd 50 39 a4 3c
       0.07208849 -0.11905531 -0.042797696 0.02004686
0002d0 9b 1c 4b 3c c1 4f 14 3e 8a a4 44 3e fa 9b ef bd
       0.012396957 0.14483549 0.19203392 -0.11699672
0002e0 dd 59 cc 3d 67 b5 17 3e 6b fd 13 3d 4d 99 27 3e
       0.099780776 0.14815293 0.03613035 0.16367073
0002f0 26 90 96 bd d6 7e 13 3e 14 89 bc bc 72 40 3c 3b
       -0.07351713 0.14403853 -0.023014583 0.0028724936
000300 0a 3f 2a 3e 3b cf 25 3c b5 d6 06 be d4 04 c7 bc
       0.1662561 0.010120208 -0.13167842 -0.024294294
000310 f9 fa c9 3c de 21 ef bd 0c c1 ea 3b 19 c8 ec bc
       0.024655806 -0.116763815 0.0071641263 -0.028904008
000320 ef f8 39 3e be 06 c1 3c fd d9 07 3e ee 18 c6 bd
       0.18161367 0.023562785 0.1326675 -0.09672724
000330 fb ca b2 bd b8 83 e0 bd f9 ce 0e 3d 48 e4 ac 3d
       -0.08730122 -0.10962623 0.034865353 0.08441979
000340 71 71 ae bd e8 c9 9e 3d cc 04 f6 3d 32 55 61 bd
       -0.08517731 0.07753354 0.12012634 -0.05501289
000350 60 3c 4b 3c b5 bf c6 bd 2c 4a 8a bd 41 02 8c bd
       0.012404531 -0.09704534 -0.067524284 -0.068363674
000360 42 aa 1b 3e 92 1b 62 bc a7 a2 fe 3d 13 c7 fd bb
       0.15201667 -0.013800519 0.12433367 -0.0077446788
000370 30 b7 a1 3d 71 d2 70 bb 03 71 18 3e 73 b4 13 3e
       0.07896268 -0.0036746527 0.1488686 0.14424305
000380 25 2a ba 3b 29 b9 fe 3d b6 92 ea bd fe 9a 40 3d
       0.0056812936 0.1243766 -0.11453764 0.047022812
000390 5b 54 f7 bd 34 6b 84 bc 86 f7 35 bc 00 8f 63 bd
       -0.120766364 -0.0161644 -0.0111063775 -0.055556297
0003a0 b2 ba a3 bd 52 c6 f3 3c c3 e8 2a 3e 02 c9 fa bd
       -0.07994594 0.029757652 0.16690354 -0.122453704
0003b0 4a 14 22 3e d2 63 b7 3c 34 10 24 3e e0 b3 da bd
       0.15828052 0.022386465 0.16021806 -0.1067884
0003c0 81 84 d8 bd bc 3a 22 3e 6c b9 01 be 4b 4a 52 bd
       -0.10572148 0.15842718 -0.12668389 -0.051340383
0003d0 1c d8 22 be 0b ee b4 3d e9 29 d3 3d eb 53 6d bd
       -0.15902752 0.088344656 0.10310728 -0.05794136
0003e0 d8 ce 03 be a8 eb 1b 3e 07 5e 0e 3e 84 18 e5 bb
       -0.12871873 0.15226614 0.13903056 -0.006991448
0003f0 74 ac 1b 3e ad 27 0f bd c5 9c 25 3e b5 59 11 3e
       0.15202504 -0.034949947 0.16173084 0.14194377

MatMul_2 f4 [1, 32]
000000 98 c8 14 3e f6 64 e9 be e7 7b 40 3e 4f d1 3b 3e
       0.14529645 -0.4558484 0.18797265 0.18341564
000010 74 f3 2f 3e 3a fc ee 3d 1d c2 71 3d e5 dd f7 bd
       0.17182714 0.11669202 0.05902301 -0.1210287
000020 3a da 00 be 04 28 dc 3d 22 1a aa 3d e8 3e 08 3e
       -0.12583247 0.1074982 0.08305766 0.13305247
000030 f8 42 b4 bd 79 fc 56 3e c7 a1 61 bc 98 26 c8 bc
       -0.08801836 0.20994748 -0.013771481 -0.024432465
000040 b7 47 13 be 5f 0b d2 be cc 63 28 3e 51 46 37 3e
       -0.14382826 -0.410243 0.1644432 0.17897917
000050 b2 0b b6 be 21 c9 43 3e 73 73 dd bc 1d 1d d2 be
       -0.35555798 0.19119693 -0.02703259 -0.41037837
000060 8e 4d db 3c 3e f2 c6 3d cb 38 b6 be bb 08 1a 3e
       0.02677038 0.09714173 -0.35590205 0.15042393
000070 95 4f dc bb 41 fa f0 bd f7 3d 3e 3e b5 f2 6d 3e
       -0.006723354 -0.11766482 0.18578325 0.23237117
