en/hey_mcqueen/Hey_McQueen.onnx (onnx, 205655 bytes, 9 tensors)

const_fold_opt__23 f4 [32, 1]
00000000: 2547 9dbe f62e 743d 2993 a0be abc1 2ebd
00000010: 4528 353d fa66 a6be a68b 283e 731c 453e
00000020: b8b1 513d 0aaf cebd ac79 9fbe 22b8 afbe
00000030: 93a0 163e 3d93 99be b05f a8be 205d 3b3e
00000040: a38b a1be 4327 aebe d04e 6e3d e469 1abe
00000050: 3dce b03b 1695 8cbd 7c32 573e 0313 023d
00000060: ed76 d13d 62cb 9c3d 9b33 93be d157 b5be
00000070: 27ae 5e3e f7e5 6c3e cfda 853e fa69 b1be
-0.3071834 0.059615098 -0.31362274 -0.042665165 0.044227857 -0.3250044 0.16459522 0.19249134
0.051194876 -0.1009198 -0.31147516 -0.3432017 0.14709692 -0.29995146 -0.32885504 0.18297243
-0.31551847 -0.3401433 0.05818063 -0.15079457 0.0053956793 -0.068643734 0.21015352 0.031756412
0.102277614 0.0765598 -0.2875031 -0.3541856 0.21746121 0.231346 0.261435 -0.34651166

const_fold_opt__22 f4 [32, 32]
00000000: 2ed2 eb3d 32f8 a53d a11b b8bd d3cb 6abd
00000010: 8176 d13d da39 a53d acd7 0e3e 7eae 533e
00000020: 4f26 2abd db0f 3fbd 8eb3 f0bd 89c0 03be
00000030: 9a26 66bd 304e 62be 907e bdbd bce0 a73d
00000040: 6791 d13d 2562 1f3a b9c2 153e db77 ecbd
00000050: b827 d23d 8c88 b6bd 5543 2e3d fd56 ebbd
00000060: e3c6 193c e0ac 38bb 376f d93d 7728 fdbc
00000070: f347 913e 41e8 a3bd cf1c f0bc e978 a33d
00000080: 58d3 35be 23f3 e5bd 6152 bfbd b561 a6bd
00000090: 027f 363d 78b6 203e 33f3 08be 3667 3b3d
000000a0: 7ee6 0abd 05cc ac3d 2b52 19be 835b f0bc
000000b0: 7226 31bd 9b6b aabc ac88 45be 91d0 123e
000000c0: 9fff 093d cc86 983c 13c6 2fbd f489 fd3c
000000d0: 0801 cc3d 23f3 69bd 4784 653e 5c56 173e
000000e0: ef60 5e3e e1bf 003e 25f9 d23d cf91 fd3d
000000f0: 3edd f23c 238b a3bd 03c2 bf3d 563d ad3c
00000100: 577b b63d be91 4bbe bf1a 1b3e e9f4 fdbd
00000110: d31f 8ebd fcad 423d 2b80 fdbd d618 16be
00000120: eb33 7dbd 6659 9e3d b306 d93d 5188 0b3e
00000130: 30e7 d1bc 597f 0a3e 093d 343d e53e 963d
00000140: 13aa e23c 7963 df3d af49 62bb 3df0 17be
00000150: c00d 113e 949a bcbd cac2 df3d 969a 53be
00000160: 271b 363d 59a7 34be 2679 103e 7ac6 2f3e
00000170: f9f1 04be 74dc 10be 25c1 94bd 587f 4c3d
00000180: 99da 80bd b7c4 e43d 97d1 bd3d 6bce cfbd
00000190: 29fd 473d d30d 4abe 8958 233e 329c f33d
000001a0: 24b8 8ebd 7f6c 7ebc 8ca6 8e3c 8c5e a83d
000001b0: def8 993d 8f96 143e eae3 0d3e 2865 423e
000001c0: 2be4 053d 64df 27bb 48da ebbd 3d35 8dbc
000001d0: 8ba3 9c3d da28 93bc 1bc5 c1bd 19c4 77bd
000001e0: 5d55 f63d 851e a83d 9a38 8fbd 4772 9f3d
000001f0: ed51 af3d cf58 663e d275 343e c9f0 ffbd
00000200: bade 7b3d 0867 22be 3812 2d3c 69e5 34bc
00000210: 9498 b83d 7e17 ff3d dd7f c3bd d3d2 abbd
00000220: 35b2 0b3e 4cd2 02be 0a72 5e3c 83b0 acbb
00000230: b8ea 363e 97c7 c43d 197c 763d ad96 edbc
00000240: 7422 f93d ac93 763d 87be 063d 0a88 153e
00000250: 5971 03bd 6e77 a83c 8440 1bbd 3ea1 9abd
00000260: 22a7 533a fda1 303e 56b7 a73c de81 9b3d
00000270: ec1d 08be 15fc 6b3d bd7d 4b3e 48b8 07be
00000280: f6c3 e4bd b3cd fd3d cc8f 84bb 4c93 6a3d
00000290: de76 74bd c22a f3bd 02db 1b3c 2b43 73bd
000002a0: 2930 a1bd d0c6 94bd 0e9e dbbd 6f62 0fbe
000002b0: c24a d6bc 5e9c 00be eacc eebd d75d c53c
000002c0: 3bfa 33be 501a 5c3d e462 fdbd 8911 143d
000002d0: 2ad3 fe3c 182e c53d bfe0 8dbd 2c87 cfbc
000002e0: 9ec9 bf3d cbc0 5e3d 3335 c3bc 2ac2 c3bd
000002f0: 7b1e 243e 87b2 ac3d 4708 14be 9e78 b93c
00000300: f937 56be 3e9a 013e 6f78 62bc 61b8 903c
00000310: abaa b23b 7546 33be c8a0 f33d 83d0 3f3e
00000320: 9223 e3bd b836 17be 7fc2 08be e627 f1bb
00000330: a67f ba3d 0b35 2a3d 5eed 8b3d 728f 013d
00000340: 41f7 ccbd 3ef9 8b3c f82d 9fbd e4ea 6b3d
00000350: efc3 85ba ff29 ec3d 0976 163e 50d3 e7bc
00000360: 8ee2 28bc 2466 2d3d faf6 86bd 4396 e2bd
00000370: 86e0 69bc 6139 f53c d63f 193e 04bb 38bd
00000380: abee 1c3e 18ce 01be e997 09be 6835 843c
00000390: bbee ffbd 25d1 273e d23c 4dbe e5e0 08be
000003a0: b25c 81bd 2802 9ebd 5537 25bd 455a 3abc
000003b0: 773c 4bbc 147f a53d bb3b 873d f14e 633b
000003c0: e52a 54bd d383 f8bd 9443 eebd 74dd d0bd
000003d0: b84d b33c 5a77 d4bb 32a0 053e 9fe1 1d3d
000003e0: 5a36 dbbd eb3e 273d 2dc0 d53c 0e5a 1b3e
000003f0: 21f3 eabc 5b73 ab3d 3cc6 20bd b50d 93bb
0.11514698 0.0810398 -0.08989645 -0.05732329 0.10227681 0.08067675 0.1394946 0.20672032
-0.04154044 -0.04664598 -0.11752997 -0.12866415 -0.056189157 -0.22100139 -0.092526555 0.081971616
0.102328114 0.00060799933 0.14625062 -0.11546298 0.10261482 -0.08912763 0.04254468 -0.11491201
0.009385797 -0.0028179213 0.10616916 -0.030903084 0.28375205 -0.08003283 -0.029310612 0.07982046
-0.17756402 -0.11228015 -0.093418844 -0.08124105 0.044554718 0.15694606 -0.13374023 0.045752726
-0.03391122 0.08437351 -0.14972751 -0.029340511 -0.043249555 -0.020803263 -0.19290417 0.14337374
0.033691045 0.018618964 -0.042913508 0.03094957 0.09961134 -0.05711664 0.22413741 0.14779037
0.21716665 0.12573196 0.10301427 0.123813264 0.029646512 -0.079855226 0.09363177 0.021147411
0.08910244 -0.19879815 0.15146922 -0.124002285 -0.06939664 0.047529206 -0.12377962 -0.14657912
-0.06181709 0.07731895 0.10596981 0.1362622 -0.025622934 0.13525142 0.04400352 0.07336215
0.027668988 0.10907645 -0.0034528782 -0.14837737 0.14165401 -0.09209171 0.10925825 -0.20664439
0.04445949 -0.17641963 0.14108714 0.17165557 -0.1298293 -0.14146596 -0.07263402 0.049926132
-0.06291694 0.11170333 0.09268492 -0.10146793 0.048825417 -0.19731836 0.15951742 0.11895026
-0.06968716 -0.015528797 0.0174134 0.082211584 0.07518171 0.14510559 0.13856474 0.189839
0.0326883 -0.002561533 -0.11516243 -0.0172373 0.07648381 -0.017963815 -0.09461423 -0.060489748
0.120280005 0.08208946 -0.06993218 0.077854685 0.08560548 0.22494815 0.1762307 -0.12497098
0.061491705 -0.15859616 0.010563426 -0.011041024 0.09013477 0.12455653 -0.09545872 -0.08389821
0.136422 -0.12775534 0.013576994 -0.0052700653 0.17862976 0.09608381 0.060176942 -0.029002512
0.121647745 0.060199425 0.032896545 0.14602676 -0.03209052 0.020564761 -0.037903324 -0.07550286
0.0008073916 0.17249294 0.020473164 0.075931296 -0.13292664 0.05761345 0.19872184 -0.13253891
-0.11170189 0.1239275 -0.0040454622 0.05726938 -0.059683673 -0.1187339 0.009512665 -0.05939023
-0.07870514 -0.07264483 -0.10723506 -0.14002393 -0.026158694 -0.1255965 -0.11660178 0.024092598
-0.17575924 0.05373603 -0.123723775 0.036149535 0.03110655 0.09627932 -0.069276325 -0.02533301
0.09364627 0.05438308 -0.023829078 -0.09558518 0.16027252 0.08432489 -0.14456283 0.022640523
-0.2091979 0.12656495 -0.013822659 0.017666044 0.005452474 -0.17507346 0.11895901 0.18731885
-0.11090769 -0.14766967 -0.13355444 -0.0073594926 0.09106378 0.041554492 0.068323836 0.03163094
-0.100080974 0.017086621 -0.0777244 0.057597056 -0.0010205487 0.115314476 0.14693464 -0.028299004
-0.010307921 0.042333737 -0.06590076 -0.110638164 -0.014274722 0.029934587 0.14965758 -0.045100227
0.1532542 -0.12676275 -0.13436855 0.016138747 -0.12496706 0.16388376 -0.20042732 -0.1336704
-0.06316508 -0.07715255 -0.04033597 -0.011374061 -0.012404553 0.08080879 0.066031896 0.0034684504
-0.05179872 -0.121345185 -0.11633983 -0.10198489 0.021887645 -0.0064839544 0.13049391 0.038545247
-0.10703726 0.040831488 0.026092613 0.15171072 -0.028680386 0.08371612 -0.03925155 -0.004487718

const_fold_opt__20 f4 [1536, 32]
00000000: a36b 943c 9567 be3c b911 c7bc 1836 7a3b
00000010: b86d 673c 1b48 013d 3403 023d ab8e 4dbc
00000020: 94a2 e93c b33a 333c 02d7 f8bc 54fb a0bc
00000030: eccf 7c3c 0abc 413d fb8c df3c 4839 b63c
00000040: 35f0 273b 4b01 1f3c 889f 903b 561a 32bb
00000050: 054b 4a3d 40c9 0e3c fde3 d0bc a10f e2bc
00000060: 48f5 643c 6969 503b 32c6 0f3d 64b9 253d
00000070: c3fc f53c 09fa e1bc 0520 813c db0c da3c
00000080: 5dc4 8c3c 6f59 b43c eb60 bd3a 6a99 f93c
00000090: 608f c0bb f9b0 8dbc 8770 a3bc fc58 ccbc
000000a0: cc47 c53c 3b95 863c 57aa 09bc d3e1 713c
000000b0: 6d4a 7e3c 43de b23c 9bf5 19bc 3399 ac3c
000000c0: 05e9 b2bc ea92 a0bc 37d8 00bc 3482 333c
000000d0: 5bbc 64bc 4d61 9a3c 18cb 903c 213f a4ba
000000e0: 5a13 b73c 956f b53c e577 653c dd2d 8fbb
000000f0: 7471 113c 1de7 91bc 0467 963c 3f6c 213c
00000100: 6b5d 003d 49ba f13c 8d87 573c f7a4 a1bb
00000110: d9ea 79bb 1fa9 a13c 0766 013b aa64 9cbc
00000120: 1861 853c 5d94 003d 13c1 bebc cc33 bbbc
00000130: d755 663c d983 933c c2e8 933c f630 753b
00000140: a080 c5bb 2f9b 533c 856b 313a fd48 b03c
00000150: 77f9 083b 4892 ae3a be71 2bbb 75dd 05bd
00000160: 3a1c 8ebc 0d1c c0bc 5b35 983c ea57 f33c
00000170: dcbf 84bc c9f1 0dbc acb9 e13c ab83 893c
00000180: 0f40 1e39 5295 403c 7dff d33c bbd5 c23c
00000190: e57f 2c3d eab6 173b 1c1c c83b 2c68 523c
000001a0: b93f 00bc 67d9 793c ce9a adbc cf1c 2c3c
000001b0: 0afb 263c 37b2 823b 75bd 923c 2d5f 863c
000001c0: 532f d6bc 8a61 c13b 449a 7b3b 7a20 753b
000001d0: 8b39 a4bc f5e6 883c 6de8 c4bc e7ac 683b
000001e0: e211 0a3b 2188 33bc 59b2 8dbc 33c7 d63c
000001f0: fbf6 e83c dd32 5e3b d9c3 c7bb e670 6fbc
00000200: 6e77 873c 3e6e e83b 276f c63b 50a3 ff3c
00000210: fb6a 94bc 40dc 44bc 3cf2 a3b9 a8ce ed3a
00000220: b02f f33c 6571 d83c 3fde 7ebc fbe9 ba3b
00000230: c0ca 2bbc 4fe0 883c db01 92bc 4375 023b
00000240: 02ec 953c a823 3e3c 0626 a03c 40a1 91bb
00000250: 891f e53c 3894 693c e827 96bc d6b3 063c
00000260: d996 d23c 441f 85bc 10a6 f83c 9ec0 013d
00000270: f905 b43c 277c 38bc 1b6e 99b7 d551 80bc
00000280: bea4 b83b 1f4c 073b 735f 48ba 85b5 9b3b
00000290: 95ef 98bb efe7 053b ac8b 9b3c 6ed9 40ba
000002a0: 013b b03b a12b 06bb 0400 bb3b 00fd a63c
000002b0: 14b9 903c 5483 943c ea5a b23c cd08 3f3c
000002c0: 9b61 38bc 7c95 9a3c cd1c 893c 25da 08bc
000002d0: a931 75bc 1b46 ddbb 74ee 883c 402c 62bc
000002e0: 6a62 fdbb f99f 103b 61a4 803a d69d a5bc
000002f0: 169f 6abc 6a37 7b3c 4504 1ebc 76d8 7fbc
00000300: 6db6 843b 0312 9fbc 0223 65bc 09c4 cb3c
00000310: d04d 003c bac2 02bc 14a6 b63a b88a 0ebb
00000320: 3367 54bb bdb9 933c 6503 2ebc 36c2 7dbc
00000330: 7778 f03b f98c c03b 4e15 3fbb 1674 553c
00000340: 3330 0abc 511a 903a 563e 38bc a418 82bc
00000350: 66ea 853c df92 403c dc2a 8fbb f615 9dbc
00000360: a12a 84bb b582 1f3c 2951 afbb 7360 613c
00000370: bd2a 0ebc 954e 01bb c965 92bb 6546 0dbc
00000380: d72f 283c e5ac 863c 81b7 11bc 54cd afbb
00000390: 47fd a8bc 7b38 b4bc d01b 2c3b 4aba c23b
000003a0: 4484 90bb 75f0 21ba a0dc 9c3b eddc 9eba
000003b0: 9600 02bd 09ec b33c d02e 3dbc a222 0b3c
000003c0: d9db aabb 4643 553a ca86 3dba 60d1 ba3c
000003d0: a64b cbbc 4c0e b33c 9a0c ec3c b345 1bbc
000003e0: afaf f63b b526 0ebc 43ca d3bc a114 ef3b
000003f0: 9372 3e3c 03aa 4b3c f9b5 6d3c 7203 d7bc
0.018117731 0.023242751 -0.024300443 0.0038179215 0.01412528 0.031562906 0.031741336 -0.012546222
0.028519906 0.010939288 -0.030375961 -0.019651093 0.015430432 0.04729847 0.027288904 0.02224411
0.0025625352 0.009704898 0.004413549 -0.0027176342 0.04938795 0.008714974 -0.025499338 -0.027595343
0.013974495 0.003180111 0.035101123 0.040460005 0.030027753 -0.027585046 0.015762338 0.026617458
0.017183477 0.022015302 0.001444844 0.030468661 -0.0058764666 -0.017296301 -0.019951118 -0.024944775
0.024082087 0.01642858 -0.008402429 0.014763313 0.015520674 0.021834498 -0.009396936 0.021069145
-0.021839628 -0.019601304 -0.00786405 0.010956336 -0.013960923 0.018845225 0.017674968 -0.0012531021
0.022348095 0.022147933 0.014005636 -0.004369481 0.008877147 -0.017810399 0.018359669 0.009852468
0.03133909 0.029507773 0.013154876 -0.0049329954 -0.0038134365 0.019733964 0.001974465 -0.01909097
0.01628165 0.03139149 -0.023285424 -0.022851847 0.014058552 0.018007206 0.018055324 0.0037413216
-0.006027296 0.012915417 0.0006768036 0.021519179 0.0020900646 0.0013318742 -0.0026160325 -0.0326819
-0.017347444 -0.023450876 0.01858013 0.029705007 -0.016204767 -0.008663603 0.027554356 0.016786417
0.00015091918 0.011754351 0.025878662 0.023783555 0.042114157 0.0023149797 0.0061068665 0.012842219
-0.007827693 0.015249587 -0.02119198 0.010504915 0.010191688 0.00398853 0.017912606 0.016402805
-0.026145613 0.00590152 0.003839151 0.003740339 -0.02004697 0.016711691 -0.02403661 0.0035503448
0.0021067788 -0.010957749 -0.017296957 0.026218032 0.028438082 0.0033904829 -0.006096345 -0.014614319
0.01653644 0.00709322 0.006055731 0.031205803 -0.018117419 -0.012015402 -0.0003127026 0.0018143253
0.029685825 0.026421258 -0.015555917 0.005704162 -0.010485351 0.016708521 -0.01782315 0.001990632
0.018301014 0.011605181 0.019549381 -0.0044442713 0.027969139 0.0142565295 -0.018329576 0.008221587
0.025706695 -0.01625026 0.030352622 0.031677835 0.021975504 -0.011260069 -1.8290293e-05 -0.01566402
0.005634873 0.0020644737 -0.00076436176 0.0047518634 -0.0046672323 0.0020432433 0.0189875 -0.00073566183
0.0053781276 -0.0020472782 0.005706789 0.020384312 0.017666377 0.018129028 0.021771867 0.011659813
-0.01125374 0.018870108 0.016737366 -0.008352791 -0.014965453 -0.006752742 0.016715266 -0.013804495
-0.007732679 0.0022068007 0.0009814614 -0.020216864 -0.014320156 0.015333036 -0.009644573 -0.015615573
0.004050067 -0.019417768 -0.013985397 0.02487375 0.007831052 -0.007980997 0.0013934993 -0.0021750163
-0.0032410144 0.018032903 -0.0106209265 -0.015488198 0.0073385793 0.0058761803 -0.0029156986 0.013028165
-0.008434343 0.0010994171 -0.011245331 -0.01588089 0.016347121 0.011753767 -0.004369123 -0.01917551
-0.004033402 0.009735753 -0.005350251 0.013755905 -0.008677182 -0.0019730676 -0.0044677 -0.00862274
0.010265312 0.016439864 -0.008893848 -0.005365053 -0.020628585 -0.021999588 0.0026261695 0.0059426175
-0.0044102985 -0.00061774935 0.0047870427 -0.0012120284 -0.03173884 0.021963136 -0.0115468055 0.008492144
-0.005214196 0.00081353297 -0.0007229863 0.022804916 -0.024816345 0.021857403 0.028814603 -0.009477067
0.0075282673 -0.008676221 -0.025853282 0.0072961603 0.011623996 0.012430671 0.014508718 -0.02624676

Const_7 f4 [32]
00000000: f2c5 823e d5b3 da3c 5cb8 7b3e 1638 ef3b
00000010: 4c1c 4f3d 8c67 6c3e c7a9 ad3c 58fe d93d
00000020: eb7b 6abc 8b83 fbbc 1406 773e 536a 5f3e
00000030: 6bb9 9b3d ec22 7b3e e00a 853e ae25 633d
00000040: 1753 723e 4be2 813e 677f 073d dd3a bfbc
00000050: e198 0bbe d8e5 aebc 8143 c63c 0da4 363d
00000060: a432 a33a c478 023d 44df 803e 5e1a 613e
00000070: 0cf8 263e 9a2e 9d3d 05c3 9b3d 09c7 803e
0.25541645 0.026697079 0.24582046 0.007300387 0.050564095 0.23086375 0.02119912 0.10644215
-0.014311771 -0.030702373 0.24123412 0.21817903 0.07603725 0.2452504 0.2598486 0.055455856
0.23664509 0.2536796 0.033080485 -0.023343498 -0.13632537 -0.021349832 0.02420211 0.044590045
0.0012451005 0.031853452 0.25170338 0.21982715 0.1630556 0.07674904 0.076055564 0.25151852

Const_6 f4 [32]
00000000: 7029 a43f 9fde 823f 804f a13f e78b 803f
00000010: bc3a 883f d7a2 9c3f 4cf7 823f 1fcc 8e3f
00000020: 283c 773f 995c 773f 2396 9f3f 7e13 983f
00000030: adf3 8a3f 9914 a03f 32eb a63f 64d4 8a3f
00000040: badd 9d3f cfff a43f 0a72 823f 94c5 793f
00000050: 6b77 593f 5a90 7a3f 2ce2 8b3f b855 883f
00000060: c8d7 803f 4d13 873f 2dc3 a13f fdf7 993f
00000070: 253e 9b3f 795e 8c3f a2f6 8c3f bf9d a53f
1.2825146 1.0224189 1.2602386 1.0042695 1.0642924 1.2237195 1.0231719 1.1156043
0.96576166 0.9662567 1.2467693 1.1880949 1.0855614 1.2506286 1.3040526 1.0846066
1.233329 1.2890567 1.0191052 0.97567105 0.8494784 0.97876513 1.0928397 1.0651159
1.0065851 1.0552765 1.2637688 1.2028805 1.212834 1.0966331 1.1012766 1.2938765

Const_5 f4 [32]
00000000: 0683 fd3d 61f1 fbbc debb c2bd 908d 3dbe
00000010: 05f7 cb3d 4822 593c 3ca4 163e 82f1 b5bd
00000020: 9969 8abd e233 553d 1382 103d 9309 50bc
00000030: 0b50 f63c 0868 95bd 1654 003d ce30 d0bd
00000040: 839e 88bb cd3a a33d 3449 443d d08c ee3b
00000050: e0c4 8dbd 7237 22bd fdb7 f6bc 3825 f33d
00000060: 9396 663d 4747 dabd 2b3d 1f3e 951d 72bd
00000070: 8249 23bd c50d d4bd 4f88 dabd e3d3 3f3e
0.12378506 -0.030754747 -0.09508489 -0.18511033 0.099592246 0.013252802 0.14711088 -0.088839546
-0.067584224 0.052051432 0.0352803 -0.012697595 0.030067464 -0.07295233 0.03133019 -0.10165559
-0.0041692867 0.079702 0.047921374 0.0072799698 -0.069223166 -0.039603658 -0.03011703 0.11872333
0.056295943 -0.10658126 0.15550677 -0.059110243 -0.039865024 -0.10354189 -0.1067053 0.18733172

Const_3 f4 [32]
00000000: 9dd7 7dbc c000 1c3b 209f 123c 50a6 74bc
00000010: 9459 903c 3040 2bbc 78d9 eb3a 1b30 2a3c
00000020: 579f 9cbb 0180 a43c c92c 0b3c e27d 333c
00000030: 68d1 cfbb c2aa 35bb 74ab 31bc f317 0a3c
00000040: 872c 9e39 fdad 6dbc db96 493c a9be 39bc
00000050: dddf 1ebc d199 51bc 0549 11bc 516a 4e3c
00000060: 8103 d1bb f9d2 5abc 7269 51bc cf1e a33b
00000070: 51ac 5bbc a1e5 dc3c c23e 32bc db6b 9ebb
-0.015493301 0.0023804158 0.008949071 -0.01493223 0.01762084 -0.010452315 0.0017993888 0.010387446
-0.004779737 0.020080568 0.008494564 0.010955306 -0.006342102 -0.0027720188 -0.0108441 0.0084285615
0.00030169284 -0.014506814 0.012304033 -0.011336961 -0.009696928 -0.01279302 -0.008867507 0.01259859
-0.0063785915 -0.013355964 -0.012781488 0.004978038 -0.013407783 0.026964964 -0.01087922 -0.0048346347

Const_2 f4 [32]
00000000: f72e 7f3f 2ba3 7f3f b9bb 813f cca9 803f
00000010: f362 813f c277 7c3f 28e0 803f 6613 7e3f
00000020: f9a9 7a3f d0d8 7c3f 255f 843f 2e26 7e3f
00000030: e2f6 7e3f b571 7f3f 62d7 7b3f 8ef6 763f
00000040: 4140 7a3f 7924 7e3f 0c26 7a3f 3304 7d3f
00000050: 263f 773f a66b 7f3f bf90 7c3f 1e1b 833f
00000060: 3723 843f cef5 7c3f bcb1 833f 7670 813f
00000070: 899c 7f3f b5a0 813f 0026 803f fa2d 883f
0.9968104 0.9985835 1.0135413 1.0051818 1.0108322 0.98620236 1.0068407 0.9924835
0.9791561 0.9876833 1.0341536 0.9927701 0.99595463 0.9978288 0.98375523 0.9646996
0.97754294 0.992744 0.97714305 0.9883453 0.9658073 0.99773633 0.98658365 1.024265
1.0323247 0.9881257 1.0288615 1.0112445 0.9984823 1.0127169 1.0011597 1.0639031

Const_1 f4 [32]
00000000: 1e54 9dbc 8edd abbc 8610 2c3c 7955 523a
00000010: e187 0f3c cdca 9abb c8a2 91bc 52a4 9c3c
00000020: e36f a03c 67d7 113c a506 c63b 2d97 2cbc
00000030: 35ae 99bb d978 8fbc 2087 953b 26a2 923c
00000040: b96d 18bc 34c5 9f3c 632a 8b3c b08a 8d3c
00000050: 779a 873a 8d7c ad3c ecb7 26bc 1565 4e3b
00000060: d50a 763b 87c4 933c 2ffe c93c daa3 69bc
00000070: 9a4b fcbb 24d1 dc3c e1aa 723c c706 7d3c
-0.01920515 -0.020979669 0.010501986 0.00080236007 0.008760423 -0.004723883 -0.017777815 0.019121323
0.019584602 0.008901454 0.0060432726 -0.01053409 -0.0046899565 -0.01751368 0.0045632273 0.017899584
-0.009303504 0.019503213 0.016987985 0.017278045 0.0010345717 0.021177555 -0.010175686 0.0031493355
0.0037543077 0.018038047 0.024657337 -0.014260257 -0.007699442 0.026955195 0.0148112485 0.01544351
