en/polly/polly.onnx (onnx, 205643 bytes, 9 tensors)

const_fold_opt__23 f4 [32, 1]
0	0x3d4f0e0f	0.050550517
1	0xbebe047a	-0.3711279
2	0xbebd9a11	-0.37031606
3	0xbe93168c	-0.2872814
4	0x3dba9ba2	0.09111716
5	0x3e17a8c2	0.1481047
6	0xbd8a462a	-0.06751664
7	0xbec23ae8	-0.37935567
8	0x3dc5277d	0.096266724
9	0xbc7eff99	-0.015563869
10	0xbead8ac6	-0.33894938
11	0x3e277d69	0.16356434
12	0x3e4cefc2	0.20013335
13	0xbebf2b73	-0.37337837
14	0x3e2453ef	0.16047643
15	0x3d05bc50	0.032650292
16	0x3e240349	0.16016878
17	0x3e09bed6	0.13451704
18	0xbea40488	-0.32034707
19	0xbd7898c6	-0.06069257
20	0x3e350390	0.1767714
21	0x3d5c3610	0.053762496
22	0xbd0241d0	-0.031801045
23	0x3d3e1f6b	0.04641668
24	0x3d5315d1	0.051534478
25	0x3e4d1f45	0.2003146
26	0xbeadcf94	-0.33947432
27	0xbc7ea5e6	-0.015542483
28	0x3e33be0a	0.17552963
29	0xbea96e59	-0.33092
30	0x3de388d2	0.11110081
31	0x3e0a7dd9	0.1352457

const_fold_opt__22 f4 [32, 32]
0	0x3d97b6c8	0.0740791
1	0x3ca56e3c	0.020194165
2	0x3e29b46c	0.16572732
3	0xbda1b9be	-0.07896756
4	0xbe20d4c2	-0.1570616
5	0x3dc8c84c	0.098038286
6	0x3dc399e3	0.09550836
7	0xbd730556	-0.05933126
8	0xbd9a653f	-0.075388424
9	0xbe151441	-0.14558508
10	0x3ca55e76	0.020186644
11	0xbdf1c459	-0.118050285
12	0xbe0b4922	-0.13602117
13	0x3d9f35d9	0.077739425
14	0xbdbd0c3d	-0.0923085
15	0x3dcc9b42	0.099905506
16	0x3d881877	0.06645291
17	0xbd3952d1	-0.045244996
18	0x3df26104	0.118349105
19	0xbd9bbb16	-0.07604043
20	0x3da7a86c	0.08186421
21	0x3b538675	0.0032276188
22	0xbe03a371	-0.12855317
23	0x3d0d780d	0.034538317
24	0xbe167fbd	-0.14697166
25	0xbd761f5d	-0.060088504
26	0xbd4a716b	-0.04942457
27	0x3df084e0	0.11744094
28	0x3d95d4bf	0.07315969
29	0x3bc29c6f	0.0059390585
30	0x3e17f7ce	0.14840624
31	0xbdf892b9	-0.1213736
32	0x3ce7c8bd	0.028293962
33	0x3d8c5369	0.06851847
34	0x3ce88e83	0.028388267
35	0x3df081b9	0.11743493
36	0x3cd7c9fd	0.026341433
37	0x3d37f100	0.04490757
38	0xbd321b6e	-0.04348319
39	0x3cd836c1	0.026393296
40	0xbd173d16	-0.03692349
41	0x3cb8c9bc	0.022557132
42	0xb9806478	-0.00024488918
43	0xbde266e7	-0.11054783
44	0xbdadc060	-0.08483958
45	0x3e0749e1	0.13211776
46	0xbe21c3b1	-0.15797307
47	0xbe0d656d	-0.13808222
48	0x3dd6195f	0.10454058
49	0xbd7fdd57	-0.062466945
50	0x3e3c858e	0.18410322
51	0xbbd0dcab	-0.006373962
52	0xbdaa782c	-0.08323702
53	0x3e00e603	0.12587743
54	0xbcf3e109	-0.029770391
55	0xbdb169c5	-0.08662752
56	0xbde0a63c	-0.10969207
57	0xbd81f546	-0.0634561
58	0xbda8c3a3	-0.0824044
59	0xbd0a43e7	-0.033756163
60	0xbc279e64	-0.010230634
61	0x3d1aaddc	0.03776346
62	0xbd8d24c7	-0.0689178
63	0xbda05dd8	-0.07830399
64	0x3e0a1fe4	0.13488728
65	0x3e3e6d44	0.18596369
66	0x3dcd39f7	0.100208215
67	0x3dac96d5	0.084272064
68	0xbce69161	-0.028145494
69	0xbe216720	-0.15761995
70	0x3d60a1a3	0.05484165
71	0x3e8ea612	0.27861077
72	0x3ddf2ea3	0.10897567
73	0xbe39c69a	-0.18142167
74	0x3b3de55f	0.0028975827
75	0x3d9393a4	0.072058946
76	0x3c4b1950	0.012396172
77	0x3d129b91	0.03579289
78	0xbd3e488d	-0.04645591
79	0xbc8ea735	-0.017413715
80	0xbd898765	-0.067152776
81	0x3c9f3232	0.019433115
82	0x3d840b12	0.06447424
83	0xbd96a0b1	-0.07354868
84	0xbe00f248	-0.12592423
85	0xbe52d18d	-0.2058775
86	0xbd8307c5	-0.06397966
87	0xbc82ebf0	-0.015981644
88	0xbcdb9282	-0.026803259
89	0xbe0b0adf	-0.13578366
90	0xbd2cbf26	-0.04217448
91	0x3e03b7b0	0.1286304
92	0xbe012eeb	-0.12615554
93	0x3dbb6e84	0.091519386
94	0x3da69443	0.081337474
95	0x3d2a0c88	0.041515857
96	0x3dc8a433	0.097969435
97	0xbdf0be36	-0.1175503
98	0x3e0045a9	0.12526573
99	0x3da116df	0.078656904
100	0x3def3da3	0.11681678
101	0x3d1df879	0.03856704
102	0x3e1cf2fc	0.15327066
103	0x3da6e6fe	0.08149527
104	0xbe26bb37	-0.16282354
105	0x3ddfb479	0.10923094
106	0xbd6db5c2	-0.058034666
107	0xbd60acc1	-0.05485225
108	0x3da06729	0.07832176
109	0xbcb1bbc8	-0.021695986
110	0xbcbc36ff	-0.022975443
111	0x3e08ad09	0.13347258
112	0xbe17e986	-0.14835176
113	0x3db4a97c	0.08821389
114	0xbd8395ed	-0.064250804
115	0xbe24e762	-0.1610389
116	0x3d81524d	0.06314526
117	0x3db27ab8	0.08714813
118	0xbd6877f9	-0.05675504
119	0x3d58145e	0.0527538
120	0xbd8be9e1	-0.06831718
121	0x3d901b8d	0.07036505
122	0x3d0e1220	0.034685254
123	0xbb9f8e59	-0.004869264
124	0xbd8217ef	-0.06352221
125	0xbc05aef8	-0.008159392
126	0x3db8aaea	0.09016974
127	0x3dbbdd25	0.09173039
128	0xbdd0718a	-0.10177906
129	0x3e32b559	0.17451991
130	0x3e048eb6	0.12945065
131	0xbe3073d6	-0.17231688
132	0xb9fb9c33	-0.00047990828
133	0xbde12ee4	-0.10995272
134	0x3caf9577	0.021433575
135	0x3b18ba7d	0.0023304515
136	0xbe0d7a67	-0.13816224
137	0x3dfd4ba8	0.12367946
138	0x3e1f197e	0.15537068
139	0xb99b013f	-0.00029564832
140	0xbe01977e	-0.12655446
141	0x3dee7ca2	0.116448656
142	0x3dbd002b	0.09228548
143	0x3d364709	0.04450134
144	0x3d57afd0	0.052657902
145	0xbd9f29c5	-0.07771639
146	0x3e1ab7a8	0.15109122
147	0xbdb7344e	-0.08945523
148	0x3ccccbf5	0.024999598
149	0x3dee3cf4	0.1163272
150	0x3bf8c9c3	0.0075924112
151	0x3daf7747	0.08567672
152	0x3dea2211	0.11432279
153	0x3db8280a	0.08992012
154	0x3e0fc553	0.14040117
155	0xbd9ff694	-0.07810703
156	0xbd4d779d	-0.0501629
157	0x3e2ee66c	0.17080086
158	0x3deab3f7	0.11460107
159	0xbd708cb1	-0.058727924
160	0x3dda7d82	0.1066847
161	0xbd474dc3	-0.048658144
162	0x3cd0cba3	0.025487727
163	0xbd8de13c	-0.06927726
164	0xbe14cf60	-0.14532232
165	0x3dd81aee	0.105520114
166	0xbdf31799	-0.11869735
167	0xbe00cbd5	-0.12577756
168	0x3d64d55c	0.055867538
169	0xbda9482f	-0.08265721
170	0xbdce567e	-0.10075091
171	0x3de5ef3e	0.112272725
172	0x3e23f122	0.16009954
173	0xbd5e76ec	-0.05431263
174	0xbd464233	-0.048402976
175	0x3d737138	0.059434146
176	0xbd8739e1	-0.066028364
177	0xbd8219a9	-0.063525505
178	0xbdf9950f	-0.12186634
179	0x3e267b9e	0.16258094
180	0x3e21e87f	0.15811346
181	0xbd509a05	-0.050928134
182	0xbbbe09d7	-0.005799513
183	0xbe109662	-0.14119866
184	0xbd08be49	-0.033384595
185	0x3dd5961b	0.10429021
186	0x3d939f8d	0.07208166
187	0xbd998a86	-0.074971244
188	0xbe1f1e11	-0.15538813
189	0xbded3335	-0.115820326
190	0xbd47dbe4	-0.04879369
191	0x3e21a460	0.1578536
192	0xbde0e6bf	-0.10981511
193	0xbdf886c7	-0.12135082
194	0xbce65e51	-0.028121145
195	0xbe061c5e	-0.13096759
196	0x3d67e924	0.056618825
197	0x3e077b4b	0.13230626
198	0xbd53152f	-0.051533874
199	0xbb69ae0f	-0.0035656726
200	0x3d91cdc4	0.07119325
201	0x3e30b24e	0.17255518
202	0x3c03a16c	0.008034091
203	0x3e1177e5	0.14205892
204	0xbd975224	-0.07388714
205	0xbe008d3c	-0.12553877
206	0x3e5464b1	0.20741536
207	0xbd9185f0	-0.07105625
208	0x3e19da7d	0.15024753
209	0xbdd9d3e0	-0.10636115
210	0xbe22ae0f	-0.1588671
211	0xbdb801ad	-0.08984695
212	0xbd8a27bc	-0.0674586
213	0x3ccadb26	0.024762701
214	0xbd1cb96a	-0.038262762
215	0x3e3a8e5b	0.18218367
216	0xbddd201e	-0.107971415
217	0x3db58df5	0.08864967
218	0xbe0cc613	-0.13747434
219	0x3dadf35c	0.08493683
220	0x3e40e0ca	0.1883575
221	0xbd463525	-0.048390526
222	0x3e375892	0.1790488
223	0x3ddb8f61	0.10720707
224	0xbd694cc0	-0.05695796
225	0xbcb89c4a	-0.022535462
226	0xbdfccaa7	-0.1234334
227	0x3c9a56fd	0.018840307
228	0xbd55e528	-0.052220494
229	0xbdb9e0fc	-0.090761155
230	0xbda7486f	-0.081681125
231	0x3e1959b8	0.14975631
232	0xbdc77eaf	-0.0974096
233	0xbd16369d	-0.036673177
234	0xbd7a5d6e	-0.061124258
235	0xbd7aef5f	-0.06126344
236	0x3d95999c	0.07304689
237	0xb90f0111	-0.0001363794
238	0xbc7941b3	-0.015213418
239	0x3dc9d97c	0.09855935
240	0x3e230abf	0.15922068
241	0x3d062f09	0.0327597
242	0xbd281e08	-0.041044265
243	0xbd5053ce	-0.050861172
244	0xbdcf786e	-0.10130392
245	0x3d33307f	0.04374742
246	0xbd35d32a	-0.044390835
247	0x3bf8fd0a	0.007598524
248	0xbd8d91e8	-0.06912595
249	0xbd98332c	-0.07431635
250	0xbe2dc464	-0.16969448
251	0x3e1ead0e	0.15495703
252	0x3d7d9d3d	0.061917532
253	0xbe0894e5	-0.13338049
254	0x3bfc7d35	0.0077053555
255	0x3d2c5a0d	0.042078067

const_fold_opt__20 f4 [1536, 32]
0	0x3c43eb29	0.011957922
1	0x3c51d92c	0.0128081255
2	0xbbd591f1	-0.0065176417
3	0x3c88d714	0.01670412
4	0xbb0e14db	-0.0021679911
5	0xbc07933b	-0.008274849
6	0xbd075da7	-0.0330483
7	0xbc642ec9	-0.01392717
8	0x3aa99eb3	0.0012940973
9	0xbc2aae8b	-0.010417591
10	0xbc9ce04d	-0.019149924
11	0xbc8de129	-0.017319279
12	0xbcaca047	-0.02107252
13	0x3ae64b44	0.0017570038
14	0x3c20d050	0.009815291
15	0xbb2965ba	-0.0025847987
16	0x3c295c20	0.010336906
17	0x3c85ff26	0.016357016
18	0xbb48a321	-0.003061481
19	0x3c88bcd5	0.016691605
20	0x3cf74984	0.030186422
21	0xbc1818b8	-0.009283237
22	0xba1962fd	-0.0005851237
23	0xbc5b3310	-0.0133788735
24	0x3cb17527	0.021662308
25	0xbcb18e6f	-0.021674363
26	0x3caefbb9	0.021360265
27	0x3b723819	0.0036959706
28	0xbc18cf33	-0.009326744
29	0xbc0fb7e2	-0.008771868
30	0x3aa95d43	0.0012921471
31	0xbc9bc16d	-0.019013131
32	0x3ca5dc77	0.020246727
33	0xbc14b7cc	-0.009077024
34	0x3bec4a75	0.0072110244
35	0xbce24100	-0.027618885
36	0x3b0406d8	0.002014568
37	0xbcafc187	-0.021454586
38	0x3bc04650	0.005867757
39	0xbc56ecfb	-0.013118024
40	0xbb09973f	-0.002099469
41	0x3b7b9511	0.003838841
42	0xbb7b0d8f	-0.0038307642
43	0x3b3d9b26	0.0028931587
44	0xbb92f37a	-0.004484591
45	0x3ca1ee5c	0.019766979
46	0xbc002e09	-0.007823476
47	0xbcc022ba	-0.023454059
48	0xbc937a6d	-0.018002713
49	0xbc9ce52d	-0.019152248
50	0xbb9cad52	-0.0047814036
51	0xbc34d51b	-0.011037136
52	0x3b29d89b	0.002591646
53	0x3c9e67f1	0.019336672
54	0x3c3b1fac	0.011421125
55	0xbcc1b934	-0.023647882
56	0xbb88988f	-0.004168577
57	0xbc0425d7	-0.008065662
58	0xbb897752	-0.0041951323
59	0xba805443	-0.0009790737
60	0x3aab4321	0.0013066271
61	0xbcaa8f40	-0.02082026
62	0x3bc1e3fc	0.0059170704
63	0xbc038b4d	-0.008028817
64	0xbc487f91	-0.012237445
65	0x3b413e3a	0.0029486553
66	0xbbfe39fd	-0.0077583776
67	0xbc7302af	-0.014832183
68	0xbc1394f8	-0.009007685
69	0x3b12fcaa	0.0022428432
70	0x3bdfa142	0.0068246434
71	0xbb0e4944	-0.002171115
72	0x3cbb36e7	0.022853328
73	0x3d09ef89	0.033675704
74	0xb724c151	-9.820172e-06
75	0xbc4fe800	-0.01268959
76	0x3c1647b7	0.009172372
77	0x3c182a6f	0.009287461
78	0xbcae1a07	-0.021252645
79	0x3ac9e929	0.001540457
80	0xbc141599	-0.009038352
81	0x3cbb6f32	0.02288017
82	0xbc8deb9a	-0.017324258
83	0x3c2ac4ca	0.010422895
84	0x3c1b80f3	0.009491193
85	0xbbc1f884	-0.005919518
86	0x3ba17656	0.004927437
87	0x3d3bec32	0.04587955
88	0xbbc9045d	-0.0061345533
89	0x3ca2cfcc	0.019874476
90	0xb88ba3de	-6.658559e-05
91	0xbbe234ca	-0.0069032656
92	0x3babc22c	0.005241653
93	0xbbd0b5e4	-0.0063693393
94	0xbc974639	-0.018466102
95	0xba306739	-0.00067292486
96	0xbb8eb9d7	-0.00435565
97	0x3d1aab56	0.037761055
98	0x3d182f19	0.03715429
99	0xbcd060b1	-0.025436731
100	0x3bcc877e	0.006241738
101	0x3bba933a	0.0056938203
102	0xbd5ac970	-0.053414762
103	0xbbeb3941	-0.007178456
104	0xbd12804b	-0.03576688
105	0xbc40dbc7	-0.011771149
106	0xbc76db0f	-0.015066876
107	0x3c04e6de	0.008111684
108	0xbce01df7	-0.027358038
109	0x3bef8a4a	0.0073101865
110	0xbcdee8b4	-0.02721057
111	0xbd0beea3	-0.03416313
112	0xbc8c3cfd	-0.017118925
113	0xbc832873	-0.016010499
114	0xbcc81b15	-0.024426976
115	0x3c575094	0.01314177
116	0xbd1249a3	-0.035714757
117	0x3c8b73cf	0.017022995
118	0x3c061afc	0.0081851445
119	0x3c3a75e2	0.0113806445
120	0xbd098547	-0.03357437
121	0xbc536a9b	-0.012903835
122	0x3c148108	0.009063967
123	0x3ca0fef2	0.019652817
124	0xbd78bbeb	-0.060726088
125	0x3b2822b7	0.0025655457
126	0xbb3af2e0	-0.0028526112
127	0xbc1ec446	-0.00969035
128	0xbc044b9c	-0.008074667
129	0xbb61fd5c	-0.003448329
130	0x3c26cc28	0.010180511
131	0x3d1515c4	0.03639771
132	0x3c86729c	0.016412072
133	0xbc8fbc28	-0.017545775
134	0x3b8fab1f	0.004384413
135	0x3cebf3ea	0.02880283
136	0x3c2867fe	0.0102787
137	0x3c7cbe22	0.015426191
138	0x3a2733d3	0.0006378267
139	0xbc273719	-0.010206007
140	0x3c2c24b3	0.010506797
141	0x3b8c0ba7	0.00427385
142	0x3b585c57	0.0033014023
143	0x3c06e058	0.008232199
144	0xbba6e79f	-0.0050935294
145	0x3cd347b7	0.025791032
146	0x3c5f0922	0.013613017
147	0xbbe1ef52	-0.0068949843
148	0x3cd78dd4	0.026312746
149	0xb9a811e6	-0.00032056792
150	0xbbbf9cd5	-0.0058475533
151	0x3b069a2a	0.0020538666
152	0xbc963f2b	-0.018340668
153	0xbc69085b	-0.0142231835
154	0xbcb4c3c0	-0.022065997
155	0x3c0bcac4	0.00853223
156	0x3c975544	0.018473275
157	0x3b252056	0.0025196276
158	0xbbed773f	-0.0072468813
159	0xbc6f5a91	-0.014608995
160	0x3b5df38b	0.0033867087
161	0x3bd8df7d	0.0066184388
162	0xbcdc4700	-0.026889324
163	0x3c944ff6	0.018104535
164	0x3bd86a26	0.0066044508
165	0x3bd9936f	0.00663989
166	0xbc02293f	-0.007944404
167	0x3b819172	0.003954106
168	0xbc9ba8cc	-0.019001387
169	0x3cd8a2de	0.026444849
170	0xbc6522f0	-0.0139853805
171	0xbca53e53	-0.02017132
172	0x3adc046c	0.0016785986
173	0x3b7843f6	0.0037882305
174	0x3bbcbdbb	0.0057599223
175	0xbca80f7d	-0.020515198
176	0xbc0dd33b	-0.008656318
177	0x3bf8f56d	0.0075976164
178	0x3c908f88	0.017646566
179	0x3c5f8a2d	0.0136437835
180	0x3c8c5e01	0.017134668
181	0xbc85ab5d	-0.016317064
182	0xbbe043c1	-0.0068440144
183	0x3cc9d13f	0.02463591
184	0x3bfac343	0.0076526715
185	0x3c17e799	0.009271526
186	0x3ce05c10	0.027387649
187	0xbc84813a	-0.016174901
188	0x3ca4125f	0.020028291
189	0xbc6b67ca	-0.014368007
190	0x3c1f23b8	0.009713106
191	0x3ca25892	0.019817624
192	0x3cd7a700	0.026324749
193	0xbb6fd438	-0.0036594998
194	0xbcae2a85	-0.02126051
195	0xbc974ae7	-0.018468333
196	0x3c2852f6	0.010273686
197	0x3c37fff1	0.011230455
198	0x3c546228	0.012962855
199	0x3c523d90	0.01283206
200	0x3cc6da9c	0.024274163
201	0x3cd5e0e5	0.026108215
202	0x3867df28	5.5282522e-05
203	0xbc8a9936	-0.01691876
204	0x3bdb5de1	0.006694541
205	0x39a39451	0.00031200287
206	0x3cdf214d	0.027237559
207	0x3b29c461	0.0025904404
208	0x3c9c4d31	0.019079776
209	0xbc473230	-0.012157962
210	0x3c852047	0.016250743
211	0x3b3d1bef	0.002885576
212	0x3c37e844	0.01122481
213	0x3c93a2b1	0.018021913
214	0xbc1f386a	-0.00971804
215	0x3af93a3e	0.001901455
216	0xbb356ffa	-0.0027685151
217	0xbbbe4278	-0.0058062635
218	0x3c892853	0.01674286
219	0xbca99523	-0.020700997
220	0x3cb63304	0.022241123
221	0xbc89d6cc	-0.016826056
222	0xbbefa4d5	-0.0073133507
223	0xbc95f8f4	-0.018307187
224	0x3adedb9a	0.0017002702
225	0x3cdcde13	0.026961362
226	0x3cf09cb9	0.029371606
227	0xbcb36e6f	-0.021903245
228	0x3ccee453	0.025255358
229	0xbc6cd2b4	-0.014454532
230	0xbd13d365	-0.036090273
231	0x3af1849f	0.0018426365
232	0xbca6d19f	-0.020363627
233	0x3ba99aa0	0.0051759034
234	0xba71b1fd	-0.0009219943
235	0xbcfe68c0	-0.031055808
236	0xbc69ad93	-0.014262575
237	0xba31b91d	-0.0006779598
238	0x3c8977a3	0.01678068
239	0xbc05c4cb	-0.008164595
240	0xbbe31009	-0.006929402
241	0x3c13cf8d	0.009021652
242	0x3b3c09e4	0.0028692419
243	0xbba42a32	-0.005009913
244	0xbc71a897	-0.014749668
245	0x3c562483	0.0130702285
246	0x3c456e7d	0.012050268
247	0x3c3f9528	0.011693276
248	0x3cd06b20	0.025441706
249	0xbcceec8c	-0.025259279
250	0xba33f49f	-0.00068647595
251	0x3cc7940a	0.024362583
252	0xbcf7036e	-0.030153003
253	0xbcaa8f37	-0.020820243
254	0xbc8dd757	-0.017314596
255	0xbcc3f6a3	-0.023921316

Const_7 f4 [32]
0	0xbb49dc6a	-0.0030801543
1	0x3e8090db	0.25110516
2	0x3e74dd8a	0.23912635
3	0x3e8e07eb	0.27740416
4	0x3c2d7271	0.010586367
5	0x3c0a0d7c	0.0084260665
6	0xbbedeb39	-0.0072607067
7	0x3eab1ee4	0.33422005
8	0xbbbfda8a	-0.0058549093
9	0x3bed1f45	0.0072363936
10	0x3e7c5f0b	0.24645631
11	0xbc20bd07	-0.009810693
12	0x3d4c21c5	0.049836893
13	0x3e8094fc	0.25113666
14	0x3cec6be6	0.028860044
15	0xbb846427	-0.0040402594
16	0xb9f47cd8	-0.00046632322
17	0x3d768346	0.060183786
18	0x3e9354dd	0.28775683
19	0xbce55a26	-0.027997088
20	0x3d559599	0.05214462
21	0x3d31e91f	0.043435212
22	0xbd63d39b	-0.055621725
23	0x3ca3ecb9	0.02001034
24	0xbc625442	-0.013814034
25	0x3c127cbb	0.008940871
26	0x3e7c9172	0.24664858
27	0x3b75c607	0.0037502067
28	0x3d4d3209	0.050096545
29	0x3e836269	0.25661018
30	0xbac50af5	-0.0015033173
31	0x3d86fc5e	0.06591104

Const_6 f4 [32]
0	0x3f7fce30	0.9992399
1	0x3fa1d197	1.2642087
2	0x3f9c7781	1.222397
3	0x3fa4658c	1.284349
4	0x3f813e21	1.0097085
5	0x3f829670	1.020216
6	0x3f7ed528	0.99544
7	0x3fb8171f	1.4382056
8	0x3f7fa2e4	0.99857926
9	0x3f7d8b9d	0.9904116
10	0x3f9dafbc	1.2319255
11	0x3f805d69	1.0028507
12	0x3f88ba97	1.0681943
13	0x3fa18f4d	1.2621857
14	0x3f86ccd4	1.0531259
15	0x3f804b37	1.0022954
16	0x3f8110a1	1.00832
17	0x3f8cd5cd	1.1002747
18	0x3faa136b	1.3287176
19	0x3f7bb2d8	0.9831977
20	0x3f8cd08d	1.1001145
21	0x3f882788	1.0637064
22	0x3f6cda00	0.9252014
23	0x3f82842a	1.0196583
24	0x3f7f816d	0.99806863
25	0x3f83c011	1.0292989
26	0x3f9e7bc9	1.2381526
27	0x3f8024c8	1.0011225
28	0x3f8a1c08	1.0789804
29	0x3fa10337	1.2579106
30	0x3f803a05	1.0017706
31	0x3f8a8109	1.0820628

Const_5 f4 [32]
0	0xbdd90c52	-0.10598053
1	0x3e10d2f8	0.14142978
2	0x3dbe9ab4	0.09306851
3	0x3daafb32	0.08348693
4	0xbd2b5585	-0.041829605
5	0x3d7eae18	0.062177747
6	0xbd17ee3d	-0.037092436
7	0xbd00377c	-0.031302914
8	0x3d827d5b	0.06371566
9	0xbe106277	-0.14100061
10	0x3d000528	0.031254917
11	0x3da50463	0.08057477
12	0x3dd8d294	0.105870396
13	0x3a2e40d9	0.00066472363
14	0x3dc0ae02	0.09408189
15	0x3d9564fc	0.07294652
16	0x3e0fdaef	0.1404836
17	0xbe193c8e	-0.14964506
18	0xbdfc6132	-0.12323226
19	0x3d0be51c	0.034154043
20	0xbd3d427e	-0.04620599
21	0xbe01dc8b	-0.12681787
22	0x3cc4608f	0.023971824
23	0x3e0b492d	0.13602133
24	0x3e017a34	0.12644273
25	0x3d90621d	0.070499636
26	0xbcd87388	-0.026422277
27	0x3d4e1f8a	0.050323047
28	0xbdb755d8	-0.0895192
29	0x3d8850ec	0.066560596
30	0xbda0e9d6	-0.07857101
31	0x3dc66a2f	0.09688222

Const_3 f4 [32]
0	0xbc8df9b5	-0.017330984
1	0x3cd16bff	0.025564192
2	0x3cc8af09	0.024497526
3	0xbc9a909d	-0.018867785
4	0x3b9d57a4	0.0048017073
5	0xbc3b81dc	-0.011444535
6	0xbab1cd1a	-0.0013565153
7	0xbc73d616	-0.014882585
8	0xbc14cd09	-0.009082087
9	0x3cb86aba	0.022511829
10	0xbcad5470	-0.021158427
11	0xbcb4768b	-0.022029182
12	0xbce92f2a	-0.028464872
13	0xbb00c513	-0.0019648715
14	0xbca9db74	-0.020734526
15	0xbd1459a8	-0.036218315
16	0xbb044e05	-0.0020188105
17	0xbc69619a	-0.014244461
18	0xbc9305a0	-0.017947018
19	0x3c375bf9	0.011191362
20	0xbc2edd25	-0.010672842
21	0xbcb05cd7	-0.021528644
22	0xbc83bf8e	-0.016082551
23	0xbc9438ff	-0.018093584
24	0xbc55b7d4	-0.013044316
25	0xbc8bf855	-0.017086187
26	0xbc2a2b8a	-0.010386357
27	0x3c26adf2	0.010173308
28	0xb8176952	-3.6099293e-05
29	0xbc9ef23a	-0.019402612
30	0xbcd7d053	-0.026344454
31	0xbc8779ff	-0.016537664

Const_2 f4 [32]
0	0x3f7c1d20	0.9848194
1	0x3f894de0	1.072689
2	0x3f850d1d	1.0394627
3	0x3f7c027e	0.984413
4	0x3f7b26ff	0.9810638
5	0x3f7cc4b8	0.9873767
6	0x3f82a4d3	1.020655
7	0x3f7aee67	0.98020023
8	0x3f7f5e0f	0.997529
9	0x3f81381a	1.0095246
10	0x3f7a807f	0.9785232
11	0x3f7a08cc	0.9766967
12	0x3f79fd25	0.9765189
13	0x3f726861	0.9469052
14	0x3f7b526b	0.98172635
15	0x3f77899d	0.96694356
16	0x3f83bd31	1.0292112
17	0x3f7e42e6	0.9932083
18	0x3f7d84c8	0.99030733
19	0x3f8042e4	1.0020413
20	0x3f7e9454	0.9944508
21	0x3f823ea3	1.0175365
22	0x3f7bbdba	0.98336375
23	0x3f7c18a0	0.98475075
24	0x3f7cbc28	0.98724604
25	0x3f7cf1e4	0.98806596
26	0x3f796664	0.9742186
27	0x3f770734	0.96495366
28	0x3f840800	1.0314941
29	0x3f7dff9d	0.9921816
30	0x3f7ea2df	0.9946727
31	0x3f7ce28f	0.987832

Const_1 f4 [32]
0	0x3ccf8b6b	0.025335034
1	0x3ca007c4	0.019534953
2	0x3c67783c	0.014127787
3	0xbc70af6e	-0.014690263
4	0x3c87d9bf	0.016583322
5	0x3c9c3b00	0.019071102
6	0x3c5e4eb0	0.013568565
7	0x3cc174fa	0.02361535
8	0x3cad066f	0.021121232
9	0x3ca47d9d	0.020079428
10	0xbc4f8733	-0.012666511
11	0xbc4426d6	-0.01197215
12	0x3938917b	0.00017601803
13	0x39ae32b8	0.00033225655
14	0xbcb6d3ca	-0.022317786
15	0xbc829573	-0.015940404
16	0x3c474dc2	0.012164535
17	0x3bdd869d	0.006760432
18	0xbcaf7542	-0.021418218
19	0x3a9965ac	0.0011703274
20	0xbccfd563	-0.025370305
21	0xbc1bd2f8	-0.009510748
22	0xbc6efaf6	-0.014586201
23	0x3bda1ec7	0.006656501
24	0xbcacdba5	-0.021100828
25	0x3c923c12	0.01785091
26	0x3ca4d721	0.020122113
27	0x3c10733c	0.0088165365
28	0xbc6727ad	-0.014108581
29	0xbb90b73f	-0.004416376
30	0x3c4c8c3f	0.012484609
31	0xbaec4e45	-0.0018028697
