en/hey_rick/hey_rick.onnx (onnx, 206975 bytes, 9 tensors)

const_fold_opt__23 f4 [32, 1]
0.26040375 0.11951603 0.009549028 0.090574086 -0.35373154 -0.05833196 -0.34358 -0.33510256
0.0120183695 0.13699602 -0.30630323 0.018079856 0.05036471 0.05898493 0.07148682 0.18511625
-0.09728807 -0.26831493 -0.3242581 0.18514977 -0.2809314 -0.32164308 -0.36803177 -0.1348623
-0.019497737 -0.14724572 0.07846257 0.14969385 -0.36368454 0.056879573 -0.12874629 -0.080325395
00000000: a453 853e d2c4 f43d 8773 1c3c e87e b93d
00000010: 4d1c b5be 7eed 6ebd b8e9 afbe 9092 abbe
00000020: b2e8 443c af48 0c3e c7d3 9cbe 351c 943c
00000030: 3a4b 4e3d 2f9a 713d af67 923d 1d8f 3d3e
00000040: f83e c7bd 9360 89be 2805 a6be e797 3d3e
00000050: 3ed6 8fbe 67ae a4be a96e bcbe 5819 0abe
00000060: b8b9 9fbc 95c7 16be fcb0 a03d 5849 193e
00000070: dc34 babe 8efa 683d 11d6 03be a481 a4bd

const_fold_opt__22 f4 [32, 32]
-0.064924106 -0.05456818 -0.100221716 0.08050097 0.028512917 0.07801384 -0.09933735 0.008674481
-0.1563279 -0.120741144 -0.062383335 0.09397801 0.057404216 -0.13824083 -0.07670509 0.013492101
0.011818794 0.11238975 -0.03972406 -0.05887304 0.1673078 0.04905654 -0.16752598 0.061677948
-0.0752346 0.15310164 0.010085588 0.09671168 -0.0952426 -0.13713638 -0.016445637 0.022562101
0.14076112 0.0048500593 -0.046303704 0.006862684 -0.06713565 0.13134766 -0.015099023 -0.04135459
-0.0015966006 -0.07226138 0.034644805 0.12022409 -0.06117078 -0.009305073 0.17551987 0.07879195
0.031325888 0.073027276 0.012507904 -0.08321586 0.11182467 0.090207316 -0.04269457 0.17836758
-0.003681562 -0.06699693 0.11365574 0.06777834 -0.068029724 0.18953487 -0.05995168 -0.04357568
0.16978565 0.10518856 0.13233681 -0.020277997 0.006937343 0.06774673 -0.106778406 0.09773778
0.007145492 0.15617847 0.12957297 -0.007821347 0.12236066 0.14773358 0.011606067 0.06331771
-0.018706756 -0.12761007 -0.018752066 0.118006155 -0.16328923 -0.18218465 -0.090911075 -0.09435761
0.09914295 0.060118474 0.17067255 0.0860499 -0.1450539 0.08394472 0.19516772 0.18377817
-0.16165079 0.12279185 0.062160093 0.040218595 0.020136239 0.08234989 -0.14964062 0.103412054
-0.14012507 -0.17455289 0.066089965 -0.040085677 0.14603415 -0.0460443 0.042469323 0.09379835
-0.07506965 0.15450417 0.06521747 0.05159274 -0.04565049 0.062076848 -0.007898693 0.15004785
-0.096689224 -0.10521371 -0.08931471 0.1286876 0.10052678 0.03361906 0.0134495 -0.0020102465
0.1381292 0.05131756 -0.04989071 0.1437709 -0.08315489 0.05149265 -0.026095312 0.094580695
0.008269526 -0.15754601 0.15333165 -0.009554129 -0.099853136 -0.013949722 0.06297679 0.1256334
-0.070631064 -0.054386828 0.0011115972 0.12633346 -0.054655127 0.014010679 -0.089845695 -0.027763072
0.06441815 0.07491219 -0.11283693 0.11486655 -0.13731888 0.10318417 -0.044705242 -0.14384423
0.18724401 0.05879208 -0.058559682 -0.049376465 0.0063903746 0.04949181 0.08325129 -0.12689823
0.11785004 -0.026917778 0.1465662 -0.11098931 0.012180121 -0.08274915 0.051306598 0.14936617
0.08373685 -0.16795053 -0.04465764 0.08094718 -0.021699235 -0.18701169 0.057496294 0.109985046
0.08294262 -0.17012388 -0.028835237 -0.10888491 0.13134585 0.008253773 -0.10329123 -0.13078786
0.035686504 -0.074034564 0.015559329 -0.011185749 -0.06549782 -0.11602258 -0.04347652 -0.16214925
0.16326803 0.14633964 -0.070098005 -0.17490652 0.05728287 -0.12518544 0.004681871 0.16701813
0.17100677 0.055776067 0.1357248 -0.10767465 0.042748287 -0.16679446 0.12850372 -0.0034936315
-0.022295805 0.09104671 0.049451075 -0.16632703 -0.17591543 -0.1464371 -0.0047725253 0.05247781
-0.15699488 -0.18755542 -0.048054505 0.09612602 0.2656552 -0.1020407 -0.10636038 0.030674864
-0.015397802 0.07310846 0.16333386 -0.16760632 -0.0333665 -0.11694077 -0.1323056 -0.21108826
-0.10726171 0.1634273 0.10558229 0.0961762 0.049352717 0.11660408 0.0055128653 -0.083815575
-0.13767308 0.028054757 -0.072232135 -0.01800268 0.046881944 -0.11111025 0.0287827 -0.033045035
00000000: eef6 84bd e282 5fbd 0b41 cdbd b1dd a43d
00000010: ec93 e93c b8c5 9f3d 6171 cbbd 691f 0e3c
00000020: 6c14 20be 2247 f7bd ab85 7fbd 8b77 c03d
00000030: af20 6b3d 018f 0dbe 8f17 9dbd f90d 5d3c
00000040: 9da3 413c 992c e63d b2b5 22bd db24 71bd
00000050: bc52 2b3e 83ef 483d ee8b 2bbe 04a2 7c3d
00000060: 9914 9abd adc6 1c3e 063e 253c c610 c63d
00000070: 8d0e c3bd 7b6d 0cbe 00b9 86bc 28d4 b83c
00000080: af23 103e 3fed 9e3b f4a8 3dbd 5ee0 e03b
00000090: 6a7e 89bd 0080 063e e461 77bc 6e63 29bd
000000a0: 0745 d1ba c6fd 93bd b6e7 0d3d 0c38 f63d
000000b0: 368e 7abd 4e74 18bc 7bbb 333e ad5d a13d
000000c0: 934f 003d 538f 953d f4ed 4c3c 146d aabd
000000d0: 5504 e53d 9dbe b83d 80e0 2ebd fea5 363e
000000e0: 5c46 71bb b035 89bd 57c4 e83d 5fcf 8a3d
000000f0: 2b53 8bbd 6e15 423e e58f 75bd 6a7c 32bd
00000100: 4adc 2d3e 1a6d d73d 4d83 073e 0b1e a6bc
00000110: a752 e33b ccbe 8a3d a3ae dabd bf2a c83d
00000120: bb24 ea3b 40ed 1f3e c7ae 043e 1b25 00bc
00000130: 3a98 fa3d 7947 173e 6027 3e3c b7ac 813d
00000140: e93e 99bc 37ac 02be ef9d 99bc 36ad f13d
00000150: 4b35 27be 9d8e 3abe 962f babd 903e c1bd
00000160: 750b cb3d ca3e 763d c9c4 2e3e ee3a b03d
00000170: 0289 14be 36eb ab3d 0cda 473e 5830 3c3e
00000180: c987 25be 4b7a fb3d 959b 7e3d 41bc 243d
00000190: c1f4 a43c 0fa7 a83d 643b 19be b3c9 d33d
000001a0: f27c 0fbe febd 32be 2d5a 873d e130 24bd
000001b0: fa89 153e f398 3cbd 50f4 2d3d 5919 c03d
000001c0: 1ebe 99bd 5736 1e3e bd90 853d e952 533d
000001d0: 02fc 3abd 4b44 7e3d 8569 01bc 25a6 193e
000001e0: 0005 c6bd 497a d7bd a1ea b6bd afc6 033e
000001f0: fce0 cd3d 24b4 093d 4b5b 5c3c 57be 03bb
00000200: be71 0d3e 5d32 523d 335a 4cbd ae38 133e
00000210: 1c4d aabd f5e9 523d d6c5 d5bc 86b3 c13d
00000220: e87c 073c be53 21be f902 1d3e ec88 1cbc
00000230: cd7f ccbd 608d 64bc faf9 803d 0ba6 003e
00000240: 05a7 90bd b9c4 5ebd 03b3 913a 8f5d 013e
00000250: 0ede 5fbd 0c8d 653c 0501 b8bd 626f e3bc
00000260: aaed 833d 906b 993d 0c17 e7bd 273f eb3d
00000270: 529d 0cbe 3952 d33d d81c 37bd e74b 13be
00000280: e5bc 3f3e f7cf 703d 47dc 6fbd fa3e 4abd
00000290: 5966 d13b edb7 4a3d a77f aa3d 9cf1 01be
000002a0: 5d5b f13d ac82 dcbc 7315 163e 5d4e e3bd
000002b0: 218f 473c 6378 a9bd de26 523d 72f3 183e
000002c0: 3a7e ab3d 39fb 2bbe eeea 36bd a3c7 a53d
000002d0: 98c2 b1bc fe7f 3fbe 3c81 6b3d d73f e13d
000002e0: d2dd a93d f434 2ebe e037 ecbc 0dff debd
000002f0: 877f 063e d53a 073c 5a8a d3bd 41ed 05be
00000300: 032c 123d 6f9f 97bd 8eec 7e3c 6f44 37bc
00000310: b923 86bd 3f9d edbd 6f14 32bd 740a 26be
00000320: bc2f 273e 0fda 153e 8b8f 8fbd b21a 33be
00000330: 71a1 6a3d 9d30 00be 616a 993b cd06 2b3e
00000340: 661c 2f3e 7275 643d 71fb 0a3e 8784 dcbd
00000350: d418 2f3d 2bcc 2abe 7b96 033e 69f5 64bb
00000360: b1a5 b6bc b376 ba3d 368d 4a3d a251 2abe
00000370: 2d23 34be 9bf3 15be d862 9cbb f9f2 563d
00000380: 44c3 20be 870e 40be cdd4 44bd b8dd c43d
00000390: f503 883e b7fa d0bd 79d3 d9bd da49 fb3c
000003a0: 1047 7cbc e3b9 953d fe40 273e fea0 2bbe
000003b0: 50ab 08bd a47e efbd 1f7b 07be 8527 58be
000003c0: 07ac dbbd 7c59 273e 873b d83d 07f8 c43d
000003d0: 1326 4a3d 1fce ee3d 44a5 b43b 80a7 abbd
000003e0: 2cfa 0cbe 17d3 e53c 71ee 93bd 5b7a 93bc
000003f0: 4807 403d c58d e3bd b2c9 eb3c 3b5a 07bd

const_fold_opt__20 f4 [1536, 32]
-0.013403691 -0.0059235287 -0.0052051777 -0.015725732 0.024930272 0.018439312 -0.018101497 -0.010296796
-0.0065046134 0.0134061435 0.017028574 0.008116831 0.013934699 -6.1991734e-05 -0.02037395 0.014439069
-0.005775556 -0.0015452392 0.026848251 -0.0070691276 0.024143146 -0.0051722457 0.0034505727 -0.010995355
-0.018151248 -0.017803205 0.010184978 0.022108851 0.008055297 0.017076816 0.02657197 0.009065887
0.018214848 0.008941939 -0.00028609997 0.003701984 -0.008022498 -0.022601 -0.0009683297 0.015080144
0.00882739 0.000934093 0.015136339 -0.009319187 -0.0063812053 0.012721421 -0.010135014 -0.0054944796
0.017972168 0.00061497017 0.0139649715 -0.008624588 0.014860229 0.021429706 -0.011107249 -0.012579093
-0.01880063 -0.008352806 0.02223974 -0.010643718 -0.01747302 -0.012202631 0.013700536 -0.0009739608
-0.022456937 -0.0032859386 0.0134251695 -0.0064903325 -0.010851226 0.00815951 -0.0010476538 0.009757934
-0.009589651 0.020737696 0.006359215 -0.008024353 -0.0010215506 0.0035876457 -0.008273075 0.0041650613
-0.020725176 0.0073173787 -0.01992674 0.0010836778 0.004270186 0.0144795105 0.005234489 0.016204549
-0.0043588066 0.006340037 -0.02401703 -0.013876811 -0.012691402 0.0020502661 0.0072239838 0.007386637
-0.03450725 -0.038077243 -0.07389173 -0.035101976 -0.048908327 -0.024280068 -0.029921744 0.03915301
-0.048261393 -0.035950232 0.059946097 -0.055973005 0.049842533 -0.036872342 -0.014324013 -0.050764784
-0.018067235 -0.037648182 -0.06191522 0.03816105 -0.034762308 0.027787916 -0.061431248 0.0614964
0.04558669 -0.0050273645 -0.076149635 -0.026574057 0.0007360164 -0.057144925 -0.051890943 0.028171977
-0.0011393797 0.0044580135 -0.015757073 -0.018698681 -0.019784067 -0.012312757 0.02642352 -0.0052190935
0.011410398 0.02663246 -0.0063630976 0.03473132 0.01638295 -0.0041338266 -0.01811914 0.012178412
0.024467733 -0.019619487 0.008527575 0.027036872 -0.02212423 -0.005889587 0.003850447 0.013205166
-0.0001098297 0.017704248 0.014814837 0.020291636 -0.009901489 -0.019635534 -0.01332707 0.0119149005
-0.01857174 0.011922936 0.0062536006 0.019156817 -0.0019317139 0.019456921 0.007799802 -0.005555776
-0.005768073 0.009964216 -0.0063936277 -0.010905423 0.02045007 -0.016547263 -0.010204297 -0.0079667475
-0.019997504 -0.0067842877 -0.0026217017 0.0025255887 -0.018999822 0.011021743 0.0014883543 0.002294438
0.027541518 0.0067585786 -0.00915152 -0.023803417 0.024735408 -0.018989448 -0.019880075 -0.0104891965
-0.011744152 0.0024332171 0.029943159 -0.0042647854 -0.00020078802 -0.01331898 -0.014032798 -0.021831263
-0.008276723 0.0074207755 0.014464639 0.014255288 -0.034212388 0.013904725 0.027156895 -0.01253273
0.00071878853 -0.016144775 0.0029152713 -0.038012408 0.023544757 -0.0018122963 0.017405745 -0.02069237
-0.023087977 0.006731709 0.0047832895 0.018604742 -0.00029296346 0.008605575 -0.009485732 -0.021385886
-0.005654579 0.0033317422 0.024647212 0.0207596 -0.01343931 0.003647676 0.00019351377 -0.02011353
0.011179455 0.00534976 0.00847445 -0.024251832 -0.0050793174 -0.014059267 0.0048231627 0.028373992
0.011638037 -0.012308817 0.02589779 -0.017449208 0.018120814 0.013165299 0.017301511 -0.01906242
-0.0012574453 -0.0009845512 0.005144119 0.0062999907 0.0155492425 0.023932517 -0.015848175 -0.002750877
00000000: 289b 5bbc 291a c2bb 3290 aabb 40d3 80bc
00000010: 923a cc3c 0a0e 973c 9749 94bc e5b3 28bc
00000020: a724 d5bb 71a5 5b3c 827f 8b3c 75fc 043c
00000030: 5d4e 643c 8f01 82b8 45e7 a6bc d891 6c3c
00000040: e040 bdbb a089 caba ddf0 db3c 24a4 e7bb
00000050: d9c7 c53c f17b a9bb 0123 623b dd25 34bc
00000060: edb1 94bc 07d8 91bc e5de 263c 9f1d b53c
00000070: 5dfa 033c aee4 8b3c 76ad d93c 1689 143c
00000080: 4e37 953c 3681 123c b0ff 95b9 fc9c 723b
00000090: cc70 03bc bb25 b9bc 82d7 7dba b512 773c
000000a0: c2a0 103c ecdd 743a 68fe 773c 81af 18bc
000000b0: 6e19 d1bb 826d 503c 540d 26bc 090b b4bb
000000c0: 5e3a 933c f335 213a 56cd 643c 254e 0dbc
000000d0: 5178 733c 5a8d af3c 2efb 35bc 8a18 4ebc
000000e0: c703 9abc 35da 08bc 1d30 b63c fd62 2ebc
000000f0: 9423 8fbc 8bed 47bc 3778 603c 6751 7fba
00000100: 9cf7 b7bc e758 57bb 3ef5 5b3c dbac d4bb
00000110: 57c9 31bc 77af 053c 6e51 89ba bedf 1f3c
00000120: e91d 1dbc 1ae2 a93c f660 d03b 9378 03bc
00000130: 8de5 85ba b51e 6b3b cb8b 07bc 117b 883b
00000140: d8c7 a9bc 9fc6 ef3b 673d a3bc 310a 8e3a
00000150: ebec 8b3b 783b 6d3c 1486 ab3b 67bf 843c
00000160: 52d4 8ebb 16c0 cf3b 5dbf c4bc 905b 63bc
00000170: 99ef 4fbc c25d 063b 2bb7 ec3b 9a0b f23b
00000180: 7957 0dbd e2f6 1bbd 8c54 97bd 17c7 0fbd
00000190: 1954 48bd fee6 c6bc 721e f5bc e85e 203d
000001a0: bdad 45bd 8d40 13bd 0a8a 753d f343 65bd
000001b0: af27 4c3d 7407 17bd 44af 6abc bcee 4fbd
000001c0: bd01 94bc fb34 1abd d09a 7dbd c34e 1c3d
000001d0: ec62 0ebd 7ca3 e33c 559f 7bbd a6e3 7b3d
000001e0: 1cb9 3a3d 97bc a4bb 57f4 9bbd d6b1 d9bc
000001f0: 39f1 403a cc10 6abd 998b 54bd ebc8 e63c
00000200: 3d57 95ba 8714 923b fa14 81bc fa2d 99bc
00000210: 3212 a2bc 72bb 49bc 2376 d83c ee04 abbb
00000220: aef2 3a3c 512c da3c 8881 d0bb 6e42 0e3d
00000230: 8935 863c 0d75 87bb 976e 94bc f687 473c
00000240: 8e70 c83c 0cb9 a0bc 3eb7 0b3c 6e7c dd3c
00000250: e03d b5bc 70fd c0bb c857 7c3b 7b5a 583c
00000260: 5f54 e6b8 8008 913c eeb9 723c a53a a63c
00000270: db39 22bc b3da a0bc c859 5abc b736 433c
00000280: c323 98bc 6b58 433c 01eb cc3b c2ee 9c3c
00000290: 9031 fdba 1f64 9f3c 7b95 ff3b 3a0d b6bb
000002a0: 1a02 bdbb f340 233c a381 d1bb a9ac 32bc
000002b0: e886 a73c 208e 87bc ec2f 27bc f686 02bc
000002c0: ced1 a3bc bb4e debb dbd0 2bbb 5984 253b
000002d0: 84a5 9bbc 8a94 343c e214 c33a 485e 163b
000002e0: c09e e13c 1177 dd3b 42f0 15bc 62ff c2bc
000002f0: e9a1 ca3c c28f 9bbc 8adb a2bc e1da 2bbc
00000300: 8b6a 40bc 9c76 1f3b 5b4b f53c 9dbf 8bbb
00000310: a08a 52b9 da37 5abc d2e9 65bc 7ad7 b2bc
00000320: 189b 07bc fa29 f33b 18fd 6c3c 038f 693c
00000330: 4a22 0cbd a5d0 633c 2378 de3c 1456 4dbc
00000340: 156d 3c3a 0c42 84bc 230e 3f3b e6b2 1bbd
00000350: efe0 c03c 938a edba 7e96 8e3c 0c83 a9bc
00000360: ff22 bdbc ab95 dc3b 24bd 9c3b f968 983c
00000370: e498 99b9 66fe 0c3c 0b6a 1bbc 7431 afbc
00000380: 0c4a b9bb 5c59 5a3b f3e8 c93c 0910 aa3c
00000390: 8d30 5cbc d90d 6f3b f5e9 4a39 21c5 a4bc
000003a0: 082a 373c 0a4d af3b 6bd8 0a3c c7ab c6bc
000003b0: 6770 a6bb d758 66bc 9f0b 9e3b 9370 e83c
000003c0: 77ad 3e3c ecaa 49bc 9a27 d43c a4f1 8ebc
000003d0: 1a72 943c 44b3 573c e6bb 8d3c cb28 9cbc
000003e0: ddd0 a4ba 0e0c 81ba ff8f a83b 2770 ce3b
000003f0: 40c2 7e3c 200e c43c 08d4 81bc 0f48 34bb

Const_7 f4 [32]
0.096992224 0.00038733418 -0.010725814 -0.011242348 0.30711186 -0.03131435 0.22476223 0.2160864
0.015036016 0.020822886 0.24707815 -0.018087024 -0.009610812 0.025493706 0.044437796 0.031402376
-0.01461876 0.24136925 0.28337678 0.018034296 0.25458595 0.23193434 0.31825268 -0.045154043
0.007984521 -0.005340354 0.0643048 0.0094959475 0.22156617 -0.031566076 0.12163027 -0.0043471344
00000000: dca3 c63d 1d13 cb39 53bb 2fbc d331 38bc
00000010: c43d 9d3e 7a43 00bd 1228 663e c145 5d3e
00000020: 9f59 763c c294 aa3c 0e02 7d3e 3d2b 94bc
00000030: ab76 1dbc 2dd8 d03c 6804 363d c79f 003d
00000040: 8683 6fbc 8029 773e c316 913e a9bc 933c
00000050: 1759 823e 3280 6d3e 04f2 a23e 72f3 38bd
00000060: 82d1 023c 23fe aebb 3cb2 833d e494 1b3c
00000070: 3ee2 623e 6e4b 01bd 4a19 f93d 6872 8ebb

Const_6 f4 [32]
1.1561792 1.0125679 0.9938146 0.9923083 1.3985871 0.9847326 1.2129366 1.1813931
1.0153103 1.0390412 1.2610588 0.9711341 0.9956736 1.0174093 1.0742186 1.0429914
0.9889675 1.2227056 1.3502873 1.024698 1.2641969 1.2243669 1.4263791 0.97096056
1.0060772 0.97988445 1.083234 1.0281914 1.2129676 0.97639567 1.0560554 0.9972465
00000000: aefd 933f d39b 813f a26a 7e3f eb07 7e3f
00000010: e704 b33f 7017 7c3f 8241 9b3f e437 973f
00000020: b0f5 813f 4dff 843f 606a a13f 3f9c 783f
00000030: 77e4 7e3f 783a 823f ff7f 893f be80 853f
00000040: f92c 7d3f 9e81 9c3f 37d6 ac3f 4e29 833f
00000050: 34d1 a13f 0eb8 9c3f 9793 b63f df90 783f
00000060: 23c7 803f b5d9 7a3f 69a7 8a3f c79b 833f
00000070: 8642 9b3f 11f5 793f d32c 873f 8c4b 7f3f

Const_5 f4 [32]
0.024595536 -0.053068135 0.0615068 -0.18409872 0.03313797 0.049774043 -0.093564376 -0.051683772
0.14079466 0.13594364 -0.077238895 -0.144861 0.072319925 -0.0074690375 -0.12981899 0.05547802
0.0291981 -0.0815789 0.014088376 0.014926969 0.049442176 0.08155083 0.11350157 -0.039999124
-0.15303354 -0.03193207 0.10959805 0.114249185 -0.12264768 -0.12490808 -0.1468453 -0.00551387
00000000: 947c c93c f95d 59bd 8eee 7b3d 6084 3cbe
00000010: aebb 073d dedf 4b3d ae9e bfbd 5db2 53bd
00000020: 7a2c 103e cf34 0b3e 6d2f 9ebd 7156 14be
00000030: 781c 943d d4be f4bb 45ef 04be ec3c 633d
00000040: db30 ef3c d712 a7bd efd2 663c 3f90 743c
00000050: e183 4a3d 1f04 a73d 8373 e83d 1fd6 23bd
00000060: d3b4 1cbe 34cb 02bd f174 e03d 7afb e93d
00000070: b52e fbbd cfcf ffbd 9d5e 16be b2ad b4bb

Const_3 f4 [32]
-0.011850246 0.031518087 0.0071594915 -0.002320058 -0.000820434 0.00821896 -0.001366494 0.012475905
-0.0011877529 -0.001772686 0.0068411506 -0.00786411 0.009760696 0.0016109616 -0.000861235 -0.0026607679
-0.0019312272 0.008432748 -0.0010351172 0.013297566 0.00062110723 0.007209467 -8.826244e-05 0.0056776186
0.0072954567 0.032094218 -0.018457016 -0.0036272863 0.014875705 -0.0034153708 0.00014400916 0.02068516
00000000: 8927 42bc 1c19 013d 2b9a ea3b 1d0c 18bb
00000010: 6512 57ba d1a8 063c ee1b b3ba bd67 4c3c
00000020: 60ae 9bba 7959 e8ba bb2b e03b 78d8 00bc
00000030: 54eb 1f3c e726 d33a 81c4 61ba 4760 2ebb
00000040: 3b21 fdba 8229 0a3c c5ac 87ba 09de 593c
00000050: cdd1 223a 643d ec3b 8919 b9b8 510b ba3b
00000060: ba0e ef3b 3a75 033d 2b33 97bc c4b7 6dbb
00000070: 3bb9 733c 6ad4 5fbb 2a01 1739 ed73 a93c

Const_2 f4 [32]
0.99901706 1.0362433 1.0037521 0.9989488 0.9995835 0.99519604 0.99912405 1.0029666
0.9982931 0.9993645 1.012979 0.9850639 1.0159173 0.9996753 0.99943227 0.998982
0.99931115 0.99055403 0.99935395 1.0676322 0.99821055 0.98378253 1.0086951 1.0108609
1.0269716 1.0139115 0.98139113 0.9990636 0.9639849 0.99771804 0.9994751 0.97906053
00000000: 95bf 7f3f 9fa3 843f f37a 803f 1cbb 7f3f
00000010: b4e4 7f3f 2bc5 7e3f 98c6 7f3f 3661 803f
00000020: 2390 7f3f 5ad6 7f3f 4ca9 813f 262d 7c3f
00000030: 9409 823f b8ea 7f3f cbda 7f3f 49bd 7f3f
00000040: dbd2 7f3f f394 7d3f a9d5 7f3f 2ca8 883f
00000050: ba8a 7f3f 2cd9 7b3f ec1c 813f e463 813f
00000060: ce73 833f dac7 813f 733c 7b3f a2c2 7f3f
00000070: b7c7 763f 736a 7f3f 9add 7f3f b6a3 7a3f

Const_1 f4 [32]
0.022394644 0.023974147 -0.008521664 -0.026221965 0.0026554752 -0.0035861977 -0.0251651 -0.0011745064
0.012458246 0.021510726 0.008150228 -0.01792279 0.005577768 -0.028199933 0.02078118 0.010385743
-0.0148507375 -0.0071679014 -0.019059349 -0.003308902 -0.027493643 0.0068834573 -0.0027178589 -0.01792339
0.007873883 0.00884716 -0.016196039 -0.0021354838 0.02552463 -0.023015719 -0.013695888 -0.0171768
00000000: f974 b73c 6e65 c43c 739e 0bbc 72cf d6bc
00000010: 7b07 2e3b 6a06 6bbb 0a27 cebc e5f1 99ba
00000020: ac1d 4c3c 4337 b03c 8988 053c d1d2 92bc
00000030: b6c5 b63b 8c03 e7bc 4b3d aa3c f728 2a3c
00000040: 8250 73bc b7e0 eabb 5a22 9cbc 2ada 58bb
00000050: 593a e1bc a08e e13b 1b1e 32bb 13d4 92bc
00000060: 7501 013c aef3 103c 8ead 84bc 79f3 0bbb
00000070: 0719 d13c 768b bcbc b864 60bc 5cb6 8cbc
