en/ok_computer/ok_computer.onnx (onnx, 205655 bytes, 9 tensors)

const_fold_opt__23 f4 [32, 1]
0	0xbea24efe	-0.3170089
1	0x3e796c04	0.24357611
2	0xbbb046b3	-0.0053795218
3	0x3d66f722	0.056388028
4	0xbc93a6bc	-0.018023841
5	0x3d98de3e	0.07464264
6	0xbebf4411	-0.37356618
7	0xbd0d7895	-0.034538824
8	0xbebcd404	-0.36880505
9	0xbeb54a8a	-0.3540843
10	0x3d44f16d	0.048081804
11	0xbbe5e6e3	-0.007016049
12	0x3e0c5474	0.13704091
13	0xbeb916db	-0.3615025
14	0xbea3849c	-0.3193711
15	0x3d5123df	0.0510596
16	0xbb97c9b8	-0.004632201
17	0xbeb9afea	-0.36267024
18	0xbebbdaf4	-0.36690485
19	0xbbc64a79	-0.0060513583
20	0x3ce61ea3	0.02809078
21	0xbd7c1e00	-0.061552048
22	0xbcf11ce9	-0.02943273
23	0xbc634d78	-0.01387345
24	0x3e29b473	0.16572742
25	0x3d7d57ec	0.061851427
26	0x3e6dc7c9	0.23220743
27	0x3e12ba6b	0.14328925
28	0x3db87cdf	0.09008192
29	0x3e3a85ec	0.1821515
30	0xbec15e7c	-0.37767398
31	0x3d4ebbaa	0.05047194

const_fold_opt__22 f4 [32, 32]
0	0xbe18407a	-0.14868346
1	0x3e121939	0.14267434
2	0x3dc7787f	0.0973978
3	0x3d8f6e6a	0.07003482
4	0x3e094f34	0.1340912
5	0xbd6889e1	-0.056772117
6	0x3e05f671	0.13082291
7	0xbd426317	-0.04745778
8	0xbc51c7df	-0.012804001
9	0x3d9d1447	0.07669883
10	0x3e10a0b7	0.14123808
11	0x3e2314ab	0.15925853
12	0x3e0373b7	0.1283711
13	0x3d8b6726	0.068067834
14	0xbe18a2c4	-0.1490584
15	0xbe27c4a2	-0.16383603
16	0xbd925785	-0.07145599
17	0xbe071469	-0.1319138
18	0xbdd98911	-0.106218465
19	0x3e147e6b	0.1450135
20	0xbe01b96e	-0.12668392
21	0xbd9efbaa	-0.07762845
22	0x3e12db62	0.143415
23	0x3db06f04	0.086149246
24	0x3b2717e6	0.0025496422
25	0xbd9254bb	-0.07145067
26	0xbd0ee37b	-0.03488491
27	0x3d3acfa8	0.045608193
28	0x3dd5bc96	0.104363605
29	0x3dd2020f	0.10254299
30	0xbd5751ef	-0.052568372
31	0x3dd81078	0.10550016
32	0x3df41fa9	0.11920101
33	0xbe27b0e8	-0.16376078
34	0x3dd2451a	0.10267086
35	0xbe4588d2	-0.19290474
36	0xbdff57d8	-0.12467927
37	0x3cf5e485	0.030016193
38	0x3de67b8d	0.11254034
39	0xbe045943	-0.12924676
40	0x3e47f56f	0.19527219
41	0x3d880022	0.0664065
42	0x3d862db0	0.06551683
43	0xbdbad766	-0.09123115
44	0x3cd361cf	0.025803475
45	0x3e1eb3c7	0.15498267
46	0x3db9c62a	0.09071
47	0xbe1b0cca	-0.15141597
48	0x3dbbd73e	0.091719136
49	0xbdb6e9e1	-0.089313276
50	0x3e387076	0.1801165
51	0x3d0742dd	0.03302275
52	0xbd80d66d	-0.062908985
53	0x3e002110	0.12512612
54	0xbdeda219	-0.11603183
55	0x3de34cb1	0.11098612
56	0xbe2ef7be	-0.17086694
57	0xbdf382b4	-0.11890164
58	0xbe2c10fd	-0.16803356
59	0x3d0ab543	0.03386427
60	0xbdd91d62	-0.106013075
61	0x3c83c4a6	0.01608498
62	0x3dae40ce	0.08508454
63	0x3dd480d4	0.103761345
64	0xbe0c5773	-0.13705234
65	0x3c9b68d8	0.018970892
66	0xbd290f0d	-0.04127412
67	0xbe03a3b3	-0.12855415
68	0xbe0d4b47	-0.13798247
69	0xba056054	-0.00050879014
70	0xbdce2e85	-0.10067467
71	0xbe2e8ae6	-0.17045173
72	0xbca0fa0b	-0.01965048
73	0xbd0adf01	-0.03390408
74	0xbe1949ef	-0.1496961
75	0x3e0bfb3f	0.13670062
76	0x3e273caf	0.16331743
77	0x3ca6e0ab	0.020370802
78	0x3deb390e	0.11485492
79	0xbd51986d	-0.051170755
80	0xbe08dd55	-0.13365681
81	0xbd92beeb	-0.07165321
82	0x3cf387e1	0.029727878
83	0x3dd959e6	0.1061285
84	0xbc9ac059	-0.018890547
85	0xbde8e72d	-0.11372218
86	0xbe27636b	-0.16346519
87	0x3da95229	0.08267624
88	0xbe2cdd8b	-0.16881387
89	0xbdac5d2a	-0.08416207
90	0xbe1dd2f8	-0.1541251
91	0xbdeab299	-0.11459846
92	0x3e19e012	0.15026882
93	0x3da21b1c	0.07915327
94	0x3d8e973c	0.069624394
95	0x3dbf429c	0.093388766
96	0x3dae9834	0.08525124
97	0x3cf40840	0.02978909
98	0xbdc064d9	-0.09394235
99	0xbe229402	-0.15876773
100	0xbdd67504	-0.10471538
101	0xbd82a3d4	-0.06378904
102	0xbd603e7e	-0.054747097
103	0xbe08a698	-0.133448
104	0xbd7d2a7a	-0.061808087
105	0x3dba0aba	0.09084077
106	0x3de72543	0.11286404
107	0xbdce6036	-0.100769445
108	0xbd23b0d9	-0.039963577
109	0x3d89380b	0.067001425
110	0x3d85bc71	0.06530083
111	0xbd587974	-0.0528502
112	0xbd509f84	-0.050933376
113	0x3d73933b	0.05946658
114	0x3e1a1511	0.15047099
115	0x3bf8cfe1	0.0075931405
116	0xbe0a2bbe	-0.13493249
117	0xbd8b4173	-0.06799593
118	0x3e107391	0.14106585
119	0xbd42d175	-0.047563035
120	0xbd75c000	-0.05999756
121	0x3d68d6fa	0.056845643
122	0xbcc6e4e7	-0.024279071
123	0x3ddf14f4	0.10892668
124	0x3da5f565	0.08103446
125	0xbdcdc347	-0.10047012
126	0xbd843b7e	-0.0645666
127	0xbdf77bf2	-0.120841876
128	0x3c28c41e	0.010300664
129	0xbddaff5d	-0.10693238
130	0x3d5b04df	0.053471442
131	0xbe20b128	-0.1569258
132	0x3c34b703	0.0110299615
133	0xbe0a9e0e	-0.13536856
134	0xbce23dfd	-0.027617449
135	0xbc9b68f9	-0.018970953
136	0xbc99e4ed	-0.018785918
137	0x3e5582c2	0.20850661
138	0xbe1a787a	-0.1508502
139	0x3d97dcd0	0.074151635
140	0xbe1e6fdd	-0.1547236
141	0xbc93c54f	-0.01803842
142	0x3e2f6181	0.17127039
143	0xbd94990d	-0.072557546
144	0xbd019883	-0.031639587
145	0xbdec1ccd	-0.11528931
146	0x3d2c263f	0.04202866
147	0x3d1f3973	0.038873147
148	0xbe1aa681	-0.15102579
149	0xbe1470a5	-0.14496095
150	0xbdb7dfb2	-0.08978213
151	0xbdcfb786	-0.10142426
152	0x3d5ef96c	0.054437086
153	0xbd088770	-0.03333229
154	0xbdd172fe	-0.10227011
155	0xbdf840c1	-0.12121726
156	0xbdedcf48	-0.116118014
157	0x3daeb373	0.08530321
158	0x3de2cef1	0.11074627
159	0x3d9abe43	0.07555821
160	0xbdd18e5a	-0.102322295
161	0x3dae3e30	0.08507955
162	0x3ce49a95	0.027905742
163	0x3e076718	0.13222921
164	0x3d4d2362	0.05008257
165	0xbdbecaeb	-0.09316047
166	0x3d9aabf8	0.07552332
167	0x3e057943	0.13034539
168	0x3e203d9f	0.15648507
169	0x3dafa9fc	0.08577344
170	0xbbfc5ae6	-0.0077012656
171	0x3d5043f9	0.050846074
172	0x3d4c85ac	0.049932167
173	0x3d86e305	0.06586269
174	0x3e06c186	0.13159761
175	0xbd3d8b2f	-0.046275314
176	0x3daeeb72	0.085410014
177	0x3e1ef6fe	0.15523908
178	0x3e2e199d	0.17001958
179	0x3e268424	0.16261345
180	0x3db2783b	0.087143384
181	0xbe0b4bbe	-0.13603112
182	0xbe079acd	-0.13242646
183	0x3e18b8aa	0.14914194
184	0xbd4e546e	-0.050373487
185	0xbd4ab043	-0.049484503
186	0xbdd1992b	-0.102342926
187	0x3db1bed9	0.086789794
188	0x3e0cef5b	0.13763182
189	0xbcfc2a3d	-0.03078186
190	0x3de09f85	0.10967926
191	0xbcddecd9	-0.027090477
192	0xbdeff700	-0.117170334
193	0x3e215904	0.15756613
194	0x3e092f82	0.13397029
195	0x3d800fd0	0.06253016
196	0xbdedb904	-0.116075546
197	0xbe0df2d4	-0.13862163
198	0x3dfcbb14	0.1234037
199	0x3ddb007c	0.10693452
200	0xbd5d2ee0	-0.05399978
201	0x3da20917	0.0791189
202	0xbcd59f91	-0.026077064
203	0xbdb7fbc2	-0.08983566
204	0xbde2e80f	-0.11079418
205	0xbe0156a1	-0.12630703
206	0x3d36215e	0.044465415
207	0xbe231085	-0.1592427
208	0x3e18d20f	0.14923881
209	0x3da09a3d	0.078419186
210	0x3de63c17	0.1124193
211	0x3e0a712b	0.13519733
212	0xbd8683b5	-0.0656809
213	0xbdc9c35c	-0.09851715
214	0xbd21c610	-0.039495528
215	0xbd867b26	-0.065664575
216	0xbe1a28fd	-0.15054698
217	0x3d8f493e	0.06996392
218	0xbdd5c727	-0.10438376
219	0x3d99b508	0.07505232
220	0x3e1bd7bb	0.15219013
221	0xbd1a75c0	-0.03770995
222	0x3d437d10	0.04772669
223	0xbe26d08c	-0.16290492
224	0x3d07a754	0.03311856
225	0xbe2a955c	-0.16658539
226	0x3e209959	0.15683497
227	0xbe1e773a	-0.15475169
228	0xbb5adf80	-0.0033397377
229	0xbd99c1af	-0.07507645
230	0x3d923712	0.0713941
231	0x3ce5aa0b	0.028035184
232	0x3e209fce	0.1568596
233	0x3d2229a8	0.039590508
234	0x3e060031	0.1308601
235	0xbde962c3	-0.113957904
236	0xbcb5d45d	-0.02219599
237	0xbd904872	-0.07045068
238	0xbdd576a1	-0.10423017
239	0x3d35e372	0.044406362
240	0x3e227866	0.15866241
241	0x3d11adf5	0.03556629
242	0x3d87b456	0.06626193
243	0x3de28718	0.11060923
244	0x3e034f2a	0.12823167
245	0x3d910f1b	0.07082959
246	0x3e03da69	0.12876286
247	0x3d8998cb	0.06718596
248	0x3e0818ee	0.1329076
249	0x3d4f44de	0.050602786
250	0x3b7027f4	0.0036644908
251	0xbe1ad37a	-0.15119734
252	0x3dfc1d0e	0.12310229
253	0x3de338ab	0.11094793
254	0xbe202325	-0.15638407
255	0xbd8d3dfa	-0.06896587

const_fold_opt__20 f4 [1536, 32]
0	0x3ce81895	0.028332034
1	0xbc931d09	-0.017958181
2	0x3d13c81a	0.036079504
3	0xbc52d1d5	-0.012867411
4	0xbcf08d8c	-0.02936437
5	0x3bdcbd61	0.006736443
6	0x3c9af2d5	0.01891462
7	0x3c82e62f	0.0159789
8	0x3b5361c7	0.0032254325
9	0x3d07c6e2	0.033148654
10	0x3ccfaaee	0.02535006
11	0xba9a7592	-0.0011784306
12	0x3cf9cab6	0.030492168
13	0x3bbd037c	0.0057682376
14	0x3cb7173e	0.02234995
15	0x3c104d87	0.008807546
16	0x3c0cf984	0.008604411
17	0xbcca8fd3	-0.024726784
18	0xbc83aea0	-0.016074479
19	0x3c7bfeb2	0.015380548
20	0xbc0d4245	-0.008621757
21	0x3d501212	0.050798483
22	0xbbc061e3	-0.005871044
23	0xbc485a8b	-0.012228618
24	0xbac56ea2	-0.0015062878
25	0xbc3d98ec	-0.011572104
26	0x3c02f58d	0.007993114
27	0xbc60ae94	-0.013713498
28	0x3d4c6d22	0.049908765
29	0xbccdbf57	-0.025115652
30	0xbb359b07	-0.0027710812
31	0x3c06794f	0.008207633
32	0x3c256c61	0.01009664
33	0xbc6a2a50	-0.014292315
34	0x3cd5f071	0.026115628
35	0xbaea25b7	-0.0017864023
36	0x3c46d388	0.012135394
37	0xbc97d539	-0.01853429
38	0xbc53493f	-0.012895881
39	0x3c4f3523	0.012646946
40	0x3c6d2723	0.014474663
41	0xbcb17057	-0.021660013
42	0xbc8d2ee7	-0.017234279
43	0x3ba11806	0.004916194
44	0x3c065829	0.00819973
45	0xbcb4f4e4	-0.02208943
46	0xbb958569	-0.004563023
47	0x3cb65cc0	0.022261024
48	0x3ba62020	0.0050697476
49	0xbc446f7a	-0.011989469
50	0xbc892301	-0.016740324
51	0xbc063e8d	-0.008193624
52	0x3c7ec1ac	0.015549105
53	0xbbcedb11	-0.006312736
54	0xbc221008	-0.009891517
55	0xbc8fd3aa	-0.017556984
56	0xbc301420	-0.010746986
57	0xbc849631	-0.016184898
58	0x3a6b615c	0.0008979046
59	0xbba3f339	-0.0050033596
60	0x3c7a5eba	0.015281374
61	0xbc1c72cf	-0.009548857
62	0x3c51e9b4	0.012812067
63	0x3c9f7746	0.019466054
64	0x3c916ce0	0.017752111
65	0x3d036bef	0.032085355
66	0xbcd9b29b	-0.026574424
67	0x3c6842bd	0.014176068
68	0x3c09ab88	0.008402713
69	0xbb2a60ac	-0.0025997562
70	0x3a44a8b6	0.00075019465
71	0x3ad8bdf8	0.0016536107
72	0xbc76e21f	-0.01506856
73	0xbbf0c6c3	-0.007347913
74	0xbb8408d9	-0.004029375
75	0x3c387c83	0.011260155
76	0x3bd88128	0.0066071935
77	0xbca25fa6	-0.019821
78	0xbba8e662	-0.005154417
79	0x3c77de89	0.01512874
80	0x3c0b2ffb	0.008495326
81	0x3bf019db	0.007327301
82	0x3c9c551a	0.019083548
83	0xbd2476e5	-0.04015245
84	0xbcca6663	-0.024707025
85	0xbca8eabe	-0.020619746
86	0x3c11c501	0.008897067
87	0x3cdbc0ea	0.026825387
88	0xbbc3b1a7	-0.0059721055
89	0x3ca8ebd4	0.020620264
90	0xbd0ae73d	-0.033911932
91	0xbce0141b	-0.027353337
92	0xbd2e1c0e	-0.042507224
93	0x3bd268d7	0.0064211893
94	0xbc53782d	-0.01290707
95	0xbc460d74	-0.012088168
96	0x3c7fc969	0.015611985
97	0x3b8597da	0.00407694
98	0xbc61d11f	-0.0137827685
99	0x3ca623a4	0.020280667
100	0x3cc84f57	0.024451895
101	0xbb9c072b	-0.0047615967
102	0xbc5a62a0	-0.013329178
103	0xbba895e1	-0.00514482
104	0x3d0687fd	0.032844532
105	0xbca81608	-0.020518318
106	0xbcdc93fe	-0.026926037
107	0xbc09e1fc	-0.008415695
108	0x3c80bea6	0.015715908
109	0xbc84c0c8	-0.016205207
110	0xbca091f7	-0.019600851
111	0x3c3ba298	0.01145234
112	0xbd0a94f1	-0.033833448
113	0x3aa8b244	0.001287051
114	0xbc0e384b	-0.0086804135
115	0xbd15e251	-0.036592785
116	0xbc3d8756	-0.011567911
117	0xbcaecaa9	-0.02133687
118	0xbc9c2fa0	-0.019065678
119	0x3bdbd2b9	0.0067084697
120	0xbcc5c551	-0.02414194
121	0xbc0391cd	-0.008030367
122	0xbcf6af23	-0.030112809
123	0xbc9bc338	-0.019013986
124	0xbd034856	-0.032051407
125	0x3c8d50bd	0.017250413
126	0xbcb0d4d3	-0.021585857
127	0x3c86a76b	0.016437253
128	0x3cf56bbe	0.029958602
129	0xbad1ec57	-0.0016015869
130	0x3b668526	0.0035174577
131	0x3ca3703a	0.019950975
132	0xbca9a7f6	-0.020709973
133	0xbb3ad4fb	-0.0028508294
134	0x3d103f7a	0.035216786
135	0x3cd4f130	0.025993913
136	0xbc29e2c1	-0.010369004
137	0x3ccf07be	0.025272246
138	0xb9750642	-0.00023367352
139	0x3b9b12c7	0.004732463
140	0xbba7a1dc	-0.0051157307
141	0x3af1e842	0.0018456059
142	0x3ca43133	0.020042991
143	0x39f9aae2	0.000476203
144	0x3cc59cea	0.024122674
145	0xbb91710c	-0.004438525
146	0x3ab05ae0	0.0013454817
147	0x3ce67bfb	0.02813529
148	0x3ac2e931	0.0014870522
149	0x3cfcf77e	0.030879732
150	0x3b74f6a7	0.0037378462
151	0xbca78357	-0.02044837
152	0x3cec6c44	0.028860219
153	0xbc39c460	-0.011338323
154	0x3d696232	0.056978412
155	0xbcc683c3	-0.02423275
156	0x3d061007	0.03273013
157	0xbcd5fb04	-0.02612067
158	0x3c9c14fa	0.019052971
159	0x3c54158b	0.012944589
160	0xbca68a39	-0.020329582
161	0xbc851769	-0.016246514
162	0xbb874bec	-0.0041289236
163	0xbc6537b0	-0.013990328
164	0x3c1cb40b	0.00956441
165	0xbbfa0e72	-0.0076311165
166	0xbc9f3d79	-0.019438492
167	0xbc2a69ec	-0.01040123
168	0x3a71f799	0.00092303153
169	0x3c5c0ba7	0.0134305125
170	0xbb9057aa	-0.0044049816
171	0xbcb33e27	-0.021880222
172	0x3c8a75fb	0.01690196
173	0xbc674453	-0.014115411
174	0x3c1d6f1f	0.009609013
175	0x3c5bbb6a	0.013411382
176	0xbc31b139	-0.010845476
177	0x3bfc70ed	0.0077038915
178	0xbc4249c7	-0.01185841
179	0x3b191bc7	0.0023362504
180	0x3c76bec0	0.015060127
181	0xbc3fec5c	-0.011714067
182	0xbbb08c16	-0.0053877933
183	0x3ba45d89	0.005016033
184	0x3c91592a	0.017742712
185	0xbc93dde0	-0.018050134
186	0x3baf5879	0.005351123
187	0xbcbd2dab	-0.023093065
188	0xbc836177	-0.016037686
189	0x3c1a7fef	0.009429916
190	0xbc8073af	-0.015680162
191	0x3c643d88	0.013930686
192	0xbcad675d	-0.021167452
193	0x3bbe006a	0.005798389
194	0x3ac197eb	0.0014770007
195	0x3bcef23e	0.0063154986
196	0x3cced317	0.02524714
197	0x3c17fb71	0.009276257
198	0xbc2ab806	-0.010419851
199	0x3b45c747	0.0030178593
200	0x3b6d28be	0.0036187614
201	0x3c33b80d	0.010969174
202	0x3c045bf8	0.008078568
203	0x3cd1113a	0.02552091
204	0xbc5e65f0	-0.0135741085
205	0xbc960648	-0.018313542
206	0xbb992605	-0.0046737217
207	0x3bca37c4	0.0061711986
208	0x3c6b11a7	0.01434747
209	0x3c53e000	0.012931824
210	0x39f44a38	0.00046594604
211	0x3c11d973	0.008901942
212	0x3c604e38	0.013690524
213	0xbcd6cf29	-0.026221829
214	0xbc44ed42	-0.012019457
215	0x3c2c5647	0.010518617
216	0xbc5ea546	-0.013589209
217	0xbb6ab525	-0.0035813537
218	0xbb627d4a	-0.0034559541
219	0xbcbb4b8d	-0.022863174
220	0xbc2dbbe8	-0.010603882
221	0xbc07a36b	-0.008278708
222	0x3c7a2aea	0.015269021
223	0xba8cde6f	-0.0010747443
224	0xbcf3524b	-0.029702326
225	0xbb6ae0fd	-0.003583967
226	0xbd06866a	-0.03284303
227	0x3cd8946a	0.026437957
228	0xbbdb803b	-0.006698636
229	0xbcd8ec34	-0.026479818
230	0xbb2e4d89	-0.0026596508
231	0xbc73312c	-0.014843266
232	0x3c7a9a57	0.015295587
233	0xbcd1aa19	-0.025593804
234	0xbc2b0ed2	-0.010440545
235	0xbc87ee1b	-0.01659303
236	0xbcb46f39	-0.022025691
237	0x3c118ad1	0.008883194
238	0xbb605cf7	-0.00342351
239	0x3c6ecb58	0.014574848
240	0xbb619eb3	-0.0034426867
241	0xb910653c	-0.00013770623
242	0xbbf123e5	-0.0073590153
243	0xbcb1a70e	-0.021686103
244	0xbcc7cc36	-0.024389368
245	0xbbc35f3a	-0.0059622796
246	0x3c146456	0.009057125
247	0xbc71d8ca	-0.014761159
248	0xbca93d1b	-0.02065902
249	0x3a4537e6	0.0007523283
250	0xbd10214b	-0.035188
251	0xbb7f0d8b	-0.0038917984
252	0xbcd8aec6	-0.026450526
253	0x3b3ffd1a	0.0029295147
254	0xbc93cf96	-0.01804332
255	0xba6988ed	-0.0008908648

Const_7 f4 [32]
0	0x3dfc0b22	0.12306811
1	0x3b70fef8	0.0036773067
2	0x3d08fafa	0.033442475
3	0x3d89c553	0.0672709
4	0xbc3eb4a8	-0.0116397515
5	0xbc2a2fa1	-0.010387332
6	0x3e8af04a	0.2713645
7	0xbd7a4f1b	-0.061110597
8	0x3ea272e0	0.31728268
9	0x3e8d6e72	0.27623326
10	0x3d53f3f2	0.051746316
11	0x3aa54581	0.0012609215
12	0x3d511be8	0.051052004
13	0x3e853277	0.26015064
14	0x3e85671a	0.26055223
15	0x3d4edee7	0.050505545
16	0xbd228bf1	-0.03968424
17	0x3e7ecc27	0.24882565
18	0x3e80eec7	0.25182173
19	0x3c95eced	0.018301452
20	0x3b9ff577	0.0048815566
21	0xbc503af0	-0.012709364
22	0xbd269f20	-0.040679097
23	0x3c1e4a7e	0.009661315
24	0x3d3f184a	0.046654023
25	0x3cd628b7	0.026142461
26	0x3d8edf27	0.06976157
27	0x3d1d130a	0.038348235
28	0xbb6350a6	-0.0034685521
29	0x3c80ea2b	0.01573666
30	0x3e82fc4a	0.25583106
31	0xbcca72c9	-0.024712937

Const_6 f4 [32]
0	0x3f92dd28	1.1473742
1	0x3f8a3f0f	1.0800494
2	0x3f81a7cb	1.0129331
3	0x3f8a8f02	1.0824893
4	0x3f7d4a25	0.9894126
5	0x3f7f386d	0.99695474
6	0x3fa6bfb6	1.3027256
7	0x3f73af1f	0.9518909
8	0x3fb30531	1.3985959
9	0x3fa688bb	1.3010477
10	0x3f85058e	1.039232
11	0x3f80b461	1.0055047
12	0x3f880b4f	1.0628451
13	0x3fa1b2d3	1.2632698
14	0x3f9f07fa	1.2424309
15	0x3f8a48b8	1.0803442
16	0x3f7c7d77	0.98628944
17	0x3f9d512c	1.2290397
18	0x3f9f1822	1.242924
19	0x3f810339	1.0079108
20	0x3f80cdaa	1.0062764
21	0x3f7ee31b	0.99565285
22	0x3f77f862	0.9686338
23	0x3f804273	1.0020279
24	0x3f898351	1.07432
25	0x3f84bf25	1.0370833
26	0x3f90dae4	1.13168
27	0x3f87e00f	1.0615252
28	0x3f80a74c	1.0051055
29	0x3f81d207	1.014222
30	0x3fa12f3b	1.2592539
31	0x3f7c7fb1	0.9863234

Const_5 f4 [32]
0	0x3e448984	0.19193083
1	0xbd5f3b20	-0.054499745
2	0x3d0059a4	0.031335488
3	0xbdf19bc1	-0.11797286
4	0x3cbd7ea7	0.023131682
5	0x3d3a52e6	0.045489214
6	0x3b651913	0.0034957572
7	0x3d71ef2e	0.05906599
8	0x3db45d2f	0.08806836
9	0xbdb2f59d	-0.08738253
10	0x3d50b371	0.05095238
11	0x3decc6d8	0.11561364
12	0xbe00deb6	-0.12584957
13	0x3bae25b5	0.0053145536
14	0xbe2ecc88	-0.1707021
15	0x3c9e1c78	0.019300684
16	0x3e3a1164	0.18170696
17	0xbc90329f	-0.017602263
18	0xbdbbcbb2	-0.09169711
19	0xbdee1e83	-0.116269134
20	0x3dd55a6f	0.104176395
21	0x3e09cfae	0.1345813
22	0x3e41b342	0.18916038
23	0x3d725a10	0.05916792
24	0xbdfc9cab	-0.123345695
25	0xbd2415d4	-0.04005988
26	0xbddded09	-0.108362265
27	0x3e159bb3	0.14610176
28	0x3df12306	0.11774258
29	0x3c3bf0f7	0.011471025
30	0xbd8fca2d	-0.07020984
31	0xbe2fc7d0	-0.17166066

Const_3 f4 [32]
0	0xbbb6b5ec	-0.005575886
1	0x3c50e82f	0.012750669
2	0xbbe9d16f	-0.007135562
3	0x3ca2ba74	0.019864298
4	0x3c1ca792	0.009561436
5	0xbc2132e3	-0.0098387925
6	0xbca2729f	-0.019830046
7	0xbd898bda	-0.06716128
8	0x3d0999d8	0.033593982
9	0xbbd7ee38	-0.006589677
10	0xbb407f24	-0.0029372657
11	0xbb3c9c02	-0.0028779511
12	0x3b4be3fb	0.0031111229
13	0xbbee6086	-0.00727469
14	0xbbddc834	-0.006768251
15	0xbc17746f	-0.0092440685
16	0xbb98d6d4	-0.0046642814
17	0x3c1f684c	0.009729456
18	0x3c5011ad	0.012699527
19	0x3cf2e0a2	0.029648129
20	0xbb88a1bc	-0.004169671
21	0x3c8e7a51	0.01739231
22	0x3c178687	0.009248382
23	0x3c94d111	0.018166097
24	0x3c03a625	0.008035217
25	0x3c1924a0	0.009347111
26	0x3cba049a	0.022707272
27	0xbc101278	-0.008793466
28	0x3b4ba7ab	0.003107528
29	0x3bfd486e	0.0077295816
30	0xbc2e5aff	-0.010641812
31	0x3d257604	0.04039575

Const_2 f4 [32]
0	0x3f7e7672	0.99399483
1	0x3f81e5c4	1.0148244
2	0x3f7f095a	0.99623644
3	0x3f81798c	1.0115218
4	0x3f81f709	1.0153514
5	0x3f7f50fa	0.99732935
6	0x3f7de2aa	0.99173987
7	0x3f72827f	0.9473037
8	0x3f83ab8a	1.0286725
9	0x3f7ccc3e	0.9874915
10	0x3f804745	1.002175
11	0x3f74318e	0.95388114
12	0x3f76b255	0.96365863
13	0x3f7f16eb	0.99644345
14	0x3f7e5085	0.99341613
15	0x3f7faa2c	0.99869037
16	0x3f7f5ae7	0.9974808
17	0x3f7fbed2	0.99900544
18	0x3f83ffd3	1.0312446
19	0x3f8328d7	1.0246838
20	0x3f805288	1.0025187
21	0x3f81a6b9	1.0129005
22	0x3f7e5af3	0.9935753
23	0x3f85e79e	1.0461309
24	0x3f8145d2	1.0099432
25	0x3f79187d	0.9730299
26	0x3f81dd39	1.0145637
27	0x3f7d264a	0.9888655
28	0x3f817ba5	1.0115858
29	0x3f804318	1.0020475
30	0x3f7f83cd	0.9981049
31	0x3f81823a	1.0117867

Const_1 f4 [32]
0	0xbbe65d2a	-0.007030149
1	0x3ba2836b	0.004959514
2	0x3c962dfa	0.01833247
3	0xbc714e93	-0.014728206
4	0x3c48cc4b	0.0122557385
5	0xbba62f7e	-0.0050715795
6	0xbc0c56f4	-0.008565653
7	0xbc52833f	-0.012848674
8	0xbc6dd6a6	-0.014516508
9	0x3c66d5bf	0.014089047
10	0xbc8c37aa	-0.017116386
11	0x3c1bb22c	0.009502929
12	0x3b8226e9	0.0039719236
13	0x3c6fdf98	0.014640711
14	0xbca9b610	-0.020716697
15	0x3b9ab7b4	0.004721606
16	0xbb1768a5	-0.0023103144
17	0x3c700432	0.014649438
18	0x3c9ca9cf	0.01912394
19	0xb9f15611	-0.00046031227
20	0x3c38ef64	0.011287544
21	0xbcba2af5	-0.022725562
22	0x3cbc0663	0.022952264
23	0xbc4bb274	-0.012432683
24	0x3b368e70	0.0027855895
25	0xbb19ac76	-0.0023448742
26	0xbb992298	-0.0046733133
27	0xbb97f9a2	-0.004637913
28	0x3cc980e1	0.024597587
29	0x3bbd82ab	0.005783399
30	0xbcd8fd81	-0.026488068
31	0x3cbe5377	0.023233159
