en/hey_chatterbox/hey_chatterbox.onnx (onnx, 206987 bytes, 9 tensors)

const_fold_opt__23 f4 [32, 1]
0	0x3deca6a1	0.115552194
1	0xbe9c065b	-0.304736
2	0xbe9d4794	-0.30718672
3	0x3d68e29a	0.05685673
4	0x3d39dcfe	0.04537677
5	0xbc61f92e	-0.013792319
6	0xbd9e6c2b	-0.07735475
7	0x3e2331e1	0.15936996
8	0xbea35b48	-0.3190558
9	0x3e1b7ede	0.15185115
10	0x3d96bdb7	0.07360404
11	0x3d9b419f	0.075808756
12	0xbe06b556	-0.13155112
13	0x3e51e556	0.20497641
14	0x3dd3b1cf	0.10336649
15	0x3d1afd26	0.037839077
16	0x3e3463c1	0.17616178
17	0xbddc5c46	-0.10759787
18	0xbea266f2	-0.31719166
19	0xbea38f2f	-0.31945178
20	0xbd242989	-0.040078674
21	0x3ceaeba1	0.02867681
22	0xbe9d0fc8	-0.30676103
23	0xbea102b7	-0.31447384
24	0xbea2d0c4	-0.317999
25	0x3d240099	0.040039632
26	0xbe9b9729	-0.30388764
27	0x3e7f11c1	0.24909116
28	0x3da21e79	0.079159684
29	0x3d884f05	0.06655697
30	0xbea00291	-0.31251958
31	0xbea16e36	-0.31529397

const_fold_opt__22 f4 [32, 32]
0	0xbe412dba	-0.188651
1	0xbb405ce7	-0.002935225
2	0x3e1167e5	0.14199789
3	0xbd5541e8	-0.052064806
4	0xbdff2fdc	-0.124603
5	0x3dd881e2	0.10571648
6	0x3ca66dbe	0.020316001
7	0xbe056c7b	-0.13029663
8	0xbc8a43e5	-0.016878078
9	0xbd766524	-0.06015505
10	0xbdbb2d6b	-0.09139522
11	0xbd3a2da0	-0.045453668
12	0x3c0955d6	0.008382281
13	0x3d9f3d79	0.07775397
14	0x3d118e26	0.035535954
15	0xbd1b281c	-0.03788005
16	0x3c947815	0.018123666
17	0x3df0d92c	0.11760172
18	0x3dbcbb80	0.0921545
19	0xbc56d9dc	-0.013113465
20	0x3de832ce	0.11337815
21	0xbe14d8d7	-0.14535843
22	0x3d2c0cb3	0.0420043
23	0xbd1e0caf	-0.038586315
24	0x3c3aec65	0.0114089
25	0xbd1c4312	-0.0381499
26	0xbdf5b6c2	-0.11997749
27	0x3cfbdd37	0.030745132
28	0xbcb1b99d	-0.021694953
29	0xbc4af3cf	-0.01238723
30	0x3df7f68d	0.12107573
31	0xbd08e2e9	-0.033419523
32	0xbbfb0819	-0.0076608774
33	0x3dc559c3	0.09636261
34	0x3e2d2c82	0.1691151
35	0xbde157df	-0.11003088
36	0xbd9d1016	-0.07669084
37	0xbddb4982	-0.1070738
38	0x3df6bc32	0.12047614
39	0xbdba5936	-0.09099047
40	0xbd635cf7	-0.05550858
41	0xbb649892	-0.0034880978
42	0xbddc9b9e	-0.10771869
43	0x3c5b0385	0.013367538
44	0x3e33767b	0.17525665
45	0xbd497f13	-0.049193453
46	0x3c831035	0.015998939
47	0x3d9e2171	0.07721222
48	0xbe166111	-0.14685465
49	0x3d875d2a	0.066095665
50	0xbd1ed0b2	-0.038773246
51	0xbe2ed623	-0.17073874
52	0x3e0b41fe	0.13599393
53	0x3dd1262e	0.1021236
54	0xbce99cb5	-0.028517107
55	0xbd9d9ed8	-0.07696313
56	0x3df7ff4a	0.121092394
57	0x3e07e76b	0.13271873
58	0x3b9d0fc7	0.0047931406
59	0x3e041019	0.12896766
60	0x3cd507ac	0.026004635
61	0x3ccdf9bd	0.025143499
62	0x3dd20e5c	0.10256645
63	0xbd973ad2	-0.07384266
64	0xbe03bcf3	-0.12865047
65	0xbdd7a46c	-0.10529408
66	0x3d5bfb14	0.053706244
67	0x3ddec926	0.1087821
68	0xbda65f84	-0.08123687
69	0xbddf0093	-0.108887814
70	0xbdad1c86	-0.08452706
71	0xbdae4c9b	-0.08510705
72	0x3e32f96e	0.17477962
73	0xbe2b142a	-0.1670691
74	0x3d8be7e6	0.068313405
75	0xbd86ed96	-0.06588285
76	0x3c0afbae	0.008482857
77	0xbcf52ca7	-0.029928518
78	0x3e1c0adc	0.15238518
79	0xbdf112da	-0.11771174
80	0x3dbf4903	0.09340098
81	0xbe17254c	-0.14760321
82	0xbe241810	-0.16024804
83	0xbe06ec4f	-0.13176082
84	0x3e15e829	0.14639343
85	0x3e0d77a0	0.13815165
86	0xbc4377bf	-0.011930405
87	0xbde47c99	-0.111565776
88	0xbded20eb	-0.11578544
89	0x3bcd2789	0.0062608165
90	0x3cb87c02	0.022520069
91	0xbdf0fd4f	-0.11767065
92	0x3dae8344	0.08521131
93	0x3d7f9376	0.06239649
94	0xbe1fccb7	-0.15605436
95	0xbdced35a	-0.10098906
96	0x3e0bd4bd	0.13655372
97	0x3dc20c8b	0.09475049
98	0xbe22108b	-0.15826623
99	0xbdf6d0ae	-0.12051521
100	0x3d242267	0.04007187
101	0xbdb979fd	-0.090564705
102	0xbcd6b5d4	-0.02620975
103	0x3d8d9cf7	0.06914704
104	0xbbb429e8	-0.0054981597
105	0x3e1433d8	0.14472902
106	0x3e4d5a4c	0.20053977
107	0xbda255b3	-0.07926502
108	0x3e034bec	0.1282193
109	0x3db88404	0.09009555
110	0x3e469074	0.19391042
111	0x3e160a4d	0.14652367
112	0xbd8db54e	-0.06919347
113	0xbd36f1bc	-0.04466413
114	0x3dfc9f08	0.1233502
115	0xbdb1dfb7	-0.08685248
116	0x3cd5e27e	0.026108976
117	0xbd7550af	-0.0598914
118	0xbcec62a6	-0.028855633
119	0x3d9ae47b	0.075631104
120	0xbe163c81	-0.14671518
121	0x3dfe0db1	0.12404955
122	0xbdeb97db	-0.115035735
123	0x3e88a4bf	0.2668819
124	0xbc1edafb	-0.009695764
125	0x3e10c244	0.14136606
126	0xbc8cef8a	-0.017204065
127	0xbe1d1a8e	-0.15342161
128	0xbd1bc21b	-0.03802691
129	0xbb78cbd2	-0.0037963283
130	0x3e155ed4	0.14586955
131	0x3d57e4f4	0.05270858
132	0xbcaa4b2a	-0.020787794
133	0x3e22b681	0.15889932
134	0xbd67af96	-0.056563936
135	0x3c43cf85	0.011951332
136	0x3d971d31	0.07378615
137	0x3da66d59	0.08126325
138	0x3de087fa	0.109634355
139	0x3e09e83c	0.13467497
140	0x3d473c12	0.048641272
141	0xbb88c5c4	-0.004173966
142	0x3db61ce6	0.08892231
143	0xbddd7068	-0.108124554
144	0xbc37c5b2	-0.011216568
145	0x3de228c6	0.11042933
146	0x3daeb386	0.08530335
147	0x3c8ea5fa	0.017413128
148	0xbe03d364	-0.12873608
149	0x3e280a35	0.16410144
150	0xbda80f02	-0.082059875
151	0x3dc2911c	0.09500334
152	0x3d94c789	0.07264621
153	0xbd002fb9	-0.031295512
154	0x3cf3bc24	0.029752798
155	0x3e60a145	0.2193652
156	0x3e1242c7	0.14283286
157	0x3e22df2a	0.15905443
158	0xbe198c25	-0.14994867
159	0x3dd921d5	0.10602156
160	0xbdbb231a	-0.091375545
161	0x3cb1b0a6	0.021690678
162	0xbe3ea2a1	-0.18616726
163	0xbe099aec	-0.13438004
164	0x3e069cf3	0.13145809
165	0xbe1d5e56	-0.15368018
166	0xbe22963d	-0.15877624
167	0xbda358d7	-0.07975929
168	0x3d8ebf48	0.06970078
169	0x3c3e09ef	0.011599048
170	0x3c78e37a	0.015190953
171	0x3ce10f4a	0.02747311
172	0x3cd8290d	0.026386762
173	0xbda0c942	-0.07850887
174	0xbdfa0509	-0.12207992
175	0xbdf760b6	-0.12078993
176	0xbdabc38e	-0.083869085
177	0xbcaa3eba	-0.020781863
178	0x3c91be81	0.017791035
179	0xbdb4fb19	-0.088369556
180	0x3d113c16	0.035457693
181	0x3d18ad7e	0.03727483
182	0xbc39a947	-0.011331863
183	0xbdcf37cc	-0.10118064
184	0xbcefd5fd	-0.029276842
185	0x3e1c76d9	0.15279712
186	0xbd569555	-0.052388508
187	0x3e6a8faa	0.22906366
188	0xbd787dc5	-0.06066682
189	0x3dec1396	0.11527173
190	0x3e1e7114	0.15472823
191	0x3d8818d4	0.066453606
192	0x3d22aaa6	0.039713524
193	0x3e10376f	0.14083646
194	0xbc7bfcf9	-0.015380138
195	0xbd713be2	-0.058895
196	0x3d203186	0.03910973
197	0xbd82a73f	-0.06379556
198	0xbe4cb060	-0.19989157
199	0x3e1c6c45	0.15275677
200	0xbe1e0709	-0.15432371
201	0xbcc58607	-0.02411176
202	0xbe211682	-0.15731242
203	0x3d13e70e	0.036109023
204	0xbde43e32	-0.11144675
205	0x3e329d12	0.1744273
206	0x3c901d32	0.017592046
207	0xbe282a48	-0.16422379
208	0x3dc574d3	0.09641423
209	0x3de473b4	0.11154881
210	0x3d880d2d	0.06643138
211	0xbe2c171f	-0.16805695
212	0xbe024210	-0.12720513
213	0x3e1d9afc	0.15391153
214	0x3e27a763	0.16372447
215	0xbc3b0911	-0.011415736
216	0xbd1b1d2f	-0.03786963
217	0xbdeddacb	-0.11613997
218	0x3ac7d33e	0.001524545
219	0xbded0549	-0.11573274
220	0x3dcd0a1e	0.10011695
221	0x3ddaa54b	0.106760584
222	0xbd3a70f7	-0.045517888
223	0x3d053450	0.032520592
224	0xbd6cce28	-0.057813793
225	0x3de5a13f	0.11212396
226	0xbdf4f3d4	-0.11960569
227	0xbd5bc110	-0.053650916
228	0xbe02d1d1	-0.12775351
229	0xbda1de1b	-0.079036914
230	0x3be94985	0.00711936
231	0xbde054b8	-0.10953659
232	0xbdb57e5f	-0.08861994
233	0x3d03e6c6	0.032202505
234	0xbe24ef8e	-0.16107008
235	0xbe01e020	-0.12683153
236	0x3c59a3e8	0.013283707
237	0x3d746666	0.059667967
238	0xbe0de8d4	-0.13858348
239	0xbdf0ec39	-0.11763806
240	0x3dcacf41	0.09902812
241	0x3d50718d	0.05088954
242	0x3cc26d21	0.023733677
243	0x3e334710	0.17507577
244	0xbc6e6cea	-0.014552334
245	0xbde32fe5	-0.110931195
246	0x3e2f08ce	0.17093202
247	0x3ce0f880	0.027462244
248	0x3d282908	0.041054755
249	0xbe125faa	-0.14294305
250	0x3d745a93	0.05965669
251	0xbe2b8a13	-0.1675189
252	0xb9a7e31d	-0.00032021935
253	0x3dc64e02	0.096828476
254	0x3dffda7c	0.124928445
255	0x3e0cb375	0.13740332

const_fold_opt__20 f4 [1536, 32]
0	0xbb2c75c9	-0.0026315323
1	0x3cf40a48	0.029790059
2	0xba4d41c5	-0.000782993
3	0x3d45ff6a	0.048339285
4	0x3d2673c6	0.040637754
5	0xbc8f3458	-0.017481014
6	0x3ca48a92	0.020085607
7	0xbcc78f07	-0.024360193
8	0xbbfc30dc	-0.007696254
9	0xbbf6d23a	-0.007532385
10	0xbaee9bef	-0.0018204431
11	0xbcdf7c56	-0.027280968
12	0x3c8d3380	0.017236471
13	0x3ad0b06d	0.001592172
14	0xbd1e4e12	-0.038648672
15	0x3d0090ff	0.03138828
16	0xbcb1e69f	-0.021716414
17	0x3d111b49	0.03542641
18	0x3c07f680	0.008298516
19	0xbd579ce1	-0.052639846
20	0x3c1daa2c	0.009623092
21	0x3cf51f97	0.02992229
22	0x3bc4f20c	0.0060102995
23	0x3bf55b34	0.007487679
24	0x3d0c53b0	0.034259498
25	0x3d55534a	0.052081384
26	0x3d37d2c2	0.04487873
27	0xbc902664	-0.017596431
28	0x3b72043e	0.0036928798
29	0x38707073	5.7325185e-05
30	0xbca2eebd	-0.01988923
31	0x3cf46085	0.02983118
32	0xbc600e6a	-0.013675312
33	0xbbe32482	-0.0069318423
34	0x3c4e0588	0.012574561
35	0x3ce68eb0	0.02814421
36	0x3caf367f	0.02138829
37	0x3cf15fd2	0.029464636
38	0xbca4e8e3	-0.02013058
39	0x3b8cc9d9	0.004296523
40	0xb72355d3	-9.73554e-06
41	0x3c6d40bc	0.014480766
42	0xbc6f14a4	-0.014592323
43	0x3a826b95	0.0009950275
44	0x3bb95c99	0.0056567905
45	0xbc7dbc9f	-0.015486865
46	0xbc4bea32	-0.012445973
47	0xbab8ceca	-0.0014099714
48	0x3c2a76ca	0.010404298
49	0x3b3c27b1	0.0028710181
50	0xbb294a35	-0.0025831584
51	0xbcd5e3e0	-0.026109636
52	0x3cd12966	0.025532436
53	0x3cb35971	0.021893235
54	0xbc2fa453	-0.01072033
55	0xbbf5f3d0	-0.0075058714
56	0x3c9ad9e5	0.018902728
57	0xbb89ff91	-0.004211374
58	0x3cb8ef84	0.022575147
59	0xbb2388ad	-0.0024953291
60	0x3c6cdc47	0.014456815
61	0xbc92806e	-0.017883506
62	0xbcf3bffd	-0.029754633
63	0x3c0692b9	0.008213692
64	0xbcc6797b	-0.024227848
65	0x3c2f4d4b	0.01069958
66	0x3c7d8d6c	0.015475612
67	0x3d2dee40	0.04246354
68	0xbc80595e	-0.015667614
69	0x3ca249f8	0.019810662
70	0x3bc1ddb7	0.005916323
71	0xbbf4c1ff	-0.007469415
72	0x3c132bdc	0.008982625
73	0xbc90dfbd	-0.017684812
74	0x3be6e3e3	0.007046209
75	0xbca36e2b	-0.019949993
76	0x3d16739b	0.036731344
77	0x3b1fd537	0.002438856
78	0xbc653f86	-0.013992196
79	0x3c3528cf	0.011057093
80	0x38e6ffe9	0.000110149216
81	0x3c8465ed	0.016161883
82	0xbbf756dc	-0.0075481962
83	0xbc7896ab	-0.015172641
84	0xbb924eb9	-0.004464951
85	0xbc907cdd	-0.017637664
86	0x3cc45d56	0.023970287
87	0x3ccdad00	0.025106907
88	0x3cae2c42	0.021261338
89	0x3c9878a2	0.01861221
90	0x3ce97c25	0.02850158
91	0xb9a2e4a4	-0.00031069398
92	0x3a674f18	0.00088237366
93	0xbc4eae5a	-0.012614811
94	0xbcab59e5	-0.020916888
95	0x3c4f3e21	0.01264909
96	0x3c93ea16	0.018055957
97	0xbc89bb2f	-0.016812889
98	0xbbc9acf4	-0.006154651
99	0xbd8392a9	-0.064244576
100	0xbd43a25d	-0.047762264
101	0x3c44eed5	0.012019833
102	0xbc95af42	-0.018272046
103	0x3bfc1860	0.0076933354
104	0xbc97f2bf	-0.018548368
105	0xbcae741d	-0.021295602
106	0xbd6635fa	-0.05620382
107	0x3d454f20	0.048171163
108	0xbc710088	-0.014709599
109	0xbc4c4e76	-0.012469878
110	0x3d7baeab	0.061445873
111	0xbd068d7c	-0.032849774
112	0x3cd7d97b	0.02634882
113	0xbc549060	-0.012973875
114	0xbc95d3d2	-0.01828948
115	0x3da419f3	0.08012762
116	0xbcfd8c9e	-0.03095084
117	0xbcea7c3a	-0.028623689
118	0xbc86541a	-0.016397525
119	0xbd636eae	-0.055525474
120	0xbc52d1b0	-0.012867376
121	0xbd68f0c9	-0.056870256
122	0xbd9b197b	-0.075732194
123	0x3d1b7ba7	0.03795972
124	0xbbb4e376	-0.0055202795
125	0xbca83768	-0.020534232
126	0x3d356d0a	0.04429344
127	0xbd958357	-0.07300442
128	0xbc2bb6a7	-0.010480559
129	0x3cc7dcb5	0.024397234
130	0x3cde5ae2	0.027142946
131	0x3c91ffb6	0.017822128
132	0x3cbce4ee	0.023058381
133	0xbc256dd6	-0.010096988
134	0x3b9e0ed0	0.004823543
135	0x3b0611f8	0.0020457488
136	0x3bd86cba	0.006604758
137	0x3c9458ea	0.018108804
138	0x3cba1d0e	0.022718932
139	0xbc6f4208	-0.014603145
140	0x3cb20e2c	0.021735273
141	0xbc0d141f	-0.008610754
142	0xbcba1cca	-0.022718806
143	0x3d038fe8	0.03211966
144	0xba99dc84	-0.0011738692
145	0x3c86060d	0.016360307
146	0xbc2a409f	-0.010391383
147	0xbcb4e097	-0.022079749
148	0xbc0c848d	-0.008576524
149	0x3cc3d90b	0.023907205
150	0x3c5bbf04	0.013412241
151	0x3d11adff	0.035566326
152	0xbba8c5db	-0.0051505393
153	0x3cabde0d	0.020979906
154	0x3bd5385b	0.0065069622
155	0x3b6edb3a	0.0036446587
156	0x3b99503d	0.0046787546
157	0x3c0e4d21	0.008685381
158	0xbc018dd7	-0.007907352
159	0x3caa58f0	0.020794362
160	0xbc5d8b2a	-0.013521949
161	0xbca44e3a	-0.020056833
162	0x3bc51048	0.0060139038
163	0x3cd3b9ba	0.025845397
164	0xbc31dc48	-0.010855742
165	0xbc3126d8	-0.010812484
166	0xbbed35e2	-0.0072390893
167	0xbc076531	-0.008263872
168	0x3cd1d24f	0.025612978
169	0x3b0a8912	0.002113883
170	0xbc80fd3c	-0.015745752
171	0x3cc61532	0.024180029
172	0x3c9a10a3	0.018806761
173	0xbc03be7f	-0.008041023
174	0xbc8cfd67	-0.017210675
175	0xbc3f6ed8	-0.011684142
176	0xbc0acb72	-0.008471357
177	0xbc86a2fd	-0.01643514
178	0x39f828cb	0.0004733264
179	0x3b8e6c12	0.004346379
180	0xbc05195d	-0.008123723
181	0x3cb6418b	0.02224805
182	0xbc804904	-0.015659817
183	0x3c287c50	0.010283545
184	0xbc60c7d8	-0.013719521
185	0xbc9a7af9	-0.018857466
186	0x3cc846e5	0.024447868
187	0xbb8e89a2	-0.004349903
188	0x3c01e814	0.007928867
189	0xbc40b98b	-0.011762987
190	0x3c50e8c8	0.012750812
191	0xbc00c5f9	-0.0078597
192	0x3c6bf897	0.01440253
193	0x3cc335f2	0.023829434
194	0xbc8ce2a6	-0.017197918
195	0xbb4fc8de	-0.003170542
196	0x3c7af4b5	0.015317132
197	0xbb563c86	-0.0032689883
198	0x3cda9603	0.02668286
199	0x3bd3db47	0.006465349
200	0x3b180a39	0.0023199453
201	0xbc5bbcef	-0.0134117445
202	0xbbc644b7	-0.006050672
203	0xbabd7203	-0.0014453534
204	0xbbe1ab9f	-0.006886914
205	0x3c3ba3fc	0.011452671
206	0x3ccb1a66	0.024792861
207	0x3ce17909	0.027523534
208	0x3be0ed4a	0.0068642246
209	0xbc6c1879	-0.014410132
210	0xbb7827cb	-0.0037865515
211	0xbbc6693a	-0.0060550245
212	0xbc27e70c	-0.010247957
213	0x3af2cf4c	0.0018524914
214	0xb9ba7bce	-0.00035568926
215	0xbcbc3a22	-0.022976939
216	0x3b3ec7c4	0.0029110769
217	0x3c1d8f5e	0.009616701
218	0x3c81ad41	0.015829684
219	0x3b93645f	0.004498049
220	0x3c815802	0.015789036
221	0x3c3d6e6e	0.011561973
222	0x3c1cf65e	0.009580223
223	0xbc5db6de	-0.0135323685
224	0x3bfd2988	0.007725898
225	0xbcf99f48	-0.030471459
226	0x3c235375	0.009968628
227	0xbc01dadf	-0.007925718
228	0xbcb34e82	-0.021888021
229	0x3c25526e	0.010090454
230	0xbd26ab20	-0.04069054
231	0x3c9811b7	0.018563135
232	0xbccbdfac	-0.024886928
233	0xbb740de4	-0.0037239725
234	0xbc1f5293	-0.009724277
235	0x3cd9066b	0.026492318
236	0xbca52785	-0.020160446
237	0xbcfd6f09	-0.030936735
238	0x3d0033b4	0.031299308
239	0xbc11f1ca	-0.008907745
240	0xbb5e7c85	-0.003394873
241	0xbc5e4fe7	-0.013568855
242	0xbc1eeb4b	-0.009699653
243	0x3c542549	0.012948343
244	0x3c3f8262	0.0116888005
245	0xb8a1b01b	-7.7098804e-05
246	0x3a9ea9e6	0.0012105077
247	0xbc94a4d4	-0.018145002
248	0xbb70294f	-0.0036645716
249	0xbd0d282f	-0.03446215
250	0xbcfddadc	-0.03098815
251	0x3b61f5b8	0.0034478735
252	0xbc5bd0d9	-0.013416492
253	0xbc724c08	-0.014788635
254	0x3caf4488	0.021394983
255	0xbcc4c1c8	-0.024018183

Const_7 f4 [32]
0	0x3d345240	0.044023752
1	0x3e7b1a56	0.24521765
2	0x3e9359a7	0.28779337
3	0xbc1879b8	-0.009306364
4	0xbc3c4cc5	-0.011492913
5	0xbb5185e8	-0.0031970683
6	0xbbaf359a	-0.005346966
7	0x3d4cf19b	0.0500351
8	0x3e8408a8	0.25787854
9	0x3dd8aaf9	0.105794854
10	0x3d01da23	0.031702172
11	0xbc1ae394	-0.009453673
12	0xbc8c00fc	-0.017090313
13	0x3d5d4237	0.054018226
14	0x3dc7b98c	0.09752187
15	0x3ca53472	0.02016661
16	0x3bb2eda3	0.0054604574
17	0xbc73b256	-0.014874062
18	0x3e78d8b3	0.24301414
19	0x3e899493	0.26871166
20	0xbccd4d23	-0.025061196
21	0x3da7cd16	0.08193414
22	0x3e713519	0.23555411
23	0x3e930f85	0.28722778
24	0x3e7398de	0.23788783
25	0x3cc335b8	0.023829326
26	0x3e7bcb20	0.24589205
27	0x3daf2c82	0.08553411
28	0x3cad37a9	0.021144705
29	0x3c51921a	0.012791181
30	0x3e86f981	0.2636223
31	0x3e8d11f9	0.27552775

Const_6 f4 [32]
0	0x3f86f6df	1.0544089
1	0x3f9de883	1.2336582
2	0x3fab265f	1.3371085
3	0x3f7df715	0.9920514
4	0x3f79fc50	0.97650623
5	0x3f7f4037	0.9970736
6	0x3f7ec1c3	0.99514407
7	0x3f877bd0	1.058466
8	0x3fa33ccd	1.275293
9	0x3f8ea991	1.1145498
10	0x3f863e7f	1.0487822
11	0x3f7ed33f	0.99541086
12	0x3f7e4c56	0.9933523
13	0x3f88d32e	1.0689447
14	0x3f8b36f6	1.0876148
15	0x3f82c9c2	1.0217822
16	0x3f804f35	1.0024172
17	0x3f780677	0.96884865
18	0x3f9dbd84	1.232346
19	0x3fa672a9	1.3003742
20	0x3f7a8cd4	0.97871137
21	0x3f8b833e	1.0899427
22	0x3f9a317b	1.204635
23	0x3fabbdc4	1.3417287
24	0x3f9bcf2c	1.2172599
25	0x3f839f85	1.0283056
26	0x3f9da4c5	1.2315909
27	0x3f90edc3	1.1322559
28	0x3f81b380	1.0132904
29	0x3f83b387	1.0289162
30	0x3fa3745b	1.2769884
31	0x3fa81505	1.3131415

Const_5 f4 [32]
0	0xbc183353	-0.00928958
1	0xbdd49fa4	-0.103820115
2	0x3d16bbb9	0.03680012
3	0xbe2a9f05	-0.16662224
4	0x3ddea7ac	0.108718246
5	0x3c9eac39	0.019369232
6	0x3df465bb	0.11933466
7	0xbd407f6e	-0.046996526
8	0xbdfc7815	-0.12327591
9	0xbde1c7af	-0.11024415
10	0xbba5aa3d	-0.0050556944
11	0xbd98bc76	-0.07457821
12	0xbd643935	-0.05571862
13	0x3db8b062	0.09018017
14	0xbdbbed49	-0.09176118
15	0x3da3b814	0.079940945
16	0xbdc0f59d	-0.09421847
17	0xbe3324c9	-0.17494501
18	0xbcad8355	-0.021180788
19	0x3e309d18	0.17247427
20	0xbd3206a7	-0.043463375
21	0x3dfcac07	0.12337499
22	0x3dc67b17	0.09691446
23	0x3dddcb56	0.10829799
24	0x3d7d08d2	0.06177599
25	0xbc6106b0	-0.013734505
26	0x3c9029de	0.017598089
27	0xbd9a0471	-0.075203784
28	0x3df551b9	0.11978478
29	0xbcfba122	-0.030716483
30	0xbd0c1325	-0.034197945
31	0xbe29f852	-0.16598633

Const_3 f4 [32]
0	0x3c55c95c	0.013048496
1	0xbbfa62b2	-0.00764116
2	0xbbd86074	-0.006603295
3	0x3bcb57d3	0.006205538
4	0xbc80bf22	-0.01571614
5	0x3c8d3067	0.017234994
6	0xbb7f4025	-0.0038948145
7	0x3c140c22	0.009036096
8	0xbabb8451	-0.0014306401
9	0xb9b490c2	-0.00034440128
10	0xbb61c0eb	-0.0034447263
11	0x3b936554	0.0044981632
12	0x3d293dea	0.04131881
13	0x3806d341	3.2144835e-05
14	0x3c3e48d6	0.011614045
15	0xbcc4c979	-0.02402185
16	0x3ad0b028	0.0015921639
17	0x3d4a1b37	0.04934236
18	0x3cedd7f1	0.029033633
19	0x3c90004c	0.017578267
20	0xbb9b97c7	-0.004748318
21	0xbc07f323	-0.008297714
22	0xbc4ba146	-0.012428587
23	0x3c1fcdf9	0.009753698
24	0xbc6f30d1	-0.014599041
25	0xbc4c1864	-0.012456987
26	0xbc84b52b	-0.016199669
27	0xbb03dc12	-0.0020120186
28	0x3b80548b	0.0039163283
29	0xbc4e5c69	-0.0125952745
30	0x3c0e5e45	0.008689468
31	0x3bffe68f	0.007809467

Const_2 f4 [32]
0	0x3f70a373	0.93999404
1	0x3f7ddadc	0.9916208
2	0x3f7ed179	0.9953838
3	0x3f8395a3	1.028004
4	0x3f766dc2	0.9626123
5	0x3f7c7273	0.98612136
6	0x3f7cff6a	0.9882723
7	0x3f80830b	1.0039991
8	0x3f7ddd9a	0.9916626
9	0x3f75ebee	0.96063125
10	0x3f7ee5ab	0.99569196
11	0x3f821c3a	1.0164864
12	0x3f7f3527	0.9969048
13	0x3f7bf307	0.98417705
14	0x3f829101	1.0200502
15	0x3f7842d9	0.96977
16	0x3f7d5821	0.989626
17	0x3f7f7679	0.9979015
18	0x3f785f98	0.97020864
19	0x3f84986c	1.0359015
20	0x3f7bcf9c	0.9836366
21	0x3f7d5d3e	0.989704
22	0x3f7ef449	0.995915
23	0x3f80c282	1.0059359
24	0x3f7e2801	0.9927979
25	0x3f7c0442	0.98443997
26	0x3f7e746a	0.99396384
27	0x3f7b4216	0.98147714
28	0x3f739d99	0.9516235
29	0x3f7bb4ef	0.9832296
30	0x3f834f87	1.0258645
31	0x3f81f680	1.0153351

Const_1 f4 [32]
0	0x3cccb4e6	0.024988603
1	0xbcc3430c	-0.023835681
2	0x3a672479	0.00088173855
3	0xbb49be34	-0.0030783536
4	0x3c7bd696	0.0153709855
5	0xba6261d5	-0.0008635794
6	0xbca769eb	-0.020436248
7	0xbbfa7b67	-0.0076441052
8	0xbc6919ef	-0.014227374
9	0x3b394e26	0.002827534
10	0x3ca1a76f	0.019733159
11	0xbc20f836	-0.009824803
12	0x3b78c4b2	0.0037959036
13	0xbcdc4ee9	-0.026893096
14	0x3c3d7e73	0.011565792
15	0xbcae792b	-0.021298012
16	0x3cc315e9	0.023814159
17	0x3c7e3e5a	0.015517795
18	0xbc0936b7	-0.008374861
19	0x3cf1456c	0.029452048
20	0xbc8a848d	-0.016908908
21	0x3c84ae3b	0.01619636
22	0x3c92f534	0.017939188
23	0xbb9959e9	-0.0046799076
24	0xbba94d5c	-0.0051666927
25	0xbc6c9cc9	-0.014441677
26	0xbbaaa8c5	-0.005208107
27	0x3c01ac51	0.007914619
28	0x3c5a02ed	0.013306362
29	0xbc766bab	-0.0150403185
30	0x3c8a2fa7	0.016868426
31	0x3c5f1a33	0.013617086
