en/marvin/marvin_v1.onnx (onnx, 208134 bytes, 9 tensors)

model/tf.math.add_1/Add/y f4 [32]
0	0x3dc28a77	0.09499066
1	0x3d526658	0.051367134
2	0xbd5ed41c	-0.054401502
3	0x3d454363	0.048159968
4	0xbe519c48	-0.20469773
5	0x3cbb2b9a	0.02284794
6	0x3d0b0795	0.033942778
7	0xbd58082a	-0.05274216
8	0xbd735504	-0.05940725
9	0x3e5cb1f8	0.21552265
10	0x3d822955	0.0635554
11	0xbe08250a	-0.1329538
12	0xbd8dc799	-0.06922836
13	0x3b574012	0.0032844585
14	0x3dded861	0.10881115
15	0x3d9eff7a	0.07763572
16	0xbd923091	-0.071381696
17	0x3df06312	0.11737646
18	0x3cd99d00	0.026564121
19	0xbe58a180	-0.21155357
20	0xbe56493a	-0.20926371
21	0x3c9048ce	0.017612841
22	0x3e0f3f7d	0.13989063
23	0xbe26e671	-0.16298844
24	0x3e254cc7	0.1614257
25	0x3e17dc76	0.14830193
26	0xbd90efa6	-0.07076959
27	0x3c83dd6a	0.01609679
28	0xbdad1f66	-0.084532544
29	0x3e0f3a75	0.13987143
30	0xbe4182aa	-0.188975
31	0x3c46b458	0.012127958

model/tf.math.add/Add/y f4 [32]
0	0x3d55b15b	0.052171092
1	0xbc0749fe	-0.008257387
2	0xbc614831	-0.013750122
3	0x3d8e31ea	0.06943114
4	0xbbc7e1da	-0.0060999217
5	0x3c6f2047	0.014595098
6	0xbae7e127	-0.0017691002
7	0x3ce8cdc7	0.028418435
8	0xb94c338d	-0.0001947416
9	0xbcc1459a	-0.023592759
10	0x3c964439	0.018343078
11	0xbc526df4	-0.012843598
12	0xbcb1d0a4	-0.021705933
13	0x3d867782	0.06565763
14	0x3d8673da	0.06565066
15	0x3d7c9643	0.06166674
16	0xbced6097	-0.028976722
17	0xbb671ef0	-0.0035266243
18	0x3b9f0e08	0.0048539676
19	0xbbaf983b	-0.0053587235
20	0xbc4d5a21	-0.012533695
21	0x3da8f415	0.0824968
22	0x3d9b8f34	0.07595673
23	0x3d44ea6e	0.048075132
24	0x3bcb6b7b	0.006207881
25	0x3b2cb8b0	0.00263552
26	0x3d93903d	0.07205246
27	0x3d868a04	0.06569293
28	0xbbf526e4	-0.0074814428
29	0x3d061a2f	0.032739814
30	0xbc4356bc	-0.011922535
31	0xbb9f4493	-0.0048604696

model/layer_normalization_1/batchnorm/mul/ReadVariableOp/resource f4 [32]
0	0x3f892d33	1.0716919
1	0x3f95f45e	1.17152
2	0x3f964482	1.1739657
3	0x3f96244b	1.1729826
4	0x3fa0a773	1.2551101
5	0x3f9dcffa	1.2329094
6	0x3fa2331a	1.2671845
7	0x3f76eda1	0.9645634
8	0x3f857c95	1.0428644
9	0x3fb4e15a	1.4131272
10	0x3facb7e0	1.3493614
11	0x3fa9fbff	1.3280028
12	0x3f8a512c	1.0806022
13	0x3fa3c7f7	1.27954
14	0x3f9c392c	1.2204947
15	0x3f9f318b	1.2436994
16	0x3f8ba2fb	1.0909113
17	0x3fa22d0a	1.2669995
18	0x3fa814cd	1.3131348
19	0x3f9dd4dc	1.2330585
20	0x3f96b29d	1.1773258
21	0x3fa79e24	1.3095136
22	0x3fafa37e	1.3721769
23	0x3f9d5fcb	1.2294859
24	0x3f9e543f	1.236946
25	0x3f9d5ef8	1.2294607
26	0x3f9d9cc1	1.2313462
27	0x3fb2c5fa	1.3966668
28	0x3fa3af8b	1.2787946
29	0x3fa3f4a6	1.2809036
30	0x3f9d7fbd	1.2304608
31	0x3f993c4e	1.1971529

model/layer_normalization_1/batchnorm/ReadVariableOp/resource f4 [32]
0	0x3e55b46a	0.20869604
1	0x3e7ca2e0	0.24671507
2	0x3d4e85ce	0.050420575
3	0x3dd26d41	0.10274745
4	0x3d60d7d0	0.054893315
5	0x3db83c24	0.08995846
6	0x3e10ae16	0.14128909
7	0x3de26667	0.11054688
8	0x3e43fbb1	0.19138981
9	0x3e8b4a94	0.27205336
10	0x3e78fb80	0.2431469
11	0x3dc27e43	0.09496739
12	0x3e11914a	0.1421558
13	0x3bc694a4	0.0060602
14	0x3cfa3b43	0.030545836
15	0x3d969df6	0.073543474
16	0x3e6657d1	0.22494437
17	0x3dc39c4d	0.095512964
18	0x3e07d1f5	0.13263686
19	0x3dc5b040	0.09652758
20	0xbd8b45a7	-0.068003945
21	0x3daa418e	0.08313285
22	0x3e7a422d	0.24439307
23	0x3dc9a96b	0.09846767
24	0x3e261ae1	0.16221191
25	0x3e7f1017	0.24908482
26	0x3d83c781	0.06434537
27	0x3e93b8c5	0.28851905
28	0x3deff3e6	0.11716442
29	0x3e13dd6c	0.14439934
30	0x3d1292b7	0.03578445
31	0x3e8352af	0.2564902

model/layer_normalization/batchnorm/mul/ReadVariableOp/resource f4 [32]
0	0x3f737b47	0.9510998
1	0x3f5da70e	0.8658303
2	0x3f7bd09a	0.98365176
3	0x3f803fdf	1.0019492
4	0x3f84d23e	1.0376661
5	0x3f8e8ef7	1.113738
6	0x3f714f6f	0.9426183
7	0x3f80be92	1.0058157
8	0x3f865486	1.0494545
9	0x3f82e304	1.022553
10	0x3f80234f	1.0010775
11	0x3f73e51d	0.95271474
12	0x3f88983b	1.0671457
13	0x3f82d1da	1.0220292
14	0x3f834212	1.0254538
15	0x3fa14656	1.259959
16	0x3f7f3386	0.99687994
17	0x3f91db1a	1.139499
18	0x3f69aa26	0.9127525
19	0x3f63d969	0.89003617
20	0x3f8bb77d	1.0915371
21	0x3f9f5cf5	1.2450243
22	0x3fbc3912	1.4704916
23	0x3f8704f1	1.0548383
24	0x3f775f91	0.966302
25	0x3f86732d	1.0503899
26	0x3fa0f781	1.2575532
27	0x3f931810	1.1491718
28	0x3f89d0a3	1.0766796
29	0x3f7350ed	0.9504536
30	0x3f625977	0.8841776
31	0x3f8447ac	1.0334373

model/layer_normalization/batchnorm/ReadVariableOp/resource f4 [32]
0	0x3d30fdf0	0.043210924
1	0xbddbd532	-0.10734023
2	0xbd12a13d	-0.0357983
3	0x3d41b2f6	0.04728981
4	0x3b1a4dae	0.0023544836
5	0x3ce2363d	0.027613753
6	0xbd8f2d72	-0.0699109
7	0xbccf5fce	-0.025314238
8	0xbc966c4e	-0.01836219
9	0x3bc0d4f2	0.00588476
10	0xbce55d3b	-0.027998557
11	0xbc878af3	-0.016545748
12	0x3b9820e5	0.004642593
13	0x3da1c02e	0.078979835
14	0x3d6e6dcc	0.05821018
15	0x3d7c0255	0.06152566
16	0xbc8805f4	-0.016604401
17	0xbc5c219b	-0.013435747
18	0xbd1c4d4c	-0.038159654
19	0xbd07a542	-0.033116587
20	0xbd008d72	-0.031384893
21	0x3d56f721	0.052481774
22	0x3d858fb2	0.06521548
23	0x3d12e64d	0.035864163
24	0xbd8a27bc	-0.0674586
25	0xbd9a0020	-0.07519555
26	0x3d278fb5	0.040908534
27	0x3d807213	0.06271758
28	0xbbe8a31b	-0.007099522
29	0xbd5cd9df	-0.053918716
30	0xbdbc084b	-0.09181269
31	0xbd35c8ad	-0.044380832

const_fold_opt__25 f4 [32, 32]
0	0x3d87d859	0.06633062
1	0x3d40d7ed	0.047080923
2	0x3e020181	0.12695886
3	0x3d2cedb2	0.04221887
4	0xbd96d007	-0.07363897
5	0x3d889450	0.06668913
6	0x3ddd0aae	0.107930526
7	0xbd261307	-0.04054549
8	0x3e18e33c	0.14930433
9	0x3e1638d8	0.14670122
10	0x3d7b67dc	0.061378345
11	0x3d37782d	0.044792343
12	0x3d284238	0.041078776
13	0xbd766adf	-0.060160514
14	0x3baa48a8	0.0051966496
15	0xbd989cdb	-0.07451793
16	0xbd94dec1	-0.072690494
17	0x3c0fb35d	0.008770791
18	0xbce5260d	-0.027972246
19	0x3e04091f	0.12894104
20	0x3e22b7df	0.15890454
21	0x3d68d108	0.056839973
22	0x3dbf260a	0.09333427
23	0xbcfe8c55	-0.031072775
24	0xbd9ae55e	-0.075632796
25	0x3dcd9335	0.10037843
26	0x3e097fe9	0.134277
27	0xbb8520b9	-0.0040627387
28	0x3dadd82e	0.08488499
29	0x3d44ce89	0.04804853
30	0xbe2296ec	-0.15877885
31	0x3dfcde1e	0.12347053
32	0xbd5846ba	-0.052801825
33	0xbd8ddf40	-0.06927347
34	0x3de5111c	0.11184904
35	0x3d88c15b	0.06677505
36	0x3c974066	0.018463325
37	0x3cfa3738	0.030543908
38	0x3dcc9235	0.09988824
39	0x3d0f97a6	0.035056733
40	0x3d66acc0	0.05631709
41	0x3c50cd67	0.012744284
42	0x3bc308ac	0.0059519615
43	0xbd32d264	-0.043657675
44	0xbde55a32	-0.11198844
45	0x3e54efa3	0.20794539
46	0xbcfdcc5d	-0.030981237
47	0x3e42f947	0.19040404
48	0x3cdefb80	0.027219534
49	0x3e20a4d4	0.15687877
50	0x3d03d3d9	0.032184456
51	0x3e00f5e8	0.12593806
52	0x3d2bddd7	0.04195961
53	0x3d19bf0d	0.037535716
54	0x3da89252	0.082310334
55	0x3d9385fc	0.0720329
56	0xbd16851c	-0.036748037
57	0x3dd237ff	0.10264587
58	0x3dbdc6d1	0.09266437
59	0x3e2cde47	0.16881667
60	0x3da0005f	0.07812571
61	0x3d8061bd	0.06268642
62	0x3e3a4c43	0.18193154
63	0xbd637793	-0.055533957
64	0xbdd1a968	-0.1023739
65	0xbdbd57dd	-0.09245274
66	0x3e2cc2c9	0.1687118
67	0x3dd2b013	0.1028749
68	0x3e83340c	0.25625646
69	0x3ccd4b13	0.025060212
70	0x3e08da46	0.13364515
71	0x3dd42166	0.10357933
72	0xbe2e31dc	-0.17011207
73	0x3d1413ca	0.036151685
74	0xbd2b91ae	-0.041886978
75	0x3e146697	0.1449226
76	0x3d8a6dd2	0.06759228
77	0x3e312344	0.17298609
78	0x3e1f0187	0.15527926
79	0x3e1c210b	0.1524698
80	0x3e1d02e6	0.15333137
81	0x3e80c3dc	0.2514943
82	0x3e22f36c	0.1591317
83	0x3e8230cf	0.25427863
84	0x3d7f9d35	0.062405784
85	0x3e5ca0e7	0.21545754
86	0x3cb4c681	0.02206731
87	0x3e2e562e	0.17025062
88	0x3e68b378	0.22724712
89	0xbd78b81a	-0.060722448
90	0x3bd07f2a	0.0063628154
91	0x3d294c23	0.041332375
92	0x3e2808c5	0.16409595
93	0x3dab8074	0.0837411
94	0x3dfc1e79	0.123105
95	0xbb90b81a	-0.004416478
96	0xbc54e856	-0.012994846
97	0x3e398fb9	0.18121232
98	0x3da07635	0.07835046
99	0xbc8dca2d	-0.017308319
100	0x3d580292	0.052736826
101	0xbe0acded	-0.13555117
102	0xbd9d60d6	-0.076844856
103	0x3d8cf3cb	0.06882437
104	0x3cb1dfff	0.021713255
105	0x3ba5c4cb	0.00505886
106	0x3e30e178	0.1727351
107	0x3c3bf8c9	0.011472889
108	0x3d4f919d	0.050675977
109	0xba82be93	-0.0009975008
110	0x3e174cea	0.14775434
111	0xbd201a72	-0.03908772
112	0x3e2c6f21	0.16839267
113	0x3c5267c3	0.0128421215
114	0xbd946c60	-0.072472334
115	0x3e0e1985	0.13876922
116	0xbdf9d389	-0.1219855
117	0x3e03b51d	0.12862058
118	0x3da9bd7c	0.082880944
119	0xbd4d2e09	-0.05009273
120	0x3db79f57	0.089659385
121	0x3e41b32f	0.1891601
122	0xbca27fff	-0.019836424
123	0x3def6225	0.116886415
124	0xbd9d6e84	-0.07687095
125	0x3b817b6a	0.0039514797
126	0xbe4e72bb	-0.20160954
127	0x3d93ab23	0.07210376
128	0x3cdf54ee	0.027262177
129	0x3c0a4452	0.00843914
130	0xbdcb5623	-0.09928539
131	0x3de70aca	0.11281355
132	0x3d2abfba	0.04168675
133	0x3e46bb6b	0.19407432
134	0x3d2eed49	0.04270676
135	0xbd415bd7	-0.047206726
136	0xbc6013a8	-0.013676561
137	0xbd8820e2	-0.06646897
138	0xbe6c3ce3	-0.23070101
139	0x3e0ed759	0.13949336
140	0x3d7d4467	0.06183281
141	0xbc329625	-0.010900055
142	0x3dfe65f4	0.1242179
143	0x3cf163d8	0.029466555
144	0xbce231a8	-0.027611569
145	0x3dc6c503	0.09705546
146	0x3cee9ece	0.029128458
147	0x3e22ba0f	0.15891288
148	0x3dc14ecd	0.09438858
149	0x3e7faab2	0.24967459
150	0xbde8405f	-0.11340403
151	0x3d0c17c6	0.03420236
152	0x3e858c55	0.26083627
153	0xbe1e73f5	-0.15473922
154	0xbd33dcb5	-0.043911655
155	0xbdebec9c	-0.11519739
156	0x3e67e9d1	0.22647788
157	0xbdeb1dc8	-0.1148029
158	0xbe105072	-0.14093187
159	0xb8674563	-5.5139313e-05
160	0xbe4aec44	-0.1981669
161	0xbe517b1b	-0.20457117
162	0x3e8524b1	0.26004556
163	0x3e8efd5b	0.2792767
164	0x3e75e4f0	0.24013114
165	0x3db0e489	0.086373396
166	0x3e9b6c83	0.30356225
167	0xbc3c49b7	-0.011492184
168	0xbe641678	-0.22274196
169	0xbe2a7395	-0.16645654
170	0xbe27f10f	-0.1640055
171	0x3e778ac3	0.24174027
172	0x3dd813a7	0.105506234
173	0x3d48a6d8	0.04898724
174	0x3e464420	0.19361925
175	0x3e72aca2	0.23698667
176	0x3e102f43	0.14080529
177	0x3ea03b0b	0.31295046
178	0x3e0d9ef2	0.13830164
179	0x3e0a958b	0.13533609
180	0x3d1e8c78	0.03870818
181	0x3e1c0e97	0.1523994
182	0xbd92c575	-0.07166568
183	0x3ea2b22d	0.31776562
184	0x3ea49447	0.32144377
185	0xbe29013b	-0.16504376
186	0x3e11f054	0.14251834
187	0xbc0e41c6	-0.008682674
188	0x3e10ea3f	0.14151858
189	0xbd9cbc97	-0.07653158
190	0x3e1cf1e4	0.15326649
191	0xbe37ca3d	-0.17948242
192	0xbe0a5741	-0.13509847
193	0x3c8d9853	0.017284548
194	0x3dc921d6	0.09820907
195	0x3e483d5b	0.19554655
196	0x3e2ac27e	0.16675755
197	0x3dcc8d95	0.09987942
198	0x3d8a0410	0.06739056
199	0x3df7628b	0.120793425
200	0xbe1aa76a	-0.15102926
201	0xbe000e68	-0.12505496
202	0x3d70b9b0	0.058770835
203	0x3aef6d58	0.001826684
204	0x3d2128fc	0.039345726
205	0x3d1d2e12	0.038374014
206	0x3dd089c1	0.101825245
207	0x3e5aac1d	0.21354719
208	0x3bfab0db	0.0076504773
209	0x3e55238e	0.20814344
210	0x3e4b8ee3	0.19878726
211	0x3e47e3af	0.19520448
212	0x3d93d2ed	0.07217965
213	0x3decbb43	0.11559155
214	0xbe05a4de	-0.13051173
215	0x3d8b3094	0.06796375
216	0x3d980f6a	0.07424815
217	0xbe29fd26	-0.16600475
218	0xbda1f961	-0.079088934
219	0x3c0d9e45	0.008643691
220	0x3e1ebd64	0.15501934
221	0xbae656da	-0.0017573491
222	0x3e90a241	0.2824879
223	0x3cda354d	0.026636744
224	0xbc9d3dab	-0.019194445
225	0xbe1f7c33	-0.15574722
226	0x3e30ec54	0.17277652
227	0x3de0754a	0.10959871
228	0x3e1a7140	0.15082264
229	0x3e3b5d22	0.18297246
230	0x3e4d6239	0.20057
231	0x3cb43b5b	0.02200096
232	0xbd8061b0	-0.062686324
233	0xbcdfe14f	-0.027329115
234	0xbe286ccf	-0.16447757
235	0x3e5b1f72	0.21398714
236	0x3d339732	0.043845363
237	0x3e6c62d8	0.23084581
238	0x3b885e54	0.0041616354
239	0x3ded4b06	0.11586575
240	0x3bdb9f7a	0.0067023607
241	0x3dfec2b7	0.12439483
242	0x3d81c22a	0.06335862
243	0x3e0c1881	0.13681222
244	0x3e0a2c69	0.13493504
245	0x3e39eb46	0.18156156
246	0xbddede40	-0.108822346
247	0x3e13f1b3	0.1444767
248	0x3e21f61d	0.15816541
249	0xbe184f37	-0.14873968
250	0x3e25e402	0.1620026
251	0xbd8d9379	-0.06912894
252	0x3d1d4e63	0.038404834
253	0xbd8cb81b	-0.06871053
254	0x3e90d4cd	0.28287354
255	0xbe41c076	-0.18921074

const_fold_opt__23 f4 [32, 1]
0	0xbe72fde8	-0.2372967
1	0xbeb17150	-0.34656763
2	0x3e9b4c68	0.3033173
3	0x3e8e0ecb	0.2774566
4	0x3e715ec7	0.23571311
5	0x3e75b907	0.23996364
6	0x3ecbcd93	0.39805278
7	0x3decdeaf	0.11565911
8	0xbddb47ad	-0.107070304
9	0xbf0594c3	-0.5218012
10	0xbf005528	-0.5012994
11	0x3ecfb7ca	0.40569907
12	0x3dfd2d42	0.12362148
13	0x3ead0dbb	0.33799538
14	0x3ec0d5d9	0.37663153
15	0x3e9c66a7	0.30547068
16	0x3dfa929d	0.122349955
17	0x3eb00ac3	0.3438321
18	0x3e8e6ab2	0.27815777
19	0x3ecb84d0	0.39749765
20	0x3e8f1210	0.27943468
21	0x3e97b745	0.2963201
22	0xbf026f80	-0.50951385
23	0x3eab0f10	0.3340993
24	0x3eb37493	0.35049877
25	0xbebebdec	-0.37254274
26	0x3e6c2c87	0.23063861
27	0xbed9518b	-0.42445025
28	0x3e92aa6a	0.2864564
29	0x3e8f1580	0.2794609
30	0x3ea8b36b	0.32949385
31	0xbe7c3152	-0.24628189

const_fold_opt__22 f4 [1536, 32]
0	0x3dddea89	0.1083575
1	0xbcb4f01f	-0.022087155
2	0xbcd985f9	-0.026553141
3	0x3d21d90c	0.039513633
4	0x3d81dc42	0.06340839
5	0xbce6a003	-0.028152471
6	0xbd1c2151	-0.03811771
7	0xbd5a9843	-0.053367864
8	0xbd84a1ca	-0.06476171
9	0xbd345d06	-0.044034027
10	0xbd67951e	-0.056538694
11	0x3c8edb8a	0.017438669
12	0xbd9afa4c	-0.075672716
13	0x3e03ec6c	0.12883157
14	0x3c214413	0.00984289
15	0xbd8cf615	-0.06882874
16	0xbc22c763	-0.009935233
17	0x3b41f781	0.0029596987
18	0xbc9157ff	-0.017742155
19	0xbd1353bb	-0.035968523
20	0xbd4c9fd6	-0.04995712
21	0x3d6ca165	0.057771105
22	0xbccec4c3	-0.025240308
23	0xbaa96c03	-0.0012925867
24	0xbd3539cc	-0.044244573
25	0xbdc2ebc7	-0.09517627
26	0xbd9b9cad	-0.07598243
27	0x3e0f8543	0.14015679
28	0xbb646ae1	-0.0034853744
29	0xbcc8331b	-0.024438431
30	0xbcf90876	-0.030399542
31	0xbdb02ced	-0.08602319
32	0x3d041b5e	0.032252662
33	0x3c94c728	0.018161371
34	0x3da8a4ed	0.08234582
35	0xbb8232ad	-0.003973326
36	0x3d9db266	0.077000424
37	0x3d8f3773	0.06992998
38	0x3d96a143	0.07354977
39	0x3d8beb9c	0.06832048
40	0x3d235781	0.039878372
41	0x3da20aa3	0.07912185
42	0x3d766245	0.06015231
43	0x3db1c2a4	0.08679703
44	0x3dea2ed6	0.114347145
45	0x3d152cae	0.036419563
46	0xbbad12fa	-0.005281803
47	0xbc69547d	-0.014241335
48	0x3b542e27	0.0032376142
49	0x3d19b943	0.037530195
50	0x3d82f663	0.06394651
51	0x3dc58445	0.09644369
52	0x3dbaf598	0.091288745
53	0xbd366e7d	-0.044538964
54	0xbcb162a8	-0.021653488
55	0x3d071035	0.03297444
56	0x3da82c50	0.08211577
57	0x3da76a98	0.08174628
58	0x3b7087d7	0.003670206
59	0x3b51ef5a	0.0032033534
60	0x3db7afaf	0.08969056
61	0x3d966076	0.07342617
62	0x3daa841e	0.083259806
63	0x3daa2ddc	0.08309528
64	0xbd8e6ffa	-0.069549516
65	0xbc8f0c41	-0.017461898
66	0x3d5cf1a9	0.053941403
67	0x3c69d2c6	0.014271444
68	0xbdbbb077	-0.091645174
69	0xbcb08c1c	-0.021551184
70	0xbc9464a5	-0.018114397
71	0x3d595aef	0.053065237
72	0x3cf9b642	0.030482415
73	0x3c64f586	0.013974553
74	0x3d1f9974	0.038964704
75	0x3d12d5bf	0.035848375
76	0x3d7b3916	0.06133374
77	0x3c1d366a	0.009595493
78	0xbc0a5722	-0.008443626
79	0x3d21c80c	0.03949742
80	0x3ca610ea	0.020271737
81	0xbd64d45d	-0.055866588
82	0x3c6585b9	0.014008933
83	0x3c865b45	0.016400943
84	0xbc060400	-0.008179665
85	0x3c6d90c5	0.014499848
86	0x3d170ed9	0.036879394
87	0x3c1833e9	0.00928972
88	0xbc3aade6	-0.011394
89	0xbc510808	-0.012758262
90	0xbd17324c	-0.0369132
91	0xbda1e78f	-0.079054944
92	0x3b4782c2	0.0030442928
93	0x3c89c10c	0.016815685
94	0x3cbd412e	0.02310237
95	0x3d752f42	0.05985952
96	0x3da6c0b0	0.08142221
97	0xbdc6fabd	-0.09715793
98	0xbc3552e3	-0.011067125
99	0xbbe563b1	-0.0070004095
100	0x3db93c26	0.090446755
101	0xbd640c66	-0.055675887
102	0xbd9afdf7	-0.07567971
103	0xbd40d7fe	-0.047080986
104	0xbcd244f8	-0.025667652
105	0xbd4d0b17	-0.050059404
106	0xbd4605d7	-0.048345413
107	0xbd6d0259	-0.057863567
108	0xbc7f9f2c	-0.015601914
109	0x3c2f0cca	0.0106842015
110	0x3dcadcc9	0.09905393
111	0xbd6601d3	-0.056154083
112	0xbd846880	-0.06465244
113	0xbe1d2692	-0.15346745
114	0xbc1cf365	-0.009579514
115	0x3b877717	0.0041340697
116	0xbc344b3d	-0.011004266
117	0x3c8943f5	0.016756037
118	0x3cf34191	0.02969435
119	0x3d6bdf11	0.05758578
120	0xbc5bcfc9	-0.013416239
121	0xbd88982b	-0.06669649
122	0xbd04a041	-0.032379393
123	0x3d07e773	0.03317971
124	0x3db8f4eb	0.090310894
125	0xbd39a11a	-0.045319654
126	0x3ca66998	0.020314023
127	0xbd4c63e3	-0.049899947
128	0xbcbc0651	-0.02295223
129	0x3d638a4c	0.055551812
130	0x3e027eb0	0.1274364
131	0xbd8418f1	-0.0645007
132	0x3dcc8496	0.09986226
133	0x3dfd022e	0.12353931
134	0x3df02641	0.11726046
135	0x3df7d356	0.12100856
136	0x3dd64330	0.10462034
137	0x3de91bf8	0.11382288
138	0x3dec8f9b	0.11550828
139	0x3d9b6dd9	0.07589311
140	0x3dbdc0d4	0.09265295
141	0xbd23bd68	-0.039975554
142	0xbde27539	-0.11057515
143	0xbd4abddb	-0.049497467
144	0x3e0d4a05	0.13797767
145	0x3dc4c017	0.09606951
146	0x3d1cb5ce	0.03825932
147	0x3db7a06a	0.089661434
148	0x3e238fcb	0.15972821
149	0xbc04c712	-0.008104103
150	0xbd034291	-0.032045905
151	0xbd721700	-0.059103966
152	0x3dc83f54	0.09777704
153	0x3dc1df44	0.09466413
154	0xbdb24403	-0.087043785
155	0xbc86fe1f	-0.016478596
156	0x3dc1a79f	0.09455799
157	0x3db0c277	0.08630841
158	0x3d8b084f	0.06788694
159	0x3ddac876	0.10682766
160	0x3d07f2de	0.0331906
161	0x3d3aee88	0.045637637
162	0x3b4bdae1	0.0031105804
163	0x3d41aec0	0.047285795
164	0x3d0c03d6	0.034183346
165	0x3cb1c9c3	0.021702653
166	0x3d2902cc	0.041262433
167	0x3ad614bd	0.0016333085
168	0xbc3422a3	-0.010994586
169	0x3c5d84b5	0.013520409
170	0x3c460e51	0.012088374
171	0x3d035651	0.03206474
172	0x3c44d842	0.0120144505
173	0x3d750694	0.059820727
174	0x3d067da6	0.03283467
175	0x3d497b9d	0.049190152
176	0x399d49ef	0.00030000458
177	0x3c8fcf60	0.017554939
178	0x3ccb3cb6	0.024809223
179	0x3d275c19	0.040859316
180	0x3ce664fb	0.028124323
181	0x3d0cfc8f	0.034420546
182	0x3d22337e	0.039599888
183	0x3d502303	0.05081464
184	0x3c0c46ee	0.008561833
185	0x3be09a42	0.0068543265
186	0x3d692826	0.056923054
187	0x3d59b07d	0.053146828
188	0x3c7632ae	0.015026731
189	0x3b9cb940	0.0047828257
190	0x3d26a983	0.040689003
191	0x3b3c9438	0.0028774869
192	0xba19d5c7	-0.0005868342
193	0x3cce1df7	0.025160773
194	0x3d1af238	0.037828654
195	0x3cc70ea9	0.024298983
196	0xbd09c370	-0.03363365
197	0x3dabaae3	0.083822034
198	0xbd00202f	-0.031280693
199	0x3cf2f33d	0.029657
200	0x3d404ddd	0.046949256
201	0x3cf3fe70	0.029784411
202	0x3d2a6df7	0.041608777
203	0x3c3add4f	0.011405303
204	0x3c998d7d	0.018744225
205	0x3c24592b	0.010031025
206	0x3d3f3b00	0.046687126
207	0x3dbc6c42	0.09200336
208	0x3d9c0750	0.07618582
209	0xbc057343	-0.008145156
210	0x3c0615c2	0.008183898
211	0x3b1051e0	0.0022021458
212	0xbd13956b	-0.036031168
213	0x3acf4372	0.0015812947
214	0x3c8ca4de	0.017168459
215	0x3d0279bf	0.031854387
216	0xbbbaa48a	-0.005695884
217	0x3d3eb6df	0.04656112
218	0x3d6c501e	0.057693593
219	0x3ccde740	0.025134683
220	0xbd8b00d8	-0.0678727
221	0xbafc0764	-0.0019228277
222	0x39733812	0.00023195174
223	0x3cef2c46	0.029195916
224	0x3d908d39	0.07058186
225	0xbbd75f40	-0.006572634
226	0xbd5e485d	-0.05426823
227	0x3d87b30e	0.06625949
228	0x3c42b421	0.011883766
229	0xbdf2eeb3	-0.118619345
230	0xbd8c07d3	-0.0683743
231	0xbd5c42fc	-0.05377482
232	0xbdf1be21	-0.11803842
233	0x3bccce60	0.0062501878
234	0xbdeb0bea	-0.11476882
235	0xbd5df52d	-0.054188896
236	0xbd1aba94	-0.03777559
237	0xbc1e22ad	-0.009651822
238	0x3d3daeb6	0.046309195
239	0xbc60bfd4	-0.01371761
240	0xbd3bf52d	-0.045888115
241	0xbd507dfd	-0.0509014
242	0xbcd6bae8	-0.02621217
243	0xbb30f5ed	-0.0027002052
244	0xbd8b624f	-0.0680586
245	0xbdb71fe2	-0.08941628
246	0xbc22d70c	-0.0099389665
247	0x3d4266a2	0.04746116
248	0xbcbc34fa	-0.02297448
249	0xbd894589	-0.06702716
250	0x3d1f7819	0.038932893
251	0x3b7177fa	0.0036845193
252	0x3d1afa6d	0.03783648
253	0xbd064958	-0.03278479
254	0xbd76f9db	-0.060296874
255	0xbdfa3069	-0.12216265
