fi/kaisa/kai_sa.tflite (tflite, 206748 bytes, 9 tensors)

Const_1 f4 [32]
00000000: 577a 3cbc 6ccf f7b9 b6b6 18bb 5979 873b
00000010: f809 8abc 832d d0bc 4396 32bc cd6b d0bc
00000020: fc27 babc 88a1 7e3b 2158 90bc 00e8 01bc
00000030: 0c3b c1bc d37c 203c 2723 c73c 1067 adbc
00000040: b5f9 9e3b 2f60 993c 3e4b 34bc 28f1 3c3b
00000050: 8f8f d33b 54e3 91bc 5885 0f3c 6570 9b3c
00000060: 72bc ccbb 4bb8 f1b8 961d 8f3b e090 d8bc
00000070: 2dd7 5d3c aafc 46bc e472 5cbc c534 f6bb
-0.0115037775 -0.00047266053 -0.0023302264 0.004134339 -0.016850457 -0.025412327 -0.010900083 -0.025442028
-0.022724144 0.0038853604 -0.017620148 -0.007928848 -0.023587726 0.009795385 0.024308754 -0.021167308
0.0048515447 0.018722622 -0.011004267 0.0028830264 0.0064563225 -0.017808594 0.008759819 0.018974492
-0.0062480504 -0.00011526103 0.0043675406 -0.02643627 0.013540071 -0.012145201 -0.013455126 -0.007513615

Const_2 f4 [32]
00000000: e5d6 7f3f b2ca 853f 4653 863f d475 7f3f
00000010: 3315 843f 5b7b 7f3f ea72 863f ad47 803f
00000020: a28d 7f3f 8193 7f3f a231 803f cae6 843f
00000030: d1a5 7f3f bf7b 7e3f fced 873f b065 7f3f
00000040: 8c54 7d3f 7515 833f 4d34 833f 7f00 803f
00000050: 70b6 823f 0d4f 7f3f 3e89 7f3f 93de 783f
00000060: 0c2c 7c3f f089 7f3f df95 7f3f 00b9 7f3f
00000070: 92d7 7f3f 938d 713f f251 823f debb 823f
0.9993728 1.0452483 1.0494163 0.99789166 1.031897 0.997976 1.0503819 1.0021874
0.9982549 0.9983445 1.0015147 1.0382931 0.9986239 0.9940757 1.0619502 0.9976454
0.98957133 1.0240923 1.0250336 1.0000151 1.0211926 0.99729997 0.9981879 0.9721462
0.9850471 0.9981985 0.9983806 0.9989166 0.9993831 0.9435665 1.0181258 1.0213583

Const_3 f4 [32]
00000000: c97f 593a 4498 623d 4585 c23c ac66 1bbc
00000010: d720 be3b 538b cabb a7f0 663d 815d 073d
00000020: 1850 cebb 62e4 c1bb 22c5 9e3b b4f3 a83c
00000030: bec7 5bba aeaa 953c 8757 8e3c 8cb8 26bc
00000040: e8e7 ee3c 14d6 563d df71 fb3c 2ee3 993c
00000050: 1e95 f63c 7f3d 6abc 1edf 03bc 9390 7f3c
00000060: cee5 413c 7543 15bc c26b 083c 213c bebb
00000070: 91e1 a4bb 8ea9 f43c 6104 523c aa08 803d
0.00082969345 0.055320993 0.023745188 -0.009484928 0.0058022547 -0.0061811595 0.056381848 0.033048157
-0.006296169 -0.005917118 0.0048452774 0.02062402 -0.0008383951 0.018269863 0.01737572 -0.010175835
0.029163316 0.052450255 0.030693946 0.018785086 0.030100401 -0.014296888 -0.008048801 0.015598434
0.011834575 -0.009110321 0.008326473 -0.005805508 -0.0050317724 0.029866006 0.012818427 0.062516525

Const_5 f4 [32]
00000000: c04e 2dbe 9e0e 093e bc40 0abd 6243 b1bc
00000010: 9e18 1e3e 077f 24be 452e ccbc 3f63 02be
00000020: 6773 053d de0a b7bd 2095 293e 9085 6e3a
00000030: 5e19 123e c0d0 17be 4095 9f3d 9461 14be
00000040: c00d 5b3d 9c95 b93d 50de 26bc 6ded 6d3d
00000050: 9e9c a4bc 9bba 583d 33a0 8b3c 80de 123d
00000060: 5e97 fc3d c744 02be 3ec6 bbba c26f a23d
00000070: b09e e23d fc07 05be ac89 bdbd 181a f0bd
-0.16924572 0.13384482 -0.03375314 -0.021638576 0.15439078 -0.16064082 -0.024924407 -0.12733172
0.03258076 -0.089376196 0.16560793 0.0009098882 0.1426749 -0.14825726 0.07792139 -0.14490348
0.05347991 0.09061739 -0.010184839 0.058087755 -0.020094212 0.052912336 0.017044162 0.035856724
0.123335585 -0.12721549 -0.0014326049 0.07931472 0.110654235 -0.12991327 -0.092547745 -0.11723727

Const_6 f4 [32]
00000000: 7633 893f b860 863f 62c7 893f 603c 7f3f
00000010: f32a 833f 0911 873f 29ae 843f 0839 853f
00000020: 2224 7d3f c95a 7e3f 005c a13f 106d 873f
00000030: e40a 833f 49a6 7f3f 7bcf 833f 7387 8f3f
00000040: 40ed 7c3f 33a1 7e3f 95e3 a33f 48f4 af3f
00000050: bb9e 7a3f 587b 7a3f 8393 8c3f f0eb a23f
00000060: 6e67 8e3f be2b af3f 4217 813f 25d2 7d3f
00000070: 2d61 8b3f 4fb4 a03f 6028 a43f b0f2 8c3f
1.071883 1.0498266 1.0763972 0.997015 1.0247482 1.0552074 1.036565 1.040803
0.9888326 0.9935728 1.2606201 1.0580158 1.0237699 0.99863106 1.0297693 1.1213211
0.98799515 0.9946472 1.2803828 1.3746424 0.97898453 0.9784446 1.0982517 1.2728252
1.1125314 1.3685224 1.0085223 0.9914878 1.0889031 1.2555026 1.2824821 1.1011562

Const_7 f4 [32]
00000000: a398 013d ec5a 403d 2aa3 383d 3938 c0bb
00000010: 94bc a13c 27be f33c 9640 ec3c cb69 6a3c
00000020: 8fae c3bc 90bf afbc 91ab 893e 2c44 c43c
00000030: 6ea9 bb3c e0f5 08ba b637 d23c 23db 9f3d
00000040: 0832 25bc 5be3 16bd 4a58 913e a613 a13e
00000050: 860f 52bc c785 cfbc 405c 1b3d 00b0 8d3e
00000060: 96cf 913d a7c5 a13e aed7 1c3b b2db 18bc
00000070: 212f 603d 8276 883e c917 903e f05a d03d
0.031639706 0.04696171 0.04507748 -0.0058660773 0.019743241 0.029753758 0.02883939 0.01430745
-0.023886947 -0.021453649 0.26888707 0.023958288 0.022907939 -0.00052246265 0.02566133 0.07805469
-0.010082729 -0.036837917 0.28387672 0.31460303 -0.012821084 -0.025332345 0.037929773 0.2767334
0.07119672 0.3159611 0.0023932266 -0.009329723 0.054732446 0.26652914 0.28143147 0.10173595

MatMul f4 [32, 1536]
00000000: 7216 d9bc 1a1a 14bc ed78 41bc 0439 4fbc
00000010: 5746 b8bb 186d c5ba b36c bcbc b738 a7bc
00000020: 2654 fb3a 393e 9fbc 5e61 573b 6c08 c9bc
00000030: db3e 6ebc 769d 15bc 47d1 40bb 09f0 183c
00000040: d371 a4bb 8139 57bc 5960 d0bc bf76 0fbc
00000050: cd07 72bc b730 d5bc 6f16 753b 272c f83b
00000060: d672 9e3c 4cb1 1f39 73f7 9ebc 646a debc
00000070: b80e 083c 8b35 583c 8e47 d43c d20f d2bb
00000080: 7f5f acbb 5f5d bc39 fa99 60bb 7a46 87bc
00000090: 3097 bc3b 8efa d23c 94de e4bc 99ad 683a
000000a0: 5f1a 31bc c2d4 19bb f224 e3bc 5463 803b
000000b0: 86d2 843c a3c7 03bc 82bf 80bc 8247 52bc
000000c0: 6fec 7aba 88fd 4c3c 437d 1dbc 768f 5a3c
000000d0: 5a0c b0bc 0c6d ea3c 0efe 483c 79f8 aa3c
000000e0: ba59 e1bc d0e5 4f3c 52c3 e73c 38bc d1bb
000000f0: 4ad2 bd3b 66c1 0b3c 12f6 ff3b ea37 d4bc
00000100: 2895 7b3c 0312 9dbc 1227 fbbb d2c2 093c
00000110: 9328 2f3c ff24 b3bc 0606 e3bc 1af6 96bc
00000120: c267 e93c 30f4 41bb aace 0a3c 8d20 76bc
00000130: 5139 8f3c 2f61 8ebc e099 5ebc 14f1 90bc
00000140: 95bb e63c 93aa f93b e0d5 79bc 7d73 cd3c
00000150: 14f5 fdba 5238 1ebd 1829 99bc fada c5bc
00000160: e66f ed3b 5531 b4bc b2ec 6c3c 54ad 32bc
00000170: 5f0e 8b3c a2cc acbb 1f19 e3bb 2b5b ca3b
00000180: 934b 22bc 0bee d13c 6888 cdba acb7 5f3c
00000190: 7b94 aa3c 0d63 803c 9793 24bc 39bc a23b
000001a0: 95f8 a9bc a4e0 9d3b 7f7e 74bb 446f 8dbc
000001b0: 3433 98bc be16 753b 0d03 a13c 274f a4ba
000001c0: 06c6 86bc cbf2 93bb c51a 4b3c 9543 89bb
000001d0: eabe 0abd 5bdd 9fbc 25d5 c4bc 4c26 5ebc
000001e0: 2436 1c3d 6ba3 40bc 82d1 ac3c 4cca 8ebc
000001f0: 580f a03c 7caa ee3b d686 3f3c 2c42 d9bb
00000200: a66f 9c3c 2062 20bc cd99 e3bc e032 cb3b
00000210: 1588 a23c c5ab ecbb 51bc 88bc 07ba d7bc
00000220: 2b6a 11bc 0b53 543c 9312 113c 71ea 123b
00000230: 8385 c9bc 551b 14bc 4c9a c33c 7554 7a3b
00000240: 75c2 013c f1ba 383d 21dc 16bb 5222 5bbc
00000250: 2171 333c 8a21 b53c ca69 77bc c8a3 32bb
00000260: 6a03 68bc 4960 30bc ed14 5bbc 52fa 8d3b
00000270: 0d39 fc3b 14a2 043c d626 c83c b53f f7bc
00000280: a180 513c 439e 4e3b 1be0 3f3c f5bf 93bc
00000290: 8881 3bbc 0023 123c 3992 5fbb 9e95 7ebc
000002a0: 7f68 633c 2b9a 6cbc a771 bfbc 91e6 7bbc
000002b0: a68f 1abc 1a5b cebb bd98 5abc 6431 8dbc
000002c0: 23da 9ebc 3cf4 15bc fcd8 c9bc ebc1 86bc
000002d0: 6bff 54bc e5d8 b9bc b791 a43c f40c 1ebc
000002e0: 1289 04bc cfc9 b4bc 3bb5 c53c 47fc bbbc
000002f0: e1dd 85bc 7a43 16bb d486 5fbc 94dc 60bc
00000300: 579e b73c c2ee 6fbb c266 9d3c 5f37 793c
00000310: 81e4 90bb 6101 acb9 bf50 823c 0638 873c
00000320: cf3f 9abc 0253 adbc 24e0 9d3c 0135 4b3b
00000330: 031f 3e3b 2dab c23c 1857 02bc fad0 c33c
00000340: f8fe 40bc bb40 63bc c7ea 233c 71f2 a8bc
00000350: 2a68 0abd f6c7 a4bc afce 82ba 52f8 75bc
00000360: 1b9f 123c 57ba a1bc 823a 863a d34a f0bc
00000370: eb90 c03c 2229 9abc 7ab3 51bb a7c9 9dbc
00000380: 191a 6f3c 3703 efbc 62f3 c8bc a905 833c
00000390: a9ab afbc 904e bbbc d614 203c d2e9 d5bc
000003a0: ec27 d33b be67 e4ba 25b2 adbc 3045 a63a
000003b0: e6fa cd3b 1542 a9ba c009 c9bb 57fd 06bb
000003c0: e161 92bc 6f8f 963c a6e8 6ebc 83a1 06bc
000003d0: 0016 ad3c 47e0 3b3c 8230 10bb af7b 983b
000003e0: 0c6d c83c 86a7 a6bc 070c f43b e96f 743c
000003f0: 3590 ec3b 2602 033c f2c1 3e3c c892 ac3b
-0.02649996 -0.009039426 -0.011808616 -0.012647871 -0.0056236195 -0.001506242 -0.02300105 -0.020412786
0.0019174858 -0.01943885 0.0032864432 -0.024540149 -0.014541353 -0.00913178 -0.0029421614 0.009334573
-0.0050184517 -0.013136269 -0.025436567 -0.008756339 -0.014772368 -0.026024206 0.0037397405 0.0075736227
0.019341867 0.0001522947 -0.019405102 -0.02715034 0.0083042905 0.013196359 0.025913026 -0.0064105773
-0.0052604075 0.0003592772 -0.0034271465 -0.016513098 0.0057553276 0.02575424 -0.027938165 0.0008875966
-0.01080951 -0.002347276 -0.027727578 0.003918091 0.016213667 -0.008043203 -0.015716318 -0.012834432
-0.00095719745 0.012511618 -0.009612384 0.013339868 -0.021490265 0.02861645 0.012267603 0.020870434
-0.027508605 0.012689069 0.028291378 -0.0064006113 0.0057928907 0.0085299965 0.0078113163 -0.025905568
0.015355386 -0.019173628 -0.0076645697 0.008408265 0.010690826 -0.021868227 -0.027712833 -0.018427897
0.028491858 -0.002959501 0.008472124 -0.015022409 0.017483385 -0.017380325 -0.013586491 -0.01769308
0.028165618 0.007619211 -0.015248746 0.025079483 -0.0019375407 -0.03862793 -0.018696353 -0.024152268
0.0072460053 -0.02199618 0.014460729 -0.010905582 0.016974626 -0.0052734176 -0.006930485 0.006175419
-0.009905714 0.025626203 -0.0015680911 0.013654631 0.020822754 0.015672231 -0.010044954 0.0049662855
-0.020748416 0.004818039 -0.0037306843 -0.01726497 -0.018579103 0.0037397589 0.019654775 -0.0012535796
-0.016451847 -0.004515027 0.012396519 -0.0041889646 -0.033873476 -0.01951473 -0.024027416 -0.013558935
0.03813757 -0.011757712 0.021095995 -0.017430447 0.019538566 0.007283507 0.011689862 -0.0066302028
0.019096207 -0.00978902 -0.027783299 0.006201133 0.01984028 -0.007222625 -0.016691359 -0.026333822
-0.00887541 0.012959252 0.008854526 0.002241757 -0.024599796 -0.00903972 0.023877285 0.0038197313
0.007919897 0.045100156 -0.002301939 -0.013374882 0.010952265 0.02211072 -0.015100906 -0.0027258266
-0.01416097 -0.010765144 -0.013371688 0.004332819 0.0076972307 0.008095283 0.02443258 -0.030181745
0.012787015 0.0031527437 0.011711146 -0.018035868 -0.011444457 0.008919477 -0.0034114255 -0.015538601
0.013879894 -0.014441053 -0.023369623 -0.0153747955 -0.0094336625 -0.0062974812 -0.01334208 -0.017235465
-0.019391125 -0.009152468 -0.024639599 -0.01644989 -0.0130003495 -0.022686431 0.020089014 -0.009646643
-0.008089321 -0.022068886 0.024134269 -0.022947444 -0.016341152 -0.0022928403 -0.013642985 -0.013724465
0.02241437 -0.0036610817 0.019214038 0.015210955 -0.004421771 -0.00032807424 0.015907643 0.016506206
-0.018829254 -0.021157745 0.019271918 0.0031006935 0.0029010184 0.023763264 -0.007955335 0.023903359
-0.011779539 -0.013870413 0.010004706 -0.020623418 -0.033790745 -0.02011488 -0.0009979809 -0.015012817
0.0089490665 -0.019742174 0.0010240825 -0.029332554 0.023506602 -0.018818442 -0.0031997846 -0.019261194
0.0145936245 -0.029176338 -0.024530116 0.01599391 -0.021444159 -0.02286461 0.009770593 -0.02611247
0.006443968 -0.0017425937 -0.02120311 0.0012685414 0.006286013 -0.0012913371 -0.0061351955 -0.002059778
-0.017868938 0.018378941 -0.014581835 -0.008217218 0.021128654 0.011467046 -0.002200157 0.004653416
0.02446606 -0.020343553 0.007447723 0.01491926 0.0072193393 0.007996118 0.01164292 0.005266521

MatMul_1 f4 [32, 32]
00000000: 37d6 093e aada 8cbd ff9a b73d ce7e 743d
00000010: c698 54be f89b c3bd d7b2 483d 691e 053e
00000020: ed15 c7bd 8a91 ee3d 51db f63d cd11 edbd
00000030: 906e cd3d 4edd 823d 80be d13d 7b27 db3d
00000040: 1c39 e03d 1d91 1ebd 9788 e9ba 99dc 393e
00000050: 8763 df3d 4104 9fbd 7d1e 17bd b8a9 323d
00000060: d667 86bd 70f0 8ebd 5261 9f3d b1e3 e5bc
00000070: e0c5 b33d 18ee 193e 612d a4bd 0d2e fbbd
00000080: 071d a83c 026c 24be b6fa 83bd f932 9a3c
00000090: b305 dcbb 6c99 e03d 5856 23be c1cb 253d
000000a0: 5826 a03d e7bb 62bd 7d28 97bd d38c 66bd
000000b0: db4b 2fbc 0bf1 1f3d a0be ad3d 9d86 133e
000000c0: b003 5d3d 8761 303d d49a 0c3e e1d1 b5bd
000000d0: d958 10be 380f 163e 0e88 d93c 31d7 21be
000000e0: 3146 6bbd 842a 0b3e c55f 03bd e60e d9bb
000000f0: 81c4 833c 0323 4fbd daab 6dbd d089 91bd
00000100: 0214 543d b08e 11be d2f7 203e 5d70 d9bb
00000110: 8b06 eabd 9827 5fbd 1388 64bd 947d ffbd
00000120: 8916 9abd 2ca3 6fbd 070c e9bc ed5e 08be
00000130: 78e4 1abe 8304 223e 86f1 debd 21dd 5b3d
00000140: e2f8 3a3e 3059 e4bc 3500 a13d 3f66 6f3d
00000150: 4dcf c3bb 0ba6 29bc 790f b53b 429a bb3c
00000160: 7d1a 1e3d d9a2 1fbe e606 f5bc 1cae e73b
00000170: d8d9 e4bd a088 053d c00a e83c 8d3b 273d
00000180: d107 893c c1db 54bd a73b a5bd c519 9ebd
00000190: bfed 70bd 9bec 19bd b763 723d 64a6 8739
000001a0: 9fc5 7a3d cd9f da3d 603a 7f3d f85a 8c3d
000001b0: e3fb 2dbe 322d 4d3d 15ba 263d 015b 1c3e
000001c0: 3174 973d aa71 ec3d 1ff9 a1bd cfdb 64bd
000001d0: ce39 0f3e c0ca 14be d547 303e 9af8 f7bd
000001e0: 3220 b7bc 245e 053e a2e2 293c ea6b 2ebc
000001f0: 5000 113e e1c7 b9bd 2000 dabd 93ac 93bc
00000200: 8390 93bd bfc1 15bd fbe4 30bd 3bcc 863d
00000210: 6e89 82bd 6365 eabc 6deb b03c c63c c83d
00000220: d11d 303e b359 1f3e c710 c33c f4f1 b73b
00000230: 5679 24be 02c9 0b3d 94dd d2bd 6eeb 333d
00000240: ff27 373d 5288 623c 7c6b 26be fe2b c53d
00000250: 5bb4 2d3d cba5 c93b 10de ecbd 09cf b83d
00000260: 234b 043d f5cd cf3d 4b86 08be 0bd7 41bd
00000270: 639e b43d b7b8 bd3d 556a b63d 1af0 f83d
00000280: 59d4 26be 1e1c 3c3c 0802 b73d 0e79 1e3e
00000290: 2e56 a2bd b0f1 4f3d 9aac 5f3d c944 1ebe
000002a0: 1e9f cd3d 0914 183d bf91 e23d 1aaf d53d
000002b0: 6d6b a73b 2332 85bd 0b78 143c c1b9 203e
000002c0: 81d2 c63d 3d6f ab3c fab5 223e 4020 07be
000002d0: dbec 25bc 3dfe d6bd 4fd7 f5bd bc68 debd
000002e0: fbe5 33bc 9aaa 1b3d 0141 5f3d 53a0 c4bc
000002f0: eb4a 983d ac40 1cbc ec26 96bc 039d b4bd
00000300: b0c4 2ebc 41a5 1bbe a361 523d 9c5a 1b3e
00000310: a4c2 733d f1a0 1bbe b5dd 65be 9923 023e
00000320: 8f10 b8bd 8fbe 093e f5c1 223e 93aa 4e3c
00000330: c5d0 f8bd 2a8f 673d 7df5 23bd 4405 f7bd
00000340: 9104 dbbd 4057 49be d443 60bd e6c1 b4b8
00000350: 635b 21bd 36ca 723c c1b9 9e3d 2649 3a3e
00000360: fa9e a7bd dab1 df3c 7be5 d9bc c830 b4bb
00000370: d380 523d 6c0b e2bd 28de 0b3d 0c0b ba3c
00000380: a68d 25be 1b10 10be 70fc 243e 44ff 953d
00000390: ec15 b6bc 2d4f a03d ed12 1ebd 5a5b dd3c
000003a0: e6a8 efbd a500 aa3d 1b21 c0bd 76d6 32be
000003b0: 376f 19be 7db7 063e 6019 f9bd 280f b2bc
000003c0: 23e5 1c3d 8de1 8dba 4626 de3d d22c 793b
000003d0: 1106 c83d acb5 8bbd e11e e73d 219f 203e
000003e0: c83d 77bd e25a 0d3e 1deb acbb d153 8cbd
000003f0: 9b98 53be 180b d8bd bccc d7bd 3215 533d
0.13460623 -0.06877644 0.0896511 0.059691243 -0.20761403 -0.09551233 0.04899868 0.12999882
-0.09720979 0.11648853 0.1205355 -0.11575661 0.10030854 0.06389867 0.10241413 0.1070089
0.10948393 -0.03871261 -0.0017817196 0.18150558 0.10907655 -0.07764483 -0.03689431 0.043618888
-0.06562774 -0.069794536 0.07782234 -0.028062673 0.08777976 0.15032232 -0.08016468 -0.12264643
0.020521654 -0.16056827 -0.06444304 0.018823134 -0.0067145466 0.10966763 -0.15950906 0.040477518
0.078198135 -0.05535498 -0.073807694 -0.056286644 -0.010699238 0.039048236 0.084836245 0.1440682
0.053958595 0.04306176 0.13730937 -0.08877922 -0.14096393 0.14654243 0.026554134 -0.15804745
-0.057439987 0.13590437 -0.032073755 -0.0066240905 0.016084911 -0.0505705 -0.05802522 -0.07106364
0.051776893 -0.14214587 0.15719536 -0.006635709 -0.11427029 -0.05448112 -0.055793833 -0.12475124
-0.075238295 -0.058505222 -0.028448118 -0.13317461 -0.15126216 0.15822034 -0.10885911 0.05367768
0.18259004 -0.02787456 0.078613676 0.05844712 -0.00597564 -0.010354529 0.005525526 0.022900704
0.03859948 -0.15589465 -0.029910516 0.007070316 -0.11174363 0.032601 0.028325438 0.040828276
0.01672736 -0.051967386 -0.080680184 -0.07719759 -0.058820482 -0.03757916 0.059177127 0.00025873177
0.061223622 0.10675011 0.06231153 0.068532884 -0.16990618 0.05009193 0.040704805 0.1526909
0.073952086 0.11545117 -0.07908844 -0.05587369 0.13986894 -0.14530468 0.17214902 -0.12107964
-0.02235422 0.13024193 0.010368975 -0.010645846 0.14160275 -0.09071327 -0.10644555 -0.018026626
-0.07205298 -0.036561724 -0.043187123 0.065819226 -0.06373869 -0.028612798 0.021596635 0.097772166
0.17198874 0.15561561 0.023811711 0.00561356 -0.16061911 0.034127243 -0.10296169 0.043925695
0.044715878 0.013826447 -0.1625194 0.096275315 0.04240833 0.0061537973 -0.115657926 0.09023864
0.03229822 0.10146705 -0.13332479 -0.04732422 0.08819272 0.09263747 0.08907 0.12155171
-0.16291942 0.011481313 0.08935934 0.15475866 -0.07926594 0.0507676 0.054607965 -0.15455927
0.10040115 0.037128482 0.11062955 0.104337886 0.0051092417 -0.065037034 0.009061824 0.1569586
0.09708119 0.020927066 0.15889731 -0.13195896 -0.0101272715 -0.10497711 -0.120039575 -0.1085982
-0.010980125 0.038004495 0.054505352 -0.02400223 0.074361645 -0.009536903 -0.018329106 -0.0881901
-0.010667011 -0.15199758 0.051362645 0.15171283 0.059511796 -0.15198113 -0.22447856 0.12708892
-0.08987533 0.13451599 0.15894301 0.01261391 -0.12149195 0.056533016 -0.040029038 -0.12061551
-0.1069423 -0.1966219 -0.054752186 -8.619185e-05 -0.039393794 0.014818719 0.077502735 0.18191966
-0.08184619 0.027306486 -0.026598683 -0.0054989792 0.051392388 -0.11037335 0.03414741 0.022710346
-0.16167316 -0.14068644 0.16111922 0.07324079 -0.02222725 0.078276016 -0.038592268 0.027021099
-0.11702137 0.08300904 -0.09381314 -0.17464623 -0.14983831 0.13155933 -0.12163043 -0.021735743
0.03830446 -0.0010824666 0.10847144 0.00380211 0.09766782 -0.068217605 0.112851866 0.15685703
-0.060361654 0.138042 -0.005277051 -0.06851924 -0.20663683 -0.10548991 -0.10537097 0.051533885

MatMul_2 f4 [1, 32]
00000000: 8d03 533e 57d1 843d c92b d23d e5fc 613d
00000010: 2ea4 093e 84c2 503e 4763 8d3d afd8 823d
00000020: cd94 e03c d642 0c3e 99fe c9be e076 593e
00000030: 1d87 423e 0f42 c53c ceb9 403e cc43 953e
00000040: 8706 053c 2195 ff3d f2bb abbe 76b6 bbbe
00000050: db92 ed3c ace8 8dbc 162a fd3d 505e b3be
00000060: b67d 2a3e ca9c b7be a404 303e 503d 333d
00000070: c5a8 713e 6b8d c6be 10e7 b9be 3429 b63d
0.20606823 0.06485241 0.102622576 0.05517282 0.13441536 0.20386702 0.06903701 0.06388985
0.027414704 0.13697371 -0.39452055 0.21236753 0.18996854 0.02407935 0.18820879 0.29153287
0.008119232 0.12479616 -0.33541828 -0.36662644 0.02900069 -0.01732286 0.12361543 -0.35032892
0.16649517 -0.35861808 0.1718927 0.043759644 0.23599537 -0.38779768 -0.363091 0.088945776
