en/hey_chewbacca/Hey_Chewbacca.onnx (onnx, 205659 bytes, 9 tensors)

const_fold_opt__23 f4 [32, 1]
00000000: 4af9 a7bd 1227 c43d 0b0e b0be 0757 c4be
00000010: 12ac 253d 64b6 693d 232c adbe 1624 e93d
00000020: d843 cd3d 6653 aebe 8a73 e33d c17f 9c3b
00000030: 6767 b6be 0b3a 973d a1e1 ca3d d941 c2be
00000040: 0881 aa3d 3309 c93d c128 7e3e 0baa c53b
00000050: cd0b 1f3e 34ec 18bd 9cce 05bd 3392 4d3e
00000060: 08a1 313e 3500 b63d 42d6 623e 751e a8be
00000070: 6c24 8abd afe6 e53d dac4 bbbe 93bf 46bb
-0.08201845 0.095777646 -0.34385714 -0.38347647 0.040447302 0.057058707 -0.33822736 0.11383836
0.10022706 -0.34048003 0.11106022 0.0047759716 -0.35625765 0.07384118 0.099063165 -0.37940863
0.08325392 0.09816208 0.24820234 0.0060322336 0.15531845 -0.037334636 -0.03266774 0.20075302
0.17346585 0.08886758 0.22152045 -0.32835737 -0.06745228 0.1122564 -0.36673623 -0.003032659

const_fold_opt__22 f4 [32, 32]
00000000: 437c a7bd 1a32 c63d 9db0 0d3e 9a6a 473e
00000010: d01c 8cbd 9b49 5b3d 9e25 aa3d 0221 143e
00000020: c525 83bd d9c9 523d 8ba2 33bd 7ed5 87bb
00000030: 4383 143e 16c9 673d 38df f43d f4b0 8b3d
00000040: 4095 103d c9b3 3dbd 5dc1 01be c643 113d
00000050: 6ed1 a6bc 1555 c4bd 965a 6c3d a7fa d5bd
00000060: c295 ee3d dafa d93d 8bf5 e93d e3c7 bb3d
00000070: b429 d3bd 18bb c03d 7ac5 bb3d aae7 5e3c
00000080: 8205 083a 1a27 753d 1b46 e93b d61d 1dbe
00000090: 9618 803d d1ce 053e 0d28 bc3d f384 d9bd
000000a0: 1a40 1fbe 6cfd 003e b651 0bbe b7b2 2d3e
000000b0: 8a3d 00be 0c17 3ebd 5f09 f8bd a3b6 2b3d
000000c0: 9806 90bd 1024 ba3c 6c04 6d3c c18e 1fbc
000000d0: 3013 333d ee0a 8ebc 4292 ef3d 402d 053e
000000e0: 6c34 3bbd d150 483c acfe da3d 9b93 f6bd
000000f0: 0437 1d3e ce07 073e d073 6c3d 3a07 04be
00000100: b033 933d fb33 ad3d 70fb b23d b252 9e3d
00000110: 4fa5 613d 65ac a9bc cd07 8bbd 8d60 7a3c
00000120: 43e0 f63d c369 3bbc bdd5 85bd c0e4 143e
00000130: c57c db3d 6900 0ebe ca82 66bd ed51 ba3d
00000140: 9f8c 823d fe61 e93d 4d8c 533e e3b2 173e
00000150: f309 37bb 71a2 8cbd ebca 75bd d04f 233d
00000160: 02c1 86bd b50a 0a3e 114c 17be 6ba8 9cbd
00000170: 2926 17be 6caa 1f3e bc62 b33c f82b 53bd
00000180: 0731 5b3c f3d7 513e 5e59 8a3c e06b f03d
00000190: 605b 0cbe d93e 103e ef5b 76bb 4e1e f53d
000001a0: 96ae bbbc 3180 933d 8cfa 83bd 6bcc 403e
000001b0: 5195 123c 118e a23d f6a9 db3d 241d 8c3b
000001c0: 61cc 8fbc 3d92 0c3e 6ab8 3d3e 5049 f0bd
000001d0: 61b7 303e e9ee 8a3b 34a6 dd3d d01e 0d3e
000001e0: e642 dabd 2055 7fbd 0238 143d bb9b ca3c
000001f0: 18dd 7cb9 d464 fc3d c3b8 0a3e 44e1 763a
00000200: ff32 883d 43e8 10bd 3faf 02be 9e58 07be
00000210: f4bc 3abe 5f8c 42bd e143 d33d abb0 80bd
00000220: 83ce 1cbe e2ff fcbd 7c49 39be bc48 9a3d
00000230: 0f2d c83d 66d5 1bbb 1ba1 84bd 3671 bf3d
00000240: ea88 8cbd dda4 ba3d e972 ec3c 7cc3 dabd
00000250: c402 aabd aa5b 0d3e af1d 1fbd 92ba 433c
00000260: 9912 cebc 272d e2bd 6ea3 c03b 8b76 c93d
00000270: c161 8eba bf04 3a3d cb4f c23d 4b32 773d
00000280: a9ac 4c3b c293 e3bd 6e11 243e e514 093e
00000290: e1b6 a73d 1bff d13c cf53 013e 2e6b 2dbe
000002a0: 9d2f e23d 4836 f03b 1f7c b73d f7d2 8abd
000002b0: d50c 4cbd f08d 89bd 2315 31be abdf a1bc
000002c0: 357d b0bc f906 22bd 21f5 2bbe ba18 f2bc
000002d0: 3183 0dbe ece3 68bd 77e4 8abd ddfd 5cbe
000002e0: ce64 2bbd 41ad e5bb 59fc 23be 47c4 ce3d
000002f0: 3c25 a9bd 4967 28be 86b5 003e a383 99bd
00000300: 30bd d33d d7ae 323e dffb 0c3e d1e8 aebb
00000310: 6912 f83d e3b8 a73c fe4b b7bd f7a9 29bd
00000320: 743b 553d 48f1 0e3d 99c5 a4bd 6113 a83c
00000330: 6abe c2bd a278 6dbc 9fd3 6a3d b474 cabd
00000340: 4907 023d c68a 20be 8deb ee3d d92a c7bc
00000350: dc88 01be 5804 873d b32e fa3d f7f4 f3bd
00000360: 24b2 2d3e ea31 663d abba 00be c705 f33d
00000370: 7d29 2c3d 338e 20be ceae b53d 4898 463d
00000380: d3ec b7bd f971 0bbe 20ca 04be d2f8 803d
00000390: ffb0 c3bd 119c 2dbe 8524 3c3e 5265 17be
000003a0: 32a7 d3bd c56d f0bd 9d1b 933d 9855 173e
000003b0: 5a59 b13d 5a8e 203c 76ba 163e 116a 9cbd
000003c0: 4366 de3d 74b3 3fbe 109b 04bd 65ed 95bd
000003d0: 6906 003e f89e 9dbc 3f36 8c3d 4026 03bd
000003e0: 28c2 11be 8918 39be d6ab a1bc a62e 213e
000003f0: d45c 2ebc 30e9 0bbe b0c4 123e 6d01 af3d
-0.08177998 0.09677525 0.13836904 0.19474259 -0.06841433 0.053536993 0.08307956 0.14465716
-0.06403688 0.05146203 -0.043856185 -0.0041453233 0.14503197 0.056588255 0.11956638 0.068208605
0.035298586 -0.046314035 -0.12671418 0.035465024 -0.020363536 -0.095865406 0.057703577 -0.10448199
0.11649658 0.10643549 0.11423787 0.09168985 -0.103106886 0.09410685 0.09168525 0.013605038
0.0005188809 0.059851743 0.007118953 -0.15343413 0.062546894 0.13067175 0.091873266 -0.10621061
-0.15551797 0.12596673 -0.13605389 0.16962706 -0.12523475 -0.046408698 -0.121111624 0.041922223
-0.07032508 0.022722274 0.014466386 -0.009738625 0.04371947 -0.017339196 0.11697818 0.13005543
-0.04570429 0.012226299 0.10693106 -0.12039872 0.15353018 0.13186571 0.057727635 -0.12893382
0.07187593 0.0845718 0.08739364 0.07730617 0.05508929 -0.020712087 -0.06788597 0.015281809
0.12054493 -0.01143879 -0.06534908 0.14540386 0.10717157 -0.13867344 -0.056277074 0.09097657
0.063744776 0.11395644 0.20658989 0.14814334 -0.0027929514 -0.06866921 -0.06000797 0.039871037
-0.06579782 0.13480647 -0.14775111 -0.07649311 -0.1476065 0.15592355 0.021897666 -0.051555604
0.013378388 0.20492534 0.016888317 0.117393255 -0.13706732 0.14086474 -0.0037591418 0.11968671
-0.022910397 0.07202185 -0.064442724 0.1882798 0.008946733 0.07937253 0.10725777 0.004275935
-0.01755351 0.1372766 0.1852738 -0.11732733 0.17257454 0.004239906 0.10822716 0.13781285
-0.10657291 -0.06233704 0.036186226 0.024732461 -0.00024114957 0.12323919 0.13547044 0.00094177225
0.06650352 -0.035377752 -0.12762164 -0.13217399 -0.18236142 -0.04749715 0.10315681 -0.06283697
-0.15313153 -0.12353493 -0.18094438 0.07533404 0.09774219 -0.0023778318 -0.06476041 0.09347765
-0.06862052 0.091134764 0.028863387 -0.10681817 -0.08301309 0.13804498 -0.038846668 0.011946337
-0.025155352 -0.110437684 0.0058788573 0.098370634 -0.0010862873 0.045414682 0.094878756 0.060350697
0.0031230843 -0.11112167 0.16022274 0.13386877 0.08189178 0.02563434 0.12629627 -0.16935417
0.11044238 0.0073306896 0.08959221 -0.067785196 -0.049816925 -0.067165256 -0.1729322 -0.019759974
-0.021544078 -0.03955743 -0.16792728 -0.029552806 -0.13819577 -0.05685799 -0.067818575 -0.21581216
-0.04184418 -0.007009179 -0.16014232 0.10096031 -0.08259055 -0.1644565 0.12569246 -0.07495811
0.10338819 0.17449509 0.13767956 -0.0053378125 0.121128865 0.020473903 -0.08950041 -0.041421857
0.052058652 0.034898072 -0.08045501 0.020517053 -0.09508975 -0.014494093 0.057330724 -0.098855406
0.03174523 -0.15677938 0.116660215 -0.024312424 -0.12649864 0.065926254 0.122159384 -0.11911958
0.16962487 0.056199946 -0.12571208 0.11866336 0.042031754 -0.15679245 0.08871232 0.04848507
-0.089807175 -0.13617696 -0.1296773 0.06297459 -0.09555244 -0.16954066 0.18373306 -0.14784744
-0.10334624 -0.11739687 0.07183001 0.14778745 0.086596206 0.009799564 0.14719567 -0.07637418
0.108593486 -0.187208 -0.03237444 -0.0732067 0.12502445 -0.019240841 0.06846284 -0.0320189
-0.14234221 -0.18075766 -0.019735258 0.15740451 -0.010642249 -0.13663173 0.14332843 0.08545194

const_fold_opt__20 f4 [1536, 32]
00000000: 3144 4fbc 2e7f b539 a3b9 f6bb 64e8 843c
00000010: 2ca9 4e3c ff89 82bc ce5b 3bbc df29 f7ba
00000020: ec45 e338 d98c 53bc 8866 f4bb 7358 ca3c
00000030: 35bb e03c 4336 9d3c 7942 3b3c 6838 8ebc
00000040: 3eca e1bc dbd5 4dbc b297 80bc 0779 db3c
00000050: e8fa 9c3b 705c 86bc ed50 9e3c 28c6 043b
00000060: fe0a babc f8ed 54bc 9317 2e3c 1a41 203d
00000070: f571 703b 4230 06bc b113 f2ba c72a c73c
00000080: 4bef bfba a4a3 d73c e388 99bc 98b5 17bc
00000090: 4e02 833c e984 b5b9 09fe 933a 016b 013c
000000a0: b014 87bc dc14 83bc db2b afbc 9007 3e3c
000000b0: 8662 4ebc 4c51 a2b8 d4cf 43bc 0a15 c6bc
000000c0: 62c1 e93a c175 863a b020 37bc 7a45 cc3c
000000d0: 17b9 e0bb bd97 06bc c3bb 8bbc dc2c 6d3a
000000e0: 7248 a23c cc91 ccbb 7474 eabb 9da9 3cbc
000000f0: 5a6a 0a3c a1e3 a33b 6163 953c d356 273c
00000100: d40a 083c ade5 b5bc 7b9d c2bc ff6d b8bc
00000110: 3e9e 853a 2d9a 6c3d 4451 05bc 86dd 0e3c
00000120: 3734 9d3c 8b32 173c 0c38 eebc b868 f1bc
00000130: 1f5c cdbc 7269 3abd faa8 41bd 71eb 9fbc
00000140: 532e 173c 322b 543c bb03 38bb d548 85bc
00000150: 29db d9bb 4cd4 b13c c1b2 f83a 1993 033d
00000160: 54da 2d3c 9171 d3bc aeab a5bb d379 2bbc
00000170: 12b5 abbc 1f8a f13b 5d46 fabb 913c cdbc
00000180: 4a9c 5fbc ca3e e93c 18c6 1c3d 58d4 213d
00000190: 4a2a 95bb be0c c2bc 3631 59bc 4a89 1a3b
000001a0: 3622 7f3c 452e b13c 6765 7ebc 562d 0c3c
000001b0: bf96 843c 3069 c43c 3fd2 053c a259 183c
000001c0: 49e1 00bc 152c acbb 2f28 d5bb 0362 1d3b
000001d0: fd56 c33c 2b33 373c f2e7 53bc 5664 88ba
000001e0: e2a5 8a3c f482 bd3b 48a2 843c 53e2 08bd
000001f0: 9a11 3d3b e942 adb8 c894 d73a 3a2c 91bc
00000200: 9161 52bc 8cde b73c e2dd 643c 9410 943c
00000210: 04de ec3b 01e9 23bd d773 063c f1e8 45bc
00000220: 4d83 483b e766 013d 8acd e53c 5e9f 243b
00000230: 5c92 a63c 8c1e 333c dd84 1f3d 710b 1f3c
00000240: c2d6 8cbc cb71 45bb 121b dabb 4867 ae3c
00000250: 01b6 923c 2124 c63a 6405 ae3c ea39 9b39
00000260: 324c 9c3b c662 493d ebb7 db3c d97c 033d
00000270: 2aba f03c 5e0f 093d f818 2c3c 51b1 c13c
00000280: 20e1 4d3c ceca 9a3a 07bf 803c 496b 71bc
00000290: e6bd c93a 5c2c 833c 5c39 883c 86aa eeb8
000002a0: 3554 b13c a5fc c03c 8604 14bc c099 33bc
000002b0: 7cd8 013c 5f60 2ebb 1d74 0e3c 02b2 aebc
000002c0: e3f7 a9bc fb55 283c 2a32 143c a8b4 78ba
000002d0: c02c 563b 21c5 b23c c445 3e3c 96ba af3c
000002e0: 82ad a2bc 0c37 cb3b 2587 20bc 175a 9bbc
000002f0: 139a b7bc 8088 033c 0bff 6cb9 0204 2c3b
00000300: 5096 d13c 05ed 95bb 45c7 693c 1241 183c
00000310: 6bba b23c d257 923c 3c99 22bc 1eba 7ebb
00000320: e775 a33b 39b5 82bc 699a 0c3c 973d 883c
00000330: 280d d8bc 08c6 c1bc a417 dbb9 f020 e13b
00000340: aa98 3a3c e9d7 9c3a 7928 e73b 6573 14ba
00000350: db43 493c 7489 babb 51ca 3dbc 610a 75bc
00000360: 5aa2 0fbc c620 8ebb 189a 4d3c 75d9 f53a
00000370: e10b 583c b525 ebbc 85b3 973c 04a9 e0bb
00000380: a186 4dbb 2387 9e3c ef37 9d3c eb6c 23bc
00000390: dcc8 833c ee74 b0bc c70e a4bb ee21 0a3b
000003a0: 6fc5 073c 7973 bd3c 3de9 233c ed81 2dbc
000003b0: 7ba6 8bbc b456 803b b1b3 84bc 2c8d 82bb
000003c0: 577f bc3c 1e26 973b 7998 40bc 7760 19bb
000003d0: 2ed3 54bc 4aef 34bc d009 993c 0759 7c3c
000003e0: 81f9 20bc e346 8d3b 7f2e 633c 9633 e4bc
000003f0: 8624 5a3c 7d2a 403c dbfd 463b ebe7 4bbc
-0.012650535 0.00034617767 -0.007529454 0.016224094 0.012613576 -0.015934942 -0.011435462 -0.0018857083
0.000108372275 -0.012911999 -0.0074585117 0.024700379 0.027433017 0.019190913 0.011429423 -0.017360881
-0.027562257 -0.012563194 -0.015697334 0.026791109 0.0047906525 -0.0164015 0.019325698 0.0020259712
-0.02271032 -0.012996189 0.010625738 0.039124586 0.0036689017 -0.0081902165 -0.0018469003 0.02431239
-0.0014643458 0.026323147 -0.01874203 -0.009259604 0.01599231 -0.00034622036 0.0011290918 0.007899047
-0.016489357 -0.016001157 -0.021383217 0.011598483 -0.012596732 -7.739905e-05 -0.011951406 -0.024179954
0.0017834122 0.0010258482 -0.011177227 0.024935473 -0.006858002 -0.008214888 -0.017057305 0.0009047517
0.019809935 -0.0062429663 -0.0071549956 -0.011515048 0.008448208 0.0050015007 0.018235864 0.010213572
0.008303363 -0.022204245 -0.023756733 -0.022513388 0.0010194255 0.05776422 -0.008137051 0.0087198075
0.019189937 0.009228359 -0.02907946 -0.02946888 -0.02506834 -0.045510717 -0.04728029 -0.019521447
0.009227353 0.012949752 -0.0028078395 -0.01627008 -0.0066484404 0.021707676 0.0018974171 0.032122705
0.0106111355 -0.025810989 -0.005055866 -0.010466057 -0.020960364 0.0073712016 -0.0076377825 -0.025053294
-0.013648102 0.028472323 0.038274854 0.039509147 -0.0045521604 -0.023687717 -0.013256362 0.0023580366
0.015572121 0.021628508 -0.015527106 0.008555731 0.016185163 0.023975939 0.008167802 0.009298714
-0.007866212 -0.0052542784 -0.0065050344 0.0024014718 0.02384519 0.011181633 -0.012933718 -0.0010405879
0.016924802 0.005783433 0.016190663 -0.033418965 0.0028849603 -8.261746e-05 0.0016447539 -0.017721284
-0.012840644 0.022444986 0.013968917 0.018074311 0.0072286148 -0.04001713 0.008206329 -0.012079463
0.003059584 0.031592276 0.02805211 0.0025119404 0.020333461 0.010932576 0.038945068 0.009707318
-0.017192248 -0.003012764 -0.006656059 0.021289483 0.017909052 0.0015116968 0.021242805 0.00029607053
0.0047698254 0.049166463 0.026821097 0.032101486 0.029385645 0.03346192 0.010504 0.023644121
0.012565881 0.0011809708 0.015716089 -0.014735051 0.0015391677 0.016012363 0.016628914 -0.00011380487
0.021646598 0.02355797 -0.009034282 -0.01096195 0.007925149 -0.0026607735 0.008694676 -0.021325115
-0.020748084 0.010274406 0.009045163 -0.0009487369 0.0032680482 0.021822514 0.011613313 0.021451276
-0.019858126 0.0062016305 -0.009797846 -0.018963857 -0.022412336 0.00802815 -0.00022601725 0.0026247506
0.02558437 -0.004575374 0.014268701 0.009292858 0.021817407 0.017864142 -0.009924229 -0.0038868259
0.0049884203 -0.015955554 0.008581736 0.01663093 -0.02637346 -0.023653999 -0.0004178855 0.0068703815
0.011388937 0.0011966202 0.0070543853 -0.0005662947 0.012284244 -0.005692655 -0.0115838805 -0.014956088
-0.008766735 -0.004337403 0.012548946 0.0018756824 0.013186426 -0.028704504 0.018518219 -0.0068560857
-0.0031360763 0.019351548 0.01919171 -0.009974699 0.016086988 -0.021540131 -0.0050066444 0.0021077353
0.008286818 0.02312635 0.010004339 -0.010590059 -0.017047158 0.003916586 -0.016198965 -0.003984114
0.02300994 0.004612698 -0.011755102 -0.0023403445 -0.012989802 -0.011043379 0.018681437 0.015402085
-0.009825111 0.004311429 0.013866066 -0.02785663 0.013314372 0.01172888 0.0030363712 -0.01244543

Const_7 f4 [32]
00000000: c3c4 aabd b896 893d 6015 853e 20ca 6f3e
00000010: a6c0 64bb 5c15 073d d509 853e eb96 eb3c
00000020: 42e0 9a3d 1c69 733e 0212 963c 55b9 04bd
00000030: ea7a 733e 8122 d63c 6c6c 663c ffda ab3e
00000040: 6f7d 7c3c 9c25 813c 554c 043d 8037 5ebb
00000050: 2fcb 573c 8b0e 253c 3b69 a73c 825d d73c
00000060: 2cd1 1d3c 394b 833c d554 cd3c 5f57 773e
00000070: b611 9bbc 9a81 533c e073 763e 7bd6 903b
-0.083383106 0.067182004 0.2599287 0.23416948 -0.0034904866 0.032979354 0.25984064 0.028758487
0.07562305 0.23770565 0.018319134 -0.03240331 0.23777357 0.0261395 0.014063936 0.33565518
0.015410765 0.015765004 0.03229936 -0.0033907592 0.013171001 0.010074268 0.02043592 0.026289705
0.00963239 0.01602708 0.025064865 0.24154423 -0.018929344 0.012909317 0.2406764 0.0044200993

Const_6 f4 [32]
00000000: f775 6a3f aea5 8d3f 6cf7 a33f 50ad 9d3f
00000010: f046 7f3f f1a3 883f de74 a43f 70c0 833f
00000020: e518 903f c5bb 9c3f 379a 843f 91b8 743f
00000030: 0896 9d3f a9bd 8b3f 672c 833f 7c2c b83f
00000040: 2f5a 853f a35b 853f f66d 8a3f 9fe8 7f3f
00000050: 8bc0 843f d6b7 803f 5084 813f 9ed7 8a3f
00000060: 046d 843f 106b 823f 6de8 863f cdcf 9c3f
00000070: e5c6 7d3f 1a15 843f 81b0 9e3f a271 803f
0.9158625 1.1066186 1.2809882 1.2318516 0.9971762 1.0675031 1.2848165 1.0293102
1.1257597 1.2244803 1.0359563 0.95594126 1.2311411 1.0917255 1.0247926 1.4388576
1.0418147 1.041859 1.0814807 0.99964327 1.037126 1.0056102 1.0118504 1.0847051
1.0345769 1.0188923 1.0539681 1.2250916 0.99131614 1.031894 1.2397615 1.0034678

Const_5 f4 [32]
00000000: c8bd 9ebd 1b34 ddbd ff26 aebd 77e0 24be
00000010: 151b ebbd af34 f7bd 511a abbc 29d5 c63d
00000020: 6cb9 2cbe 2128 ef3d 4a6c 22be c942 0ebe
00000030: c264 6ebd 9939 17be 3b02 a43d f072 cd3d
00000040: 6052 2abd f0b7 ccbd ecf2 da3c 47ed 753d
00000050: 4939 9a3d 7a4c e8bb c3db 31be 748a a33c
00000060: 93b3 503a 4aec d6bd 9c43 fc3d 1d44 6c3d
00000070: eed3 f0bd f90e 1b3e 374f b7bd 1530 88bd
-0.07751042 -0.10800954 -0.08503532 -0.16101252 -0.11479775 -0.120705955 -0.020886572 0.09708626
-0.16867608 0.11677576 -0.15861621 -0.13892664 -0.05820156 -0.14768066 0.08008238 0.10031688
-0.041582465 -0.09996021 0.026727162 0.06004074 0.075304575 -0.007089195 -0.17368989 0.01996348
0.0007961329 -0.10494287 0.12317583 0.057682145 -0.117591724 0.1514243 -0.08950656 -0.06649796

Const_3 f4 [32]
00000000: 7164 973b ed34 d43c 02ec a33c b240 a13c
00000010: d1cd 613c ba31 8b3c 7d95 d1ba 0e35 87ba
00000020: bcc3 34bc 382a 3ebc 4bae 77bc fb4d e0b9
00000030: d68f d7bb b03f dd3b 1e1e 08bd 0af1 87bc
00000040: 7914 513b 19fc a2bc a3eb 273b a4eb 163d
00000050: c7d5 cabb f96b 6fbc 2154 f03b c00f 253c
00000060: 7d5d 1e3c 8b28 0c3c d021 9ebc 3052 a0bc
00000070: e42c 0ebc 3098 ebbb f445 62bc 0995 65ba
0.004620128 0.025904143 0.020009998 0.01968417 0.013781981 0.016991485 -0.0015989986 -0.0010315494
-0.011032995 -0.011606745 -0.015117238 -0.0004278271 -0.006578426 0.006751977 -0.033231847 -0.016594429
0.0031903072 -0.0198956 0.0025622628 0.03684582 -0.006190035 -0.014613145 0.0073342477 0.010074556
0.009665844 0.008554588 -0.019303232 -0.01957044 -0.008677695 -0.007189773 -0.013810623 -0.00087578647

Const_2 f4 [32]
00000000: 97b1 783f 66f2 7b3f 5b58 773f 9639 7f3f
00000010: 2fc2 7a3f b8ed 863f 261f 743f e72a 753f
00000020: eaca 7d3f 6e5b 7e3f 1ea4 793f 08f6 773f
00000030: 38cb 7d3f 84f2 823f 32db 723f e011 7f3f
00000040: 5586 803f 36e4 7e3f c7c6 803f 35d0 783f
00000050: 306b 7e3f fe4e 7f3f fadd 813f aedf 813f
00000060: 3a26 823f e823 7d3f 77b2 773f b3a9 7a3f
00000070: 5f13 7f3f f594 7d3f 3e79 7e3f 6c38 813f
0.9714598 0.98416746 0.96619195 0.99697244 0.9795255 1.0541296 0.9536003 0.9576859
0.9913775 0.9935826 0.9751605 0.9685979 0.9913821 1.023026 0.94865716 0.9963665
1.0040995 0.9956697 1.0060662 0.971927 0.99382305 0.9972991 1.0145867 1.0146387
1.0167916 0.98882914 0.9675669 0.9791519 0.9963893 0.99055415 0.9940375 1.0095344

Const_1 f4 [32]
00000000: 6166 d1bb e004 2bbc 6cd2 bf3c 798e 56ba
00000010: c234 743c 0ec1 25bc eb19 62bb a69f afbb
00000020: 0c6a 0bbc ad23 723c af12 08bb a33c 79bc
00000030: 54d7 603c b83f 0fbc 1095 d8bc a5d1 c53c
00000040: 2886 3ebc 3873 81bc 8a4b 993c 5242 413c
00000050: 8ac3 d73b 3a23 093c a38a b1bc 3b04 793c
00000060: 7f88 983c 0f83 6f3c 092c 8d3c f361 eabc
00000070: 4bdb a73a 8206 e13b d0ff bc3c 3ccf 2dbc
-0.0063903783 -0.010438174 0.023415767 -0.0008184682 0.014905157 -0.010116829 -0.0034500312 -0.0053596077
-0.00850917 0.014779014 -0.002076309 -0.015212211 0.013723213 -0.008743219 -0.026438266 0.024147818
-0.011628665 -0.01580201 0.018712778 0.011795597 0.0065845894 0.008370215 -0.021672552 0.0151987625
0.018619774 0.014618649 0.017232912 -0.028611159 0.0012806443 0.006867231 0.0230712 -0.010608491
