hey_anna/hey_anna.tflite (tflite, 206380 bytes, 9 tensors)

Const_1 f4 [32]
00000000: 023f 503c 032b 333c 8ac9 b0bc de6c a0bc
00000010: dc67 9bba 0321 893c 73a2 34bc 9764 fdbb
00000020: 9498 a1bc 8af7 dbbc e812 d3bb 82f9 e0bb
00000030: 7008 45bc d571 b0bc 5785 c5bc b454 d5ba
00000040: 1bf3 80bc 0c33 8d3c 72a7 643c 562f 7c3c
00000050: cdbb 66bc c70e a2bc 28ea c6bc 6ec3 a13c
00000060: 3fc4 a53b dc9d af3b c452 3bbb dedf 31bc
00000070: 96db 11bc 45e3 e63c 5034 10bc 2995 acbb
0.012710335 0.010935548 -0.021580476 -0.019583162 -0.0011856514 0.016739374 -0.011025059 -0.0077329385
-0.019726075 -0.026851434 -0.006441463 -0.006865681 -0.012025937 -0.021538654 -0.024111433 -0.0016275854
-0.015740922 0.017236255 0.013955938 0.015392145 -0.014082861 -0.019782437 -0.024281576 0.019746508
0.0050587947 0.0053593945 -0.0028583268 -0.010856597 -0.008902451 0.028184542 -0.008801535 -0.0052668047

Const_2 f4 [32]
00000000: 33f2 7d3f 1858 7b3f 22bc 833f 8511 873f
00000010: 0781 823f 957b 7c3f 576c 7b3f d4f7 7e3f
00000020: 7631 7f3f b8de 7d3f f460 803f 8e01 7d3f
00000030: b750 7e3f 9994 7c3f aca1 7c3f be6d 743f
00000040: a8db 733f 1b2f 803f c4f4 7b3f 0e82 7c3f
00000050: 3bc5 7c3f 3f0a 813f 584d 7f3f b127 783f
00000060: 21c4 833f eaef 803f 2709 863f de97 7d3f
00000070: 07d4 7f3f c5cc 803f 7d7f 823f 7bbd 7c3f
0.9919769 0.98181295 1.0291789 1.0552222 1.0195626 0.9862607 0.9821219 0.99596906
0.99684846 0.99167967 1.0029588 0.988305 0.9934191 0.9866424 0.9868419 0.95479953
0.95257044 1.0014375 0.9842036 0.9863595 0.9873845 1.0081252 0.9972739 0.96935564
1.0294229 1.0073216 1.0471543 0.99059856 0.99932903 1.0062491 1.0195156 0.98726624

Const_3 f4 [32]
00000000: 7fd5 79bc 3273 f7bb 6363 043c 6bea 573d
00000010: 9513 2a39 1b05 21bc 3c41 49bc 79a8 49bc
00000020: 99a2 8fbc 28ad d9bb f470 f33b d730 9dbc
00000030: 5528 80bc d88c cebb ea20 40bc 1c34 8d3b
00000040: 2c5d 343b 4bcf ae3c 3942 d6bb d91c a13c
00000050: 2b95 98bc c6c6 293b 0460 52bc 4ff5 5f3c
00000060: b83d 1a3c ff89 353c 27f5 7b3c 0f78 6eba
00000070: 6b1f cc3a 42b8 393c 999e 773b 99d3 3cbc
-0.015248655 -0.007551574 0.008080336 0.052713793 0.00016219758 -0.009827877 -0.0122836195 -0.012308233
-0.017533587 -0.0066429563 0.0074292365 -0.019188328 -0.015644232 -0.006303411 -0.011726597 0.0043091904
0.0027521355 0.02133908 -0.006538656 0.019667076 -0.018625816 0.0025905832 -0.012840275 0.013669326
0.009414129 0.011080264 0.015378273 -0.00090968696 0.0015573328 0.011335434 0.003778374 -0.011525058

Const_5 f4 [32]
00000000: 2714 d1bd 6a89 33be 98bb 723d abbe 17be
00000010: d28c 2dbe 8867 94bd f689 073e 608b 0c3e
00000020: aa13 48bd 53f3 d0bb 7de5 903c d9cc 88bc
00000030: f73a ac3d 2fa8 c4bd 246f ddbd a89e 47bd
00000040: 0d63 4fbd 52a9 073e a1c0 04be 96db ebbd
00000050: 365d d13d 7f6f 41bb 09ee f53d 6418 eabc
00000060: c279 1b3e 18ff 84bd adce 153e 2bfa 303d
00000070: d19b 09be 2c01 c8bd 96d1 0b3e 9132 2b3e
-0.10208922 -0.17532888 0.059260935 -0.14818828 -0.1694825 -0.072463095 0.13236222 0.13725042
-0.048846878 -0.0063766628 0.017687554 -0.016699241 0.08409684 -0.09602391 -0.10812214 -0.04873529
-0.05063157 0.13248184 -0.12964107 -0.11516492 0.10222857 -0.002951592 0.12008292 -0.028576083
0.15183166 -0.06493968 0.14629622 0.04320733 -0.13438345 -0.097658485 0.1365417 0.16718508

Const_6 f4 [32]
00000000: 802f 8d3f baad 803f 68b7 7d3f 3703 b33f
00000010: 09e2 803f 43cb 743f b049 9d3f e306 a33f
00000020: e373 7e3f fdfd 883f 1dd2 803f d7e8 a93f
00000030: 2955 843f f5c0 7e3f a06d 863f c5f0 8a3f
00000040: c02b b23f c03c 803f 8d2a 893f 2d88 903f
00000050: e320 833f f6f6 7d3f 0951 983f 5f97 7a3f
00000060: 08fc 993f 14df ad3f f7db 823f 2bc5 ae3f
00000070: 6e97 a23f 7ce3 823f a19f 7e3f 70f6 813f
1.1030121 1.0053017 0.9910798 1.3985356 1.006898 0.9562265 1.2288113 1.2736477
0.9939558 1.0702511 1.0064121 1.3274182 1.0338489 0.9951318 1.0502205 1.0854727
1.3919601 1.001854 1.071611 1.1291558 1.0244411 0.9920496 1.189973 0.97887224
1.2030039 1.3583703 1.0223378 1.3653921 1.2702463 1.0225673 0.99462324 1.0153332

Const_7 f4 [32]
00000000: d66c 643d 6758 e3ba 7718 a1bc 924d a33e
00000010: 6d47 133c 85b8 55bd 798c 783e 6088 893e
00000020: 1142 1abc a049 833d b6d4 b03a d25a 953e
00000030: bc29 883c cb26 e7bb 8f12 443d ecfa 8c3d
00000040: 03e3 a23e f0b4 72bb e29d 7b3d e521 b23d
00000050: 1030 6a3c 569e 28bc bf9f 6f3e decd 1dbd
00000060: b2d2 6c3e a181 9a3e b507 ad3c d46e 9c3e
00000070: 74a0 863e e7ad bb3c 7023 21bc 2392 1e3c
0.055767857 -0.0017345072 -0.019664986 0.3189512 0.008989197 -0.052177925 0.24272336 0.26861858
-0.0094151655 0.06410527 0.0013491127 0.29170853 0.016621463 -0.007054185 0.04786926 0.06883797
0.3181382 -0.0037034117 0.061429866 0.08697871 0.014293686 -0.0102916565 0.23400782 -0.03852641
0.23127249 0.30177024 0.021121839 0.30553305 0.2629429 0.022910072 -0.009835109 0.009678396

MatMul f4 [32, 1536]
00000000: e124 143c 9f8d b63c e18e 033c 2c64 a9bc
00000010: c1c7 db3c 2f99 35bb f06a 42bc 2f8f 5abb
00000020: 5770 f4bb b1dd 18bc 4e47 dcbb 2881 3c3c
00000030: ca1e c83b faf0 10bc ab90 8c3c 4300 2abc
00000040: 7122 753c fe22 323c 889a 92bc b57f cdbc
00000050: acaa f23b 1908 c43c 1d0c 51bc c465 c4bc
00000060: 76aa 2c39 39dc af3c c92d c13c 3cbe c9bc
00000070: 4265 033c a82a 87bb 42a0 2cbc 720a 35bc
00000080: 1560 423a bb16 2fbd 5da5 4ebc e872 543c
00000090: 4c82 103b 338d d7ba 6f3e a83a 9e7b d63b
000000a0: 4a86 303b 1a12 9ab9 c584 0dbc f5ae 89bc
000000b0: e154 b3bc 263c 61bc 1df0 d33c 1d3f 843a
000000c0: ce33 ffbb 878e e13c 69af f2bb 9256 a73c
000000d0: 0352 103c 20af 433c da8d 09bb 2574 43bc
000000e0: fd5a 9f3a d0f3 9dbc a00d 383c 75ff 17bc
000000f0: 2720 743b 9a83 89bc 9986 b2bc ed92 e4bc
00000100: c69a c13c 48b1 fe3c ec57 c23c 4d14 b1bc
00000110: bb54 1b3c 8bd0 c33c c68c f0bc 0b20 763c
00000120: b437 ff3b fa36 bb3c 377c 68bc 4947 193d
00000130: ab9a 393c 81eb ba3a eb34 62bc 5bdc 4b3c
00000140: df21 91bc ed22 25bb 9809 4dbc 9a92 d43b
00000150: f7cd 793c 9ff0 a7bc bed9 843c fb04 73bc
00000160: 9ab8 833c ef31 c03c 371a 97bb 7540 213c
00000170: 022a 8a3c b926 fdba 3f93 30bc 6b3b 543c
00000180: 5686 da3a 8bbc b4bc d110 07bc 5bb3 413c
00000190: 7be1 7dbc 1dd6 2fbc 7fe4 b13c 62ec 9a3b
000001a0: dfd3 30b8 e4c8 a0bc 319b a73a 0145 6d3c
000001b0: e106 cbbc 351c c03b 7dde bebc 679d a93c
000001c0: aa00 a5bc 5206 8a3c e5fe c3bc 5204 323c
000001d0: e623 ef3b 0f47 f83a 3c02 5c3c ab63 993a
000001e0: 7437 8b3b 4c75 05bc 2f68 c8bc 0d12 fdbc
000001f0: 5cc8 2b3c 1c60 843c 54ea 7f3c 67ef a8bc
00000200: b2c1 a53c 4d6a 043b bf07 c53b 445a 8bbc
00000210: ba60 27bc 237f 0dbc 8ebb b13c 2ddc 9bbc
00000220: 43d2 bf3c 56ff 78bc 2bed 623c f3f4 b83b
00000230: 0803 1ebc ba35 9dbc 9779 3f3c 7470 253c
00000240: 2ea2 8f3c cee5 f73b a971 65bc 8818 79bc
00000250: a720 833c fade 4e3b 4c0c c4bc ef36 40bc
00000260: 71f7 6b3b fe0c bf3c 59b3 be3c 2e8b e8bc
00000270: 69b7 a83b 02f2 98bc 4174 653c 6631 74ba
00000280: c974 f03b 4925 7abb ae48 643b ccc9 34bc
00000290: 3a28 e7ba 73fb 893c f66e b83c 825f 503c
000002a0: 4936 8a3c d5c4 193c 0ba1 84bb 9f74 a4ba
000002b0: c381 7a3c cb7b 3f3b 8a8d 6ebc 27cb b1bc
000002c0: 951b 313b 79e4 933c df3f ca3c 7f25 a83c
000002d0: 3d8a 6cbc 5a86 9bbb cd9b 94bc 2cae e23b
000002e0: f50c 06bc c082 0d3c b6e2 003d 5ed5 bf3b
000002f0: 9c9c c3ba 8999 f3ba c6bc bfbc 2a76 5c3c
00000300: 7aa6 5eba 1c48 b53c 9d28 f339 d2e6 123c
00000310: 266b b53c 1023 a43c 34a0 8b3c da61 31bc
00000320: 0b43 463b 07a8 22bc 638c 6fbc 9bdb 903c
00000330: 7f73 483c d1c1 3e3c 79d7 b23c add8 f9bb
00000340: 0fbd 0cbd 4fe5 e63a 1909 ad3a 2c34 6bbc
00000350: d671 dabc f61c 4b3b 320c 3a3c b2dd 8a3c
00000360: f52e 063c 7e82 203c abbb ffbb e456 5abc
00000370: 5d27 68bb 32e4 faba 7b8f 8d3b acf5 863c
00000380: 87cc 293c 8076 95bc 3ccf adbb 638b 8bbc
00000390: 2444 573a b62d b63c a65c 5abb 807c 003c
000003a0: 0698 aabc c0f8 a83c 91e6 89bc 6fd4 a6bb
000003b0: 43ce 9abc 55b2 b63c af7d 0cba 12de 853b
000003c0: 261a 503b e75c d63b 3579 123c 8dbf 0d3b
000003d0: 9515 7abc 651f 1dbc 0ba4 823b f0cd 85bc
000003e0: 7174 ddbc 1a2c 94ba 924b ddbc 562c 163c
000003f0: c464 5bba ce4a 083b d7c1 50bc 1e11 2d3c
0.009041996 0.022284327 0.00802967 -0.020677648 0.026828649 -0.0027709713 -0.011866316 -0.0033349504
-0.007459681 -0.009330199 -0.0067223674 0.011505403 0.006107186 -0.008846516 0.017158827 -0.010376039
0.014961825 0.010872601 -0.017895952 -0.02508531 0.0074055996 0.023929643 -0.012759236 -0.023974307
0.000164667 0.021467315 0.023581402 -0.024626844 0.008019747 -0.004124958 -0.010536255 -0.011049854
0.000741483 -0.042746287 -0.012612668 0.012966849 0.002205032 -0.0016445279 0.001283599 0.006545498
0.0026935511 -0.00029386656 -0.008637612 -0.016807059 -0.02189106 -0.013747251 0.02587133 0.001008961
-0.007788158 0.027533783 -0.0074061644 0.020427022 0.008808616 0.0119436085 -0.002098909 -0.0119295465
0.0012157854 -0.019281298 0.011233717 -0.009277214 0.003725061 -0.016786385 -0.021792697 -0.02790209
0.023633372 0.031090394 0.023723565 -0.021616125 0.009480651 0.023903152 -0.029364001 0.015022288
0.0077886228 0.022853363 -0.014189771 0.0374215 0.01132838 0.001426086 -0.013806562 0.012442674
-0.017716346 -0.002519782 -0.012514494 0.006487203 0.01524686 -0.02050048 0.016217109 -0.01483273
0.016079236 0.02346131 -0.0046112793 0.009842028 0.016865734 -0.0019313908 -0.010777294 0.0129536195
0.0016672115 -0.02206256 -0.008243755 0.011822547 -0.015495653 -0.010732201 0.0217154 0.004727886
-4.215899e-05 -0.019627042 0.001278734 0.014481784 -0.024783554 0.0058627375 -0.02329945 0.020704938
-0.020141918 0.016848717 -0.023925254 0.010865288 0.0072979806 0.0018942076 0.013428267 0.0011702677
0.004248554 -0.008145642 -0.024463741 -0.030892396 0.010484781 0.01615911 0.015619833 -0.020621968
0.020233963 0.0020204962 0.0060128863 -0.017010815 -0.0102159325 -0.008636269 0.021695878 -0.019025886
0.02341569 -0.015197596 0.013850491 0.0056444346 -0.009644277 -0.019190658 0.011686704 0.010097612
0.017533388 0.0075652367 -0.0140041495 -0.015203603 0.01600678 0.003156601 -0.023931645 -0.011731847
0.003600564 0.023321625 0.023278879 -0.028386679 0.0051488173 -0.018670086 0.014004768 -0.0009315222
0.0073381406 -0.0038169196 0.003483336 -0.01103444 -0.001763589 0.016843533 0.022513848 0.012718083
0.016871588 0.009385307 -0.004047518 -0.0012546963 0.015289727 0.0029218073 -0.014560113 -0.021703316
0.0027024497 0.01805328 0.02468866 0.020525692 -0.014437255 -0.0047462406 -0.018140698 0.0069177356
-0.0081818 0.00863713 0.03146621 0.005854293 -0.0014923993 -0.0018585186 -0.023405444 0.013455907
-0.0008493435 0.022129111 0.0004637883 0.008966165 0.022145819 0.02003625 0.017044164 -0.010826552
0.0030252363 -0.009927756 -0.014620873 0.017682841 0.012234568 0.011642889 0.021831261 -0.0076247067
-0.034359988 0.0017615947 0.0013201564 -0.0143557 -0.02666561 0.0030992604 0.011355447 0.016951416
0.008189906 0.009796737 -0.007804354 -0.01332638 -0.0035423853 -0.0019141494 0.0043200827 0.016474567
0.0103637045 -0.018244982 -0.0053042453 -0.017034238 0.0008211753 0.022238594 -0.0033319383 0.007842183
-0.020824444 0.020626426 -0.016833575 -0.005091242 -0.018897181 0.022301832 -0.00053593045 0.0040853107
0.0031753867 0.0065418365 0.008940031 0.0021629066 -0.015263935 -0.009590005 0.0039868406 -0.01633355
-0.027033063 -0.0011304647 -0.027013574 0.009165844 -0.0008369202 0.002079654 -0.0127415275 0.010563163

MatMul_1 f4 [32, 32]
00000000: d458 3a3c 3dda 1bbd 0066 90bd 1c75 4e3e
00000010: a283 0dbd 0f0b 213e 1957 20bd 0124 95bc
00000020: 972c ddbc f7ea 1a3e 795b ee3c 6a15 cbbd
00000030: ed6a e13d 5f5d 0bbe c344 bdbd 4781 47bd
00000040: da78 283d 425b 1c3e d89b 2bbe 61e7 3f3d
00000050: f4cb 61bc 2ceb 34be 3423 e53d 8707 b1bd
00000060: ee14 54bd e0b7 a23c 9a7e 983d 6c46 c9bc
00000070: e4cb e5bd 05f3 30be 59fc ad3d 0de2 a13d
00000080: 4042 f0bd 55dd 1cbe 430f 253e 0e75 ecba
00000090: f6ef c23d 2a71 8dbd d49d f63d 796c 5bba
000000a0: 02b4 d33d fd2d 313e 0624 8e3d ea53 313e
000000b0: 88ba 00bd 0f7e dfbd 1869 94bc 3d53 1b3e
000000c0: 4209 c93d a486 c5bd e437 00be 89f0 64bc
000000d0: c260 1a3e 8e0e 78bd baa3 f23d f063 f63c
000000e0: 80b6 5ebd fe12 b6bc be51 333d 724a 95bd
000000f0: 5dd3 d43d 1ecc d03d 0e65 693c e09d c13d
00000100: 2a36 c43d 15e8 b4bd 68ea cebd 3fe1 e6bd
00000110: 2b59 0fbd aa02 4ebc 19d7 b8bd c749 00be
00000120: e611 123e 6505 eb3d da24 9bbc c9a1 cebc
00000130: 20a4 5a3d f970 0f3e cf9c ffbd 2d7d 343e
00000140: 8294 513d e63c bbbd 1afb 44bd 4696 33bd
00000150: 44aa babd e7c5 57bd f1b2 f43d f71e 86bd
00000160: d70d c2bd db9a aa3d dc4a adbd aee8 e3bd
00000170: 21a6 f73d 7f20 53bd 55c5 4c3e b978 a73d
00000180: c939 073e c292 2d3e 1a06 0dbe 7bba e03d
00000190: 0f4e 50bd 57df 643d 5e05 dabb cbe2 0bbe
000001a0: 58a4 123e c227 2cbe e77e a1bd 2a62 d2bd
000001b0: 500b 283e f089 153e e550 053e 6033 f7bd
000001c0: 0d6d 57bd 4cee 57bc 29cb 47bd 5a5d e53d
000001d0: 33a6 aabd 608b 1d3d ffd5 14be a5e6 063d
000001e0: eae5 2c3e 84c7 073e 2af2 acbd 468a fcbd
000001f0: 973b 89bd 477c 583e 0d92 d13d 2951 9dbd
00000200: 2099 a53d b0c2 bdbd 2233 a4bd cfe7 373b
00000210: 0592 423e aa31 03bd 64b1 fe3d a71d 99bd
00000220: ca39 22be 55e6 a43d 7170 35bd 6f4e d9bd
00000230: 9ea8 44bd fa4b d63d 026a f2bd 94a4 f13d
00000240: 2c08 f63d a817 4f3d a23b f3bc d98d b43d
00000250: 7d97 48bd 5dcf f0bd eabc 20be 0904 d0bd
00000260: 0887 02be a520 c13d 549f 113e afa0 19be
00000270: dbd1 0e3b 0866 66bd d8c7 043e 23f0 053d
00000280: 20fa cbbd 6612 e53d 8dba 193e 29a3 be3d
00000290: 36a0 bd3c aa11 02be a99c f9bd c740 abbd
000002a0: 0918 a43d 7768 bebd 2a68 93bd ab3f 593d
000002b0: 1dd2 a2bc adc6 d8bc 71b8 f23d 7cab e73d
000002c0: fafe 2f3e 901f 9a3d 1cac a23b f1a7 0cbe
000002d0: 84ac df3d f402 cebd 0a1e 7fbd 4661 a43d
000002e0: ae6d 653c 7701 9f3b 26a9 14be 220e 4abc
000002f0: 163c 40bd 1bf5 cfbd 7b80 ad3d b1ce 1e3d
00000300: 1f54 f7bd e2bb d93c ff5e ae3d a748 e7bd
00000310: 2539 053d bb63 53bd 57ca 86bc 088f 97bd
00000320: ee7b 093d 01ad d2bd 02bd 383e 8f02 a33d
00000330: 848e f83d 2477 ea3d d731 a9bd 9703 2bbd
00000340: 9a1c 813a 189c 3c3c da9b 26bd 8339 a13d
00000350: 33f4 a13d 0329 36bd 9296 82bd 34dd 5fbd
00000360: 9bb9 7a3d 6f00 ab3d 04c5 35be 6623 16be
00000370: 1b3b 24be b40b bfbd 8ccd 3b3e 35ec 413d
00000380: f9c4 113b 8f72 123e d0f7 4cbd 88e3 82bd
00000390: b888 1c3e 6a4c 233d 61c4 753d a5b2 53bd
000003a0: 5397 623d 03dc 3cbe 8c30 2b3d e58f aebc
000003b0: 80e8 24be 41f9 50bd b020 1d3e 947d 4f3e
000003c0: 992f a13d ecfb f0bd 8d05 18bd 23be 18bc
000003d0: 94a3 d03d 27dc e03d b949 e8bc 394d 1b3e
000003e0: 70c9 9b3d a4d9 003e 6a75 d9bd e749 a5bd
000003f0: 7209 e0bc fb93 b2b9 1175 6d3d ac16 63bd
0.011373717 -0.038049925 -0.07050705 0.20161861 -0.034549363 0.15726875 -0.039145563 -0.018205645
-0.026998801 0.15128694 0.029096352 -0.09916194 0.110067226 -0.13609837 -0.09241631 -0.048707273
0.041130878 0.15269187 -0.16758668 0.04685152 -0.013781536 -0.17667836 0.11188355 -0.08644014
-0.051777773 0.019863069 0.07446022 -0.024569713 -0.1122053 -0.17280205 0.08495397 0.07904444
-0.11731386 -0.15318806 0.16119103 -0.0018040256 0.09518425 -0.0690635 0.12041822 -0.00083703507
0.10337068 0.173027 0.06940465 0.17317167 -0.03142789 -0.10912716 -0.018116519 0.15168472
0.09816219 -0.09644821 -0.1252132 -0.013973364 0.15075973 -0.060560755 0.118476346 0.03007695
-0.054373264 -0.022225853 0.043779127 -0.0728959 0.10391877 0.10195182 0.014245285 0.094539404
0.095806435 -0.08833329 -0.10103303 -0.11273431 -0.034997147 -0.012573877 -0.090254016 -0.12528144
0.1426464 0.11475638 -0.01893847 -0.02522363 0.053379178 0.1400794 -0.12481081 0.17625876
0.05116702 -0.09142475 -0.04809103 -0.043844484 -0.09114507 -0.05267897 0.11948193 -0.06548875
-0.09475296 0.083303176 -0.08461544 -0.111283645 0.120922334 -0.051544663 0.19997151 0.08177323
0.13205637 0.16950515 -0.13771859 0.10973068 -0.050855692 0.055877056 -0.006653472 -0.13660733
0.14320505 -0.16812041 -0.07885533 -0.102726296 0.16410565 0.146034 0.1301914 -0.12070346
-0.052594233 -0.013179373 -0.048777733 0.11199446 -0.08332481 0.038462996 -0.14534758 0.032934804
0.1688458 0.13259703 -0.08444627 -0.12331061 -0.06700819 0.21141158 0.10232935 -0.07681496
0.08085847 -0.09265649 -0.08017565 0.0028061753 0.19001015 -0.032029785 0.12436178 -0.07476359
-0.15842357 0.08051745 -0.044296686 -0.10610663 -0.04801237 0.1046371 -0.11836626 0.11798969
0.120132774 0.05055967 -0.029691521 0.08816118 -0.048972595 -0.117583014 -0.15697065 -0.1015702
-0.12746823 0.094300546 0.14220935 -0.15002702 0.0021792564 -0.05624965 0.1296686 0.032699715
-0.09959817 0.1118515 0.1501257 0.09308464 0.023147684 -0.12702051 -0.12188084 -0.08361965
0.08012397 -0.09297269 -0.07197602 0.053039234 -0.01987558 -0.026461923 0.11851586 0.11312005
0.1718711 0.07525551 0.0049643647 -0.1373594 0.109215766 -0.10059157 -0.062284507 0.08026366
0.0140032 0.0048524695 -0.1451765 -0.012332471 -0.046932302 -0.10154172 0.08471771 0.038771335
-0.12076592 0.026578847 0.08514213 -0.11293154 0.0325252 -0.051608782 -0.016453905 -0.07400328
0.033565454 -0.10286904 0.18040851 0.079594724 0.12136558 0.114485055 -0.08261459 -0.04175147
0.0009850443 0.011511825 -0.040675975 0.078722976 0.079079054 -0.044472706 -0.06376375 -0.054654315
0.061212163 0.08349692 -0.17750937 -0.14661941 -0.16038172 -0.09328404 0.18340129 0.047344405
0.002224265 0.14301513 -0.05004102 -0.063910544 0.15286529 0.039867796 0.060001735 -0.05168404
0.055320095 -0.18443303 0.041794345 -0.021308849 -0.16104317 -0.051018957 0.153445 0.20262748
0.07870407 -0.117668 -0.03711467 -0.009322676 0.1018745 0.10979491 -0.028355466 0.15166177
0.076067805 0.12583023 -0.10618098 -0.080707364 -0.027348254 -0.0003406106 0.05797297 -0.055441543

MatMul_2 f4 [1, 32]
00000000: 9afa 663e fd7c 2c3e 7fe9 bd3c 456e a9be
00000010: e3cd b7bc e960 c3bc 9d96 a3be 1b81 92be
00000020: 6ac5 933d ead6 4e3e e38f 743d 8f14 94be
00000030: f7ff 983d 4b15 3a3d 9d8f a93d 4034 b13d
00000040: 5cb2 acbe daa9 c53d afe9 013e 80ff 913e
00000050: d2e9 ad3d 0202 dbbc 11ee 98be eb51 63bd
00000060: 9223 acbe 04e9 9fbe 13a1 d23d 06f8 a1be
00000070: 902f 99be fe45 f33d fb8e ed3c 281f 413e
0.22556534 0.16844554 0.023182629 -0.3309194 -0.022437042 -0.023849921 -0.31950846 -0.28614125
0.07215388 0.2019917 0.059707534 -0.28921935 0.074706964 0.045430463 0.08279345 0.08652544
-0.33729827 0.09651537 0.126868 0.28515244 0.08491863 -0.026734356 -0.2986913 -0.055498045
-0.33620888 -0.31232464 0.10284629 -0.3163454 -0.299191 0.11878584 0.028998842 0.18859541
