en/Hey Luna/hey_luna.tflite (tflite, 206748 bytes, 9 tensors)

Const_1 f4 [32]
0	0xbc5f1bc4	-0.01361746
1	0x3c7a0177	0.015259138
2	0x3c1c2731	0.009530828
3	0x3c885926	0.016644072
4	0x3cdb4250	0.026765019
5	0xba44c54c	-0.0007506206
6	0xbc99fcd1	-0.01879731
7	0xb9b4475b	-0.0003438544
8	0xbc0bb1ab	-0.008526246
9	0xbcc74c7e	-0.024328467
10	0x3b98a52b	0.0046583614
11	0xbb0c5987	-0.0021415667
12	0x3c9ab842	0.01888669
13	0xbbe6e99e	-0.0070468923
14	0x3cc2ed3a	0.023794759
15	0x3c3e0730	0.011598393
16	0xbc8ab801	-0.016933443
17	0x3c96f87f	0.018429039
18	0xbca9d7d0	-0.02073279
19	0x3c4ddbf1	0.012564645
20	0xbc964956	-0.018345516
21	0xbbfdc739	-0.0077446965
22	0xbc37147f	-0.01117432
23	0x3c410167	0.0117801195
24	0xbc9aadb7	-0.018881662
25	0x3b17ec02	0.0023181443
26	0xbc0e0c5b	-0.008669938
27	0x3cb9d8af	0.02268633
28	0x3b028c71	0.0019920135
29	0x3b0c54f8	0.002141295
30	0xbcd612ad	-0.026131952
31	0x3caccac9	0.02109279

Const_2 f4 [32]
0	0x3f7b7124	0.98219514
1	0x3f85e48c	1.0460372
2	0x3f7d8e10	0.99044895
3	0x3f842fd4	1.0327096
4	0x3f8290ab	1.0200399
5	0x3f7fd7fd	0.99938947
6	0x3f7ad26e	0.9797734
7	0x3f7adf04	0.97996545
8	0x3f781a2d	0.9691494
9	0x3f7eb078	0.9948802
10	0x3f7cb57f	0.9871444
11	0x3f7c69d6	0.9859899
12	0x3f7e4b81	0.9933396
13	0x3f7f5ebe	0.9975394
14	0x3f79ab5b	0.9752709
15	0x3f8103c9	1.007928
16	0x3f791b47	0.97307247
17	0x3f8402d7	1.0313367
18	0x3f7f180e	0.9964608
19	0x3f71aca9	0.94404083
20	0x3f80dcb7	1.0067357
21	0x3f8d4fc8	1.1039972
22	0x3f80a3fa	1.0050042
23	0x3f7ff27d	0.9997938
24	0x3f7b0de6	0.9806808
25	0x3f7d3462	0.98908055
26	0x3f7db2b1	0.99100786
27	0x3f79ce5c	0.97580504
28	0x3f7c716b	0.9861056
29	0x3f7c9423	0.9866354
30	0x3f812b0d	1.0091263
31	0x3f7bf4ec	0.98420596

Const_3 f4 [32]
0	0xbc5ace30	-0.013354823
1	0x3c864655	0.016390959
2	0x3cee13af	0.02906212
3	0x3d0fccfb	0.035107594
4	0x3c812fc5	0.015769849
5	0xbbbbe7ba	-0.005734411
6	0xbc779377	-0.015110842
7	0xbc9726c3	-0.0184511
8	0xbcaec4f2	-0.021334145
9	0xbc86b238	-0.016442403
10	0xbc110c93	-0.008853096
11	0xbc386c87	-0.011256344
12	0xbb9fcbc5	-0.004876586
13	0x3c34e45d	0.011040774
14	0xbc4b4c81	-0.012408377
15	0x3cfd2851	0.030903013
16	0xbbc81f14	-0.0061072204
17	0x3d10f27b	0.035387497
18	0x3c15751e	0.009122161
19	0xbd4d4503	-0.050114643
20	0x3ca5bba4	0.020231076
21	0x3cdaef7c	0.026725523
22	0xbb96fbc2	-0.0046076486
23	0x3c8d1259	0.017220663
24	0xbcd48512	-0.02594236
25	0xbbd93822	-0.006629006
26	0xbc8db802	-0.017299656
27	0xbc67a5af	-0.014138623
28	0xbc785f50	-0.015159443
29	0xbcb820e2	-0.022476617
30	0x3bf86876	0.007580812
31	0xbcab26c8	-0.020892516

Const_5 f4 [32]
0	0x3b258c0e	0.002526048
1	0x3dc69ce8	0.09697896
2	0x3c563c62	0.01307592
3	0x3de24fe6	0.11050396
4	0xbc3f6b5c	-0.011683311
5	0x3d538f45	0.051650304
6	0x3e1b099e	0.15140387
7	0x3d6d95fd	0.058004368
8	0x3dc25117	0.09488123
9	0xb951f8cc	-0.00020024477
10	0xbe057f16	-0.1303676
11	0xbaf74f8e	-0.0018868314
12	0x3db9d9ab	0.0907472
13	0xbe2062c9	-0.15662684
14	0xbdd816ef	-0.10551249
15	0xbd90d017	-0.0707094
16	0x3e20d128	0.15704787
17	0x3e119441	0.1421671
18	0xbd0451e9	-0.032304678
19	0x3dc0b999	0.094104
20	0x3e11cfb2	0.14239386
21	0xbd1f1cdd	-0.038845886
22	0x3b300912	0.0026860875
23	0x3dc62b4a	0.096762255
24	0xbba2c6fd	-0.004967569
25	0x3de51768	0.11186105
26	0x3d8e29a5	0.06941537
27	0xbdbbe9fc	-0.09175488
28	0xbd1550de	-0.036454074
29	0xbe094eb8	-0.13408935
30	0xbdd1c3f9	-0.10242457
31	0xbe03e934	-0.12881929

Const_6 f4 [32]
0	0x3f858546	1.0431297
1	0x3f7e24c3	0.99274844
2	0x3f7d36ed	0.98911935
3	0x3f7d3fef	0.9892568
4	0x3f812154	1.0088296
5	0x3f874e3f	1.0570754
6	0x3f845281	1.0337678
7	0x3f81ac6a	1.0130742
8	0x3fa01987	1.250779
9	0x3f79e8fe	0.9762114
10	0x3fa97e42	1.3241656
11	0x3fa8e521	1.3194925
12	0x3f849752	1.0358679
13	0x3f817ea9	1.0116779
14	0x3f9f3803	1.2438968
15	0x3f803c89	1.0018474
16	0x3fbd5d29	1.4794055
17	0x3f8b020e	1.0860002
18	0x3fa212d7	1.2662
19	0x3fa102c2	1.2578967
20	0x3f7d85ae	0.99032104
21	0x3f7d3c46	0.98920095
22	0x3f7f0ce5	0.9962905
23	0x3f8389db	1.0276445
24	0x3f8c10b2	1.0942595
25	0x3f86a595	1.0519282
26	0x3f80d166	1.0063903
27	0x3f859d15	1.0438563
28	0x3f8b90c9	1.090356
29	0x3f849af8	1.0359793
30	0x3f7c56e3	0.9857008
31	0x3f80163e	1.0006788

Const_7 f4 [32]
0	0x3cb7e298	0.022446916
1	0xbc41a4c0	-0.011819065
2	0xbc27d593	-0.010243791
3	0xbceea8cf	-0.029133229
4	0xbc2e976a	-0.010656217
5	0x3cdc9218	0.026925132
6	0x3ad790e4	0.0016446379
7	0xbc36d1a6	-0.0111583825
8	0x3e83950a	0.25699645
9	0xbcee757f	-0.02910876
10	0x3e9469b4	0.28986895
11	0x3e9d8456	0.30765027
12	0x3d0dfe63	0.03466643
13	0xbcdab815	-0.026699105
14	0x3e82ead1	0.25569776
15	0x3c22a382	0.009926679
16	0x3ebd4377	0.36965534
17	0x3cbfc141	0.02340758
18	0x3e86591e	0.26239866
19	0x3e87401e	0.26416105
20	0x3ae61cd6	0.0017556201
21	0xbcbb7923	-0.02288491
22	0xbc7cdf33	-0.015434074
23	0x3c34619e	0.011009602
24	0x3d96b4a2	0.07358672
25	0x3d773bba	0.060359694
26	0xbb81c0e0	-0.00395976
27	0x3cd839cd	0.026394749
28	0x3d8c51a5	0.0685151
29	0x3d037667	0.03209534
30	0xbcbb9682	-0.022898916
31	0x3cda92d9	0.02668135

MatMul f4 [32, 1536]
0	0x3cdc1070	0.026863307
1	0x3c712959	0.014719331
2	0x3c636581	0.013879181
3	0xbd50759c	-0.05089341
4	0x3d021b0a	0.031764068
5	0x3c0c9d4d	0.008582425
6	0xbbd525bd	-0.006504743
7	0xbcdecf08	-0.02719833
8	0xbcadea19	-0.02122979
9	0xbb9f91a7	-0.004869658
10	0x3c07a725	0.008279596
11	0x3d1737f8	0.03691861
12	0x3d0a812a	0.033814587
13	0x3c205d9f	0.009787946
14	0xbc30124e	-0.010746552
15	0xba04a839	-0.00050604675
16	0xbcb07f3f	-0.02154505
17	0xbb22ac83	-0.0024822063
18	0xbc96fd25	-0.018431256
19	0xbaade636	-0.0013267461
20	0x3bcccc5a	0.0062499465
21	0xbcf58052	-0.029968414
22	0xbb56113b	-0.0032664079
23	0x3b0c8508	0.0021441597
24	0x3c3b2333	0.011421966
25	0xbb50d7c4	-0.0031866888
26	0x3bc21f03	0.005924107
27	0xbd045cd1	-0.03231508
28	0x3c2b6b1d	0.0104625495
29	0x3b9d4293	0.004799196
30	0xbb525cf6	-0.0032098866
31	0x3c66af9e	0.014079956
32	0xbcb41837	-0.021984203
33	0xbd17c313	-0.03705127
34	0xbcb2e2ea	-0.021836717
35	0xbbe38823	-0.006943719
36	0xbcc2faad	-0.023801172
37	0xbcc6be66	-0.02426071
38	0xbc806943	-0.015675193
39	0xbc3d849c	-0.011567261
40	0xbc7c78a3	-0.015409621
41	0x3b9d2e4f	0.00479678
42	0x3bdcb967	0.006735969
43	0x3c9cc432	0.019136522
44	0x3c44749f	0.011990695
45	0xbc89e9ed	-0.016835177
46	0xbc9a3ee3	-0.018828815
47	0xbd281806	-0.041038536
48	0x3a8ba707	0.0010654636
49	0x3cf73345	0.030175814
50	0x3c88457d	0.016634697
51	0x3c222e7d	0.009898779
52	0xbab9d6b0	-0.0014178362
53	0x3d1377ba	0.036002852
54	0x3bcba0d1	0.006214239
55	0xbc1cc564	-0.009568546
56	0x389e432e	7.54654e-05
57	0xbcc9c46e	-0.024629798
58	0xbc528a16	-0.012850305
59	0x3ce63d8c	0.02810552
60	0x3d0c7307	0.034289386
61	0xbc01d6f3	-0.007924783
62	0x3caa5227	0.020791126
63	0x3b93900b	0.0045032552
64	0x3c71a3a6	0.0147484895
65	0x3c52c04f	0.012863233
66	0x3c7a9b9b	0.015295888
67	0x3c034a4c	0.008013319
68	0xbcddd842	-0.027080659
69	0xb9b068d1	-0.0003364743
70	0x3cf1c40b	0.029512426
71	0xbb3f5227	-0.0029193254
72	0x3cd7b796	0.026332658
73	0x3b92df80	0.0044822097
74	0xbc2ec58a	-0.010667214
75	0xbbb54bd2	-0.00553272
76	0x3d325400	0.04353714
77	0x3c0af0cd	0.008480263
78	0x3b805ddf	0.0039174403
79	0x3caf868f	0.021426467
80	0x3be1e1fd	0.006893395
81	0xbb87443e	-0.004128008
82	0x3c9fb580	0.019495726
83	0xbb7fc071	-0.0039024616
84	0x3ce6486a	0.028110702
85	0xbbd9b1b2	-0.0066434974
86	0x3c166f85	0.009181862
87	0xbc92e3d5	-0.017930904
88	0x3d176661	0.03696287
89	0x3bef9619	0.007311594
90	0x3c8af2c8	0.01696147
91	0xbc9afc1f	-0.018919049
92	0x3ca47c09	0.020078676
93	0xbc0db0ee	-0.00864814
94	0xbce07581	-0.02739978
95	0x3ced6bf5	0.028982142
96	0x3c4f94ed	0.012669784
97	0xba8596cb	-0.0010192035
98	0x3c651b84	0.013983611
99	0xbcaf2de2	-0.021384183
100	0xbb47b4a7	-0.0030472667
101	0xbbb8f652	-0.005644598
102	0x3c145c5b	0.009055222
103	0xbcfa6ac3	-0.030568486
104	0xbd42cdac	-0.047559425
105	0x3c887337	0.016656501
106	0xbc34686b	-0.011011223
107	0x3cc785b7	0.024355752
108	0x3c8a42b3	0.016877508
109	0x3cce5f80	0.025192022
110	0xbced777f	-0.028987644
111	0x3c0a4c5a	0.008441055
112	0x3bb6bacb	0.0055764667
113	0x3d139a40	0.036035776
114	0x3d269ab2	0.040674873
115	0xbcf89f37	-0.030349357
116	0xbd2eaf1d	-0.04264747
117	0xbc4a2f19	-0.0123403305
118	0x3876df68	5.8859034e-05
119	0xbc182fa8	-0.009288706
120	0xbc3c32c8	-0.011486717
121	0x3cb41f7b	0.021987667
122	0x3c4def11	0.012569205
123	0xbc316321	-0.010826857
124	0xbca66eae	-0.020316448
125	0xbd2cbbf2	-0.042171426
126	0x3cff9acb	0.03120174
127	0x3cabecf5	0.020987013
128	0xbbcfed4c	-0.0063454267
129	0x3b4896c2	0.0030607437
130	0xbcf94642	-0.03042901
131	0x3caf8a61	0.021428289
132	0x394ca0c9	0.00019514853
133	0xbcb84d72	-0.022497866
134	0xbcb451e6	-0.022011708
135	0x3c84cd4e	0.016211178
136	0xbc6f58f8	-0.014608614
137	0xbca8664b	-0.02055659
138	0x3cb85dc4	0.022505648
139	0xbcbb69db	-0.022877624
140	0xbcd64a2d	-0.026158417
141	0xbcb20585	-0.021731148
142	0x3b878d10	0.004136689
143	0xbcdf4257	-0.027253313
144	0xbcae68f5	-0.021290282
145	0x3c9d6f7b	0.019218197
146	0x3bd1ff33	0.006408596
147	0xbaf30d64	-0.001854342
148	0xbbf35801	-0.0074262624
149	0x3d3e6aa5	0.046488423
150	0xbc308ad2	-0.010775285
151	0x3cc1e5c9	0.02366914
152	0x3d07d968	0.03316632
153	0x3ca1bff4	0.01974485
154	0xbcc98cab	-0.024603209
155	0x3d055163	0.03254832
156	0x3cb8a123	0.022537773
157	0xbc2cdf17	-0.010551236
158	0x3d0e653f	0.034764525
159	0xbc705bc2	-0.014670314
160	0x3ce4ee2f	0.027945606
161	0xbc09945c	-0.008397188
162	0x3cd5a94a	0.0260817
163	0xbc8518f8	-0.016247258
164	0xbc9c5ea1	-0.019088091
165	0x3ca3da9d	0.020001704
166	0x3b083352	0.0020782542
167	0xbb4ad43b	-0.0030949253
168	0x3cf819c2	0.03028572
169	0xbc68a50e	-0.014199508
170	0xbca212a8	-0.019784287
171	0x3d032f8c	0.032027766
172	0xbc1b951a	-0.009495998
173	0x3c711070	0.014713392
174	0xbb3b6e4b	-0.0028599675
175	0x3c4ecb46	0.012621706
176	0x3cfaccd2	0.030615244
177	0x3bb690bb	0.0055714524
178	0xbcba7477	-0.022760613
179	0x3cb740cf	0.02236977
180	0x3aae0b2b	0.0013278475
181	0xbcfc5d2f	-0.030806152
182	0x3bd3a46c	0.0064588096
183	0xbbfbbdeb	-0.007682552
184	0x3a944ac6	0.0011313788
185	0x3b94c062	0.0045395354
186	0x3d0a811f	0.033814546
187	0xbc3885ed	-0.011262399
188	0x3a521fc1	0.0008015596
189	0xbcb93284	-0.022607096
190	0xbccefe60	-0.02526778
191	0xbc8b64f9	-0.017015921
192	0xbb00c82d	-0.0019650564
193	0x3cf27dd5	0.029601017
194	0xbc91a0ed	-0.01777693
195	0xbd34ced9	-0.044142578
196	0x3cb8b1d5	0.022545734
197	0x3b0ed6e5	0.0021795568
198	0x3c0f5b32	0.00874977
199	0xbc9e60e5	-0.019333312
200	0xbcc65867	-0.024212075
201	0xbc48cdd3	-0.012256104
202	0x3c042834	0.008066226
203	0x3d0f5c1f	0.034999963
204	0x3c63ad6c	0.0138963275
205	0x3d16de29	0.036832962
206	0x3c1a76b6	0.009427717
207	0xbd1d2298	-0.03836307
208	0x3ce78617	0.028262181
209	0x3b4301a7	0.0029755624
210	0x3c74f8ff	0.014951943
211	0xba7eb519	-0.00097163167
212	0xbc6fdce4	-0.014640067
213	0xbb59e4fa	-0.0033248053
214	0x3bc53213	0.006017932
215	0xbd481d75	-0.048856217
216	0x3c8cf9f3	0.017209029
217	0x3cf7dbfe	0.030256268
218	0xbca3f62e	-0.020014849
219	0xbd03f16a	-0.032212652
220	0xbbab177f	-0.005221307
221	0xbccae87c	-0.02476906
222	0x3c2afab9	0.0104357535
223	0xbcac1dd2	-0.021010313
224	0xbc859f45	-0.016311297
225	0xbceab529	-0.028650837
226	0xba5c0a85	-0.00083939015
227	0xbb051bf0	-0.0020310842
228	0xbc9b8a0a	-0.01898672
229	0xbcc3457a	-0.02383684
230	0xbcbb4ca3	-0.022863692
231	0x3b61ffd4	0.003448476
232	0xbb64f89c	-0.0034938222
233	0x3c8395c1	0.01606262
234	0x3c827bdd	0.015928203
235	0xbadf1ed6	-0.001702274
236	0x3b793fee	0.003803249
237	0xbcd10e6c	-0.025519572
238	0xbbdc18a0	-0.0067168027
239	0x3c5a184f	0.01331146
240	0xbc806abd	-0.015675897
241	0x3b508029	0.003181467
242	0x3c8c2ae1	0.01711029
243	0x3c9fd3de	0.019510206
244	0xbca3657c	-0.019945852
245	0x3c6deb6d	0.014521462
246	0xbad9e64a	-0.0016624418
247	0x3b815ed9	0.0039480743
248	0x3c0fb277	0.008770577
249	0x3c407ecf	0.0117489835
250	0x3caa1400	0.02076149
251	0xbcbbfac6	-0.022946727
252	0x3c6de5d9	0.014520132
253	0xbd060fb3	-0.032729816
254	0xba631aae	-0.00086633384
255	0xbb4601e7	-0.0030213536

MatMul_1 f4 [32, 32]
0	0x3c926723	0.017871445
1	0xbe386ce8	-0.18010294
2	0x3deeceff	0.11660575
3	0xbe31d176	-0.1736506
4	0x3d914997	0.07094114
5	0x3dcaa0b2	0.098939314
6	0xbe0d5e6c	-0.1380555
7	0x3bbc9d34	0.0057560448
8	0x3e0bdb37	0.13657843
9	0xbd3fdab3	-0.046839427
10	0xbd5148bd	-0.05109476
11	0xbb66a22b	-0.0035191874
12	0xbe1a598c	-0.15073222
13	0x3d9addb4	0.07561818
14	0xbd312fc0	-0.04325843
15	0x3e00ec17	0.12590061
16	0xbcb1f6b7	-0.021724088
17	0x3d8eea51	0.06978286
18	0x3db6ca23	0.08925273
19	0xbd2f8ce7	-0.042858984
20	0xbdc5e018	-0.09661883
21	0xbda2cbb5	-0.0794901
22	0xbe28ebae	-0.16496155
23	0x3df181b8	0.1179232
24	0xbe18f55c	-0.14937347
25	0xbd94dd07	-0.0726872
26	0xbde6da3d	-0.112720944
27	0x3e095955	0.13412984
28	0xbce286a0	-0.027652085
29	0x3d9d11da	0.076694205
30	0x3e147b5b	0.14500181
31	0xbbbb82ac	-0.0057223644
32	0xbe0ae862	-0.1356521
33	0x3d9cca22	0.07655741
34	0xbdf3925e	-0.11893152
35	0x3e0990b6	0.13434109
36	0x3e275e33	0.16344528
37	0xbd28b712	-0.041190214
38	0x3e19c6ac	0.15017194
39	0x3e271a2a	0.16318575
40	0x3e22d140	0.15900135
41	0xbe1b49a8	-0.15164816
42	0x3d5c0109	0.053711925
43	0x3d8c453d	0.06849144
44	0x3d90c75c	0.07069275
45	0xbe0d42d1	-0.1379502
46	0xbcc432db	-0.023950031
47	0x3d4eb8dc	0.050469264
48	0x3d59768a	0.053091563
49	0x3d2caad6	0.04215511
50	0xbd707e67	-0.058714297
51	0x3d125df0	0.035734117
52	0xbdc2413d	-0.094850995
53	0x3cb34e96	0.021888059
54	0x3d87333e	0.066015705
55	0xbdaadb83	-0.0834265
56	0xbde0381c	-0.10948202
57	0xbd16eda0	-0.03684771
58	0x3d159bd1	0.03652555
59	0xbe2b1ebb	-0.16710941
60	0x3d91d8c3	0.07121422
61	0x3dc09872	0.09404077
62	0x3d464888	0.048409015
63	0x3d10283e	0.035194628
64	0x3cb0b4b1	0.021570535
65	0x3deda75a	0.116041854
66	0x3b88103b	0.0041523254
67	0xbe58b8dc	-0.21164268
68	0xbe3bd1d1	-0.18341757
69	0x3d70dfa0	0.058807015
70	0xbe18b424	-0.14912468
71	0xbe1a93d8	-0.1509546
72	0x3de1189e	0.109910235
73	0xbdaa73ae	-0.083228454
74	0x3d0a2c84	0.03373386
75	0xbd2321e2	-0.039827235
76	0xbc9b524c	-0.01896014
77	0xbdc65f00	-0.096860886
78	0xbd90df7e	-0.07073878
79	0x3dca46a5	0.098767556
80	0xbcb49e62	-0.022048179
81	0xbd838a72	-0.06422891
82	0x3cfbe5e1	0.030749263
83	0xbdcf4a75	-0.101216234
84	0x3c5f18b6	0.013616731
85	0x3dbcad9e	0.09212802
86	0xbde78255	-0.11304156
87	0xbcd5226b	-0.026017388
88	0xbdb59507	-0.08866315
89	0x3d93902c	0.07205233
90	0x3c028658	0.0079666
91	0xbe2b0002	-0.16699222
92	0xbde87a47	-0.113514476
93	0xbdf767da	-0.12080355
94	0x3e03b59b	0.12862246
95	0x3e0cb123	0.13739447
96	0x3dcaf799	0.09910507
97	0x3dba2f70	0.09091079
98	0xbd4249b3	-0.047433566
99	0xbe4a0746	-0.19729337
100	0xbb805937	-0.0039168852
101	0x3d3e55af	0.046468433
102	0xbc54ddbd	-0.01299232
103	0x3dcd20f1	0.10016049
104	0x3de6a094	0.112610966
105	0x3d1c162e	0.03810709
106	0xbc44a5e7	-0.012002445
107	0x3e006398	0.12537992
108	0xbe1d109c	-0.15338367
109	0xbc901da2	-0.017592255
110	0x3e2db727	0.16964398
111	0x3d07594a	0.033044137
112	0x3ca90166	0.02063055
113	0xbe30c33f	-0.1726198
114	0xbdedd764	-0.11613348
115	0xbd127135	-0.035752494
116	0xbdcaf178	-0.09909338
117	0x3d5842ca	0.05279807
118	0x3e05741d	0.13032575
119	0x3c8c343d	0.017114753
120	0x3c724676	0.014787307
121	0xbcbcc756	-0.02304427
122	0xbe358ba2	-0.17729047
123	0x3e2610bc	0.16217321
124	0x3d3383e8	0.043826967
125	0x3e00ffde	0.12597606
126	0xbd5fd843	-0.054649603
127	0x3e0d2e89	0.13787283
128	0xbd4be02a	-0.049774326
129	0xbdb6dcdd	-0.08928845
130	0xbd89700f	-0.067108266
131	0x3e16b6c2	0.14718154
132	0xbe3a33c2	-0.18183807
133	0xbe1a29d1	-0.15055014
134	0xbdf530be	-0.119721875
135	0x3e0b3224	0.13593346
136	0x3e1bf93c	0.15231794
137	0xbc9625ac	-0.01832851
138	0x3df64bdf	0.1202619
139	0x3d3eb17a	0.046555974
140	0x3b8a78f6	0.0042258454
141	0xbe26d8dc	-0.16293663
142	0x3deff1dc	0.11716053
143	0x3dbc36de	0.091901526
144	0xbdecb010	-0.11557019
145	0xbdfea6ec	-0.124341816
146	0x3e4a7148	0.19769776
147	0x3d8c7b31	0.068594344
148	0x3e0b7ba1	0.1362138
149	0xbd3a51cf	-0.045488175
150	0x3db3e9ac	0.08784804
151	0x3e01f2d7	0.12690292
152	0x3de9aca0	0.11409879
153	0x3dacfe7b	0.08446976
154	0x3d0af44f	0.033924397
155	0x3dd45ec6	0.10369639
156	0xbe0fd71b	-0.140469
157	0x3d928fb5	0.07156316
158	0xbd481253	-0.0488456
159	0x3e20ca24	0.1570211
160	0xbda70e6b	-0.08157047
161	0xbd9c9458	-0.07645482
162	0x3da6b362	0.08139683
163	0x3d48dd33	0.049039077
164	0xbdc70ff4	-0.0971984
165	0x3dec0bdb	0.11525699
166	0xbda6e300	-0.081487656
167	0xbd4d4531	-0.050114814
168	0x3e23f247	0.1601039
169	0xbdab102c	-0.08352694
170	0x3d86466e	0.06556402
171	0x3b8b5a15	0.004252682
172	0x3ddd0014	0.107910305
173	0x3df97a25	0.121815
174	0xbe16a8ef	-0.1471288
175	0x3ded4de1	0.1158712
176	0x3de1ef8c	0.11032018
177	0x3cbe4209	0.023224847
178	0x3cbc5757	0.022990866
179	0xbdf2c39e	-0.11853717
180	0x3dfd2093	0.12359729
181	0xbe148ff4	-0.14508039
182	0xbd3627fc	-0.044471726
183	0xbdd7d0c4	-0.10537866
184	0xbc6b8455	-0.014374812
185	0x3e235b52	0.15952805
186	0xbdebbfe5	-0.1151121
187	0x3d546df6	0.05186268
188	0xbcfef02a	-0.031120379
189	0x3d20d453	0.03926499
190	0x3e41f7b9	0.18942155
191	0xbe217efc	-0.15771097
192	0x3e0ad712	0.13558605
193	0xbe3166a2	-0.17324308
194	0x3e1d681c	0.15371746
195	0x3e0e08f6	0.13870606
196	0xbdc010d6	-0.09378211
197	0x3dec771d	0.115461566
198	0x3e0558b0	0.13022113
199	0x3e274c2b	0.1633765
200	0x3d272994	0.040811136
201	0x3e02a520	0.12758303
202	0xbde7ef3b	-0.113249265
203	0xbdae357f	-0.08506297
204	0xbe130f86	-0.1436139
205	0x3d579478	0.052631825
206	0x3e068fb8	0.13140762
207	0xbe37d4df	-0.17952298
208	0x3c6c99b7	0.014440945
209	0xbde1746e	-0.11008535
210	0xbde8a8dd	-0.11360333
211	0x3d38f44e	0.045154862
212	0x3e2e9a41	0.1705103
213	0xbcb47d45	-0.02203239
214	0xbdcb667a	-0.09931655
215	0xbe0371d0	-0.12836385
216	0x3b8e6b96	0.0043463213
217	0xbd813f01	-0.06310845
218	0x3db4d415	0.08829514
219	0x3defecb0	0.117150664
220	0xbcaa8769	-0.020816522
221	0xbe18f057	-0.14935432
222	0xbcc9efcd	-0.024650479
223	0xbcac390b	-0.021023294
224	0x3e0d866e	0.13820812
225	0xbdaefa41	-0.08543826
226	0xbdd78c84	-0.10524848
227	0x3df22414	0.118232876
228	0xbc73148e	-0.014836444
229	0x3e2a511b	0.16632502
230	0xbe2a614e	-0.16638681
231	0x3dd53c3b	0.10411879
232	0x3da571da	0.08078356
233	0x3d1bb248	0.03801182
234	0x3dab6536	0.08368914
235	0xbd42f86d	-0.0476002
236	0xbdd85400	-0.10562897
237	0xbe3a122c	-0.18170995
238	0xbe1c59db	-0.15268652
239	0xbdf66ec2	-0.12032844
240	0xbe0107f8	-0.12600696
241	0x3d96e7db	0.07368442
242	0x3da81243	0.08206608
243	0x3de16532	0.110056296
244	0xbdf126a7	-0.117749505
245	0x3d3efe78	0.0466294
246	0xbdf42064	-0.119202405
247	0x3e051943	0.12997918
248	0xbd9abca7	-0.07555514
249	0x3c1fecf9	0.0097610885
250	0xbe222e20	-0.15837908
251	0xbe0b5bb9	-0.13609208
252	0xbce9c62d	-0.02853688
253	0x3e1479d4	0.14499599
254	0x3d053c75	0.03252836
255	0xbc78ee25	-0.015193497

MatMul_2 f4 [1, 32]
0	0x3dd02407	0.10163122
1	0x3e07b0b3	0.13250999
2	0x3d8a4e15	0.06753174
3	0x3e083a92	0.13303593
4	0x3dc51ce9	0.09624655
5	0x3e66be83	0.22533612
6	0x3de1a297	0.1101734
7	0x3d9c6475	0.07636348
8	0xbeca0625	-0.39457813
9	0x3daa886a	0.083268
10	0xbec3ed34	-0.3826691
11	0xbe8faaba	-0.28059942
12	0x3dd0660f	0.10175716
13	0x3da5cd1f	0.08095764
14	0xbec79849	-0.38983372
15	0xbcbdd4db	-0.023172786
16	0xbed0fb24	-0.40816605
17	0x3e630e24	0.22173363
18	0xbeced95b	-0.40400204
19	0xbeb8cb93	-0.36092815
20	0xbc8e8c9c	-0.017401032
21	0xbdf0825f	-0.11743616
22	0x3dba6ea1	0.09103132
23	0x3e090c65	0.13383634
24	0x3e2d0744	0.16897303
25	0x3e573a92	0.21018437
26	0x3ce8fd34	0.02844105
27	0x3db316cc	0.087445825
28	0x3e266416	0.16249117
29	0x3db9f965	0.09080771
30	0x3ccbc1b0	0.02487263
31	0xbc726bc8	-0.014796205
