en/ok_boss/ok_boss.tflite (tflite, 206380 bytes, 9 tensors)

Const_1 f4 [32]
000000 d2 a8 9b bb 4d f0 32 3c 5b 2b 6b bb a3 66 bf bc
       -0.0047503496 0.01092155 -0.0035883996 -0.02336437
000010 63 7b 13 bc 0e 90 aa 3c 9d e3 12 3c bb 8d 90 ba
       -0.009001586 0.020820644 0.0089654 -0.0011028567
000020 7c 6f 84 3b 4a 24 91 3c 00 52 ba bc 83 ee 2a 39
       0.0040416103 0.0177175 -0.022744179 0.00016301316
000030 25 91 52 3c 4e 2d 25 bc db bf bb bc 9c ce 3d 3c
       0.012851988 -0.010081602 -0.022918632 0.011584904
000040 bc e3 81 3c 6a 73 78 ba 5a 00 29 3c 78 82 44 3c
       0.015855663 -0.0009477647 0.010315025 0.011993997
000050 c3 a4 93 bc b5 28 7c bc fe c9 9c 3c 37 81 bb 3c
       -0.0180229 -0.015390565 0.019139286 0.022888763
000060 13 3d 8e 3b 42 33 49 ba db 59 bd bc 3e 90 a5 bc
       0.0043407767 -0.00076751795 -0.023114135 -0.020210382
000070 af 83 a8 3c 1e bb 8e 3c ba 94 91 3c 3a 35 20 3c
       0.020570604 0.017423209 0.017771114 0.009778315

Const_2 f4 [32]
000000 45 38 83 3f 61 99 82 3f 2d c8 7b 3f fa eb 7d 3f
       1.0251547 1.0203058 0.9835232 0.99188197
000010 5a 7f 80 3f 8a 7c 7f 3f 56 7f 7e 3f 0f 3a 81 3f
       1.0038865 0.99799407 0.9941305 1.0095843
000020 2d 73 7b 3f 56 43 83 3f 30 89 77 3f ed e7 83 3f
       0.9822262 1.0254924 0.96693707 1.0305153
000030 ab 9f 84 3f 05 15 78 3f 2f bc 82 3f f5 20 77 3f
       1.0361227 0.96907073 1.0213679 0.96534663
000040 1e 9d 81 3f 90 f5 78 3f 5b 3b 7c 3f b0 90 7c 3f
       1.0126073 0.972497 0.9852807 0.98658276
000050 c8 b0 7d 3f 32 cc 7c 3f d8 60 83 3f 7b 7f 87 3f
       0.9909787 0.9874908 1.0263929 1.0585779
000060 72 10 80 3f e3 e6 7d 3f 42 86 84 3f 93 2d 81 3f
       1.0005019 0.9918043 1.0353472 1.0092033
000070 fd 15 79 3f 3d df 80 3f 3d 12 80 3f f8 cc 7c 3f
       0.97299176 1.0068127 1.0005566 0.9875026

Const_3 f4 [32]
000000 86 6b 1f 3d 20 8a e8 3b 82 e0 d4 3c be da 4d bb
       0.0389209 0.007096544 0.02598596 -0.0031410898
000010 18 45 5d 3b 06 e2 fe bb aa e7 76 3c f9 41 0a 3c
       0.0033763107 -0.007778409 0.015069881 0.008438581
000020 5e fb 28 bc 92 92 09 3d 73 00 6d 3c d9 a1 22 3d
       -0.010313837 0.033587046 0.014465439 0.03970513
000030 17 1e 26 3d e0 e8 10 bb 70 96 39 3d 01 51 15 3c
       0.04055604 -0.002211146 0.045309484 0.009113551
000040 2e 33 89 3c d6 33 0f bd e2 1e 04 bc 73 85 a9 3c
       0.016748037 -0.034961544 -0.008064004 0.020693516
000050 38 b3 06 bc 6a dd 44 bc ed f7 82 3c 5e 72 cb 3c
       -0.00822144 -0.01201568 0.01598736 0.024834808
000060 f6 ad b6 bc ee 9e cc bc 38 58 5b 3d 94 a2 8d ba
       -0.022299748 -0.024978127 0.05355093 -0.0010805898
000070 02 69 44 bc 18 b1 5f 3c 6e 75 a4 3c 58 d8 71 bc
       -0.011987926 0.013653062 0.020075526 -0.014761053

Const_5 f4 [32]
000000 ce fb 04 bb be 41 fc bd 36 4b 78 3d 6a d7 ca 3d
       -0.002029169 -0.12317227 0.0606186 0.09904368
000010 4e 9d 0c 3c ed 96 7c bd 1f d8 14 bd 16 19 4a bd
       0.008582426 -0.06166737 -0.03633892 -0.04934033
000020 d8 1d 5a bd a8 33 15 bd c3 6f 46 bd 69 df 0e bd
       -0.053251117 -0.036426216 -0.048446428 -0.03488103
000030 4d 30 21 be f6 98 80 3d 06 e1 17 3d 28 0a a2 bc
       -0.15741082 0.06279175 0.037079833 -0.019780234
000040 fd ac f7 3c 05 10 ac bb 30 3e 29 3e 36 7a 5f bd
       0.030233854 -0.005250933 0.16527629 -0.05455991
000050 af 15 a7 3d 7a f7 08 3e 0c 3f 09 bd c2 a6 65 3d
       0.08158433 0.13375655 -0.03350739 0.056067236
000060 aa f6 d9 3d 3b 30 c1 bd 78 eb bd bd 30 c4 f9 3c
       0.106427506 -0.09433027 -0.09273428 0.030489057
000070 4a c7 0a 3e f6 b0 d1 3d ea 82 17 3e 96 4d fe 3d
       0.13552585 0.10238831 0.14796034 0.12417142

Const_6 f4 [32]
000000 f7 82 82 3f 5e 7d 7e 3f 95 b1 a2 3f a6 8d 88 3f
       1.0196217 0.99410045 1.2710444 1.0668228
000010 af 62 8a 3f 06 ca 82 3f db e9 83 3f 4f ba 8d 3f
       1.0811366 1.0217903 1.0305742 1.1072482
000020 de 41 82 3f d8 74 8b 3f 02 be 86 3f 2e 31 80 3f
       1.0176351 1.0895033 1.0526736 1.0015008
000030 8d 1d a2 3f ce 79 78 3f 16 5b 7e 3f 72 15 7e 3f
       1.2665268 0.9706086 0.99357736 0.9925147
000040 c1 13 84 3f db 44 79 3f f6 6e 80 3f cd ef 81 3f
       1.0318528 0.9737069 1.0033863 1.0151306
000050 d6 77 a5 3f 8a 5d 83 3f 20 48 8a 3f 59 af ae 3f
       1.2927196 1.0262921 1.0803261 1.3647262
000060 0e 70 a1 3f 7e 52 74 3f 71 61 83 3f 15 93 7c 3f
       1.2612321 0.95438373 1.0264112 0.9866193
000070 68 68 a1 3f 32 0d 83 3f e6 ea a1 3f 1e d0 85 3f
       1.2609987 1.0238402 1.264981 1.0454137

Const_7 f4 [32]
000000 81 0a 34 3c e0 20 6a 3a 1e 5c 88 3e 0d d7 1a 3d
       0.010988832 0.00089312904 0.2663278 0.037802745
000010 d1 97 95 3d a5 fe 0c 3d ba 6b a6 3c ae 93 04 3d
       0.07304347 0.034422535 0.02031504 0.0323674
000020 42 09 2b 3c 86 52 fb 3c f3 cd 23 3d 2a e9 52 3b
       0.010439219 0.030678999 0.03999133 0.0032182434
000030 86 18 84 3e 1d 67 e8 bb 99 70 2a bd 01 f4 81 bb
       0.2579996 -0.00709237 -0.041611288 -0.003965855
000040 f5 aa 87 3c a3 08 ff bc 0b ec e6 3b 88 2a 88 3c
       0.01656101 -0.031132048 0.0070471815 0.016621843
000050 2a 04 8d 3e a6 cd fe 3c fd 97 d1 3c ea 0e 9b 3e
       0.2754224 0.03110392 0.025585169 0.30284816
000060 06 24 82 3e 03 a6 23 bd d6 75 83 3c 1e b7 9d bc
       0.2541811 -0.039953243 0.0160474 -0.019252356
000070 23 ad 83 3e 13 42 04 3e be bd 85 3e b2 54 1c 3d
       0.2571803 0.1291583 0.26121324 0.03816671

MatMul f4 [32, 1536]
000000 e7 49 01 bd 18 79 01 3c 64 c7 84 bc ae 25 5b bc
       -0.03156462 0.007902406 -0.016208358 -0.013375683
000010 33 39 ba 3b 7a 14 23 3b 4e 12 20 bc 4e d9 bb bc
       0.005683088 0.002488403 -0.009769989 -0.022930767
000020 e0 b0 2d bd 56 38 c6 3b 0d 73 ee 3b 74 5b 89 3a
       -0.04240501 0.0060491962 0.0072768987 0.0010479526
000030 ce d6 c4 bc 62 e2 bc 3c 46 fd 0f bd 5d df 90 bc
       -0.024028208 0.023057166 -0.03515365 -0.017684633
000040 3a c5 09 3b 06 35 0c 3d b0 dc 9c bc a2 81 01 39
       0.0021022097 0.034230255 -0.0191482 0.0001235069
000050 f6 c7 e9 bc a6 de 89 bc a5 ec c6 ba 3d 56 95 3c
       -0.028537732 -0.0168298 -0.0015176727 0.018229598
000060 2e 30 a4 bb 61 d7 12 3c 7b e3 80 ba ea f3 2c bd
       -0.0050106263 0.008962483 -0.000983342 -0.042224802
000070 c1 9e 8c bc 06 af b4 3b d2 c8 15 3d e6 1f 60 bb
       -0.017165544 0.0055140285 0.03656847 -0.00341987
000080 e5 c0 8f 3a d6 81 d5 bc 5d ae 97 bc d2 26 b3 b9
       0.0010967521 -0.026062887 -0.01851576 -0.00034170464
000090 26 c1 e3 bc 2a 49 14 bc 1a e1 03 bc eb 25 9d bc
       -0.027802061 -0.009050647 -0.008049274 -0.01918312
0000a0 80 ed 1a bc ee 9c 16 3c 4e de 09 bb ae ce 01 bb
       -0.0094560385 0.009192688 -0.0021037045 -0.0019807029
0000b0 b2 34 dd 3a 1a a4 4a 38 05 6b 72 bc c8 1d 69 bc
       0.0016876666 4.8313384e-05 -0.014796023 -0.014228292
0000c0 2a 81 ee 39 ce 52 40 3d e6 8f 7e 3b 25 0c 67 bc
       0.00045491132 0.04695397 0.0038843094 -0.014102017
0000d0 2a 88 46 bc 55 02 6c 3d cf 24 94 bc 2e 0f 22 3a
       -0.012117425 0.05761941 -0.018083958 0.00061820715
0000e0 35 cc 25 ba 48 5e d1 3b 9e 2c 74 bb dd 4a 3a 3b
       -0.00063246797 0.006389413 -0.003725804 0.002842597
0000f0 2a a0 a1 3c 24 fb 09 bc cd b9 1d 3d a2 0d 4a 3c
       0.019729692 -0.008421693 0.03850727 0.012332352
000100 8d 4d 83 bc f6 41 de 3c 8a 72 63 3d 96 51 d3 bb
       -0.01602819 0.027131062 0.055529155 -0.006448935
000110 3e cf 39 bc 7c 71 a0 bb 8a a2 0b bd 50 d9 fb 3b
       -0.011340914 -0.004896341 -0.034090556 0.007685818
000120 48 a4 5a 3d 00 cd 1a 3d 5d bd f0 bb 8e 1b 12 3d
       0.053379327 0.03779316 -0.0073467926 0.03567081
000130 25 fa 56 3d d3 78 fc bb f5 e4 94 bc cd 94 03 3c
       0.05248465 -0.007704833 -0.018175581 0.008031082
000140 ae d5 39 bb 13 18 6d bb b2 8c 9e 3b 90 9b 6e 3c
       -0.0028356123 -0.003617768 0.0048385495 0.014563456
000150 b3 e9 f4 3b 41 de 82 bd b8 0c a2 ba 2a 57 34 bd
       0.007474148 -0.06390048 -0.001236341 -0.04402844
000160 f8 81 b5 b8 45 07 71 3c a6 60 a4 ba 22 54 eb 3c
       -8.654961e-05 0.014711206 -0.001254101 0.028726641
000170 63 6c 9e bb da c5 06 3c 92 17 86 bc d8 03 8d 3b
       -0.004834698 0.008225882 -0.016368661 0.0043034367
000180 01 cd 11 3c d0 e1 e8 ba 21 b2 26 bc 84 07 47 bc
       0.008898974 -0.0017767493 -0.010174305 -0.012147788
000190 be d3 74 3c 48 c7 66 3c 5d b1 9b bb b5 63 24 3c
       0.014943061 0.014085598 -0.004751368 0.010033538
0001a0 3d 58 f8 bc 9b 38 73 3c 8c 43 a3 bc 46 72 fd 3b
       -0.030315513 0.014845039 -0.01992967 0.0077345697
0001b0 f6 68 8d 3c ad 5e 4f 3c c6 45 52 ba b8 09 bc bc
       0.017261963 0.01265685 -0.00080212613 -0.022953853
0001c0 62 85 a1 3c 86 7c a6 3c 6b 10 ec bb 3a ec 1d bc
       0.019716922 0.02032305 -0.0072041056 -0.00963884
0001d0 37 de 94 bc 72 d4 96 bc ec 04 bd 3b 0e ec 31 bc
       -0.018172367 -0.018411849 0.005768409 -0.0108595025
0001e0 c8 cd 0e bc 26 69 ea 3c f2 8a 0e 3c 6e eb 05 bb
       -0.008716054 0.028614592 0.008700119 -0.0020434516
0001f0 06 4f 77 3c 4b 08 5e 3a 32 b4 bc bb c3 59 db 3b
       0.015094524 0.00084698637 -0.0057587856 0.00669405
000200 c3 ad 54 3c a2 c4 b1 bc 2b 07 65 bd 12 0c 5f bb
       0.012980881 -0.021700207 -0.05591504 -0.0034034294
000210 93 9f 79 3c aa 89 ae 3c a5 c4 ec 3b 7a f6 54 bc
       0.015235799 0.021305878 0.0072255903 -0.012998218
000220 be bf f4 bc be 5b a0 bb d3 a3 d4 bb 98 f6 28 3c
       -0.029876586 -0.004893749 -0.006489256 0.010312699
000230 4d 78 b7 bc b4 7c 12 bd 7b 50 4f 3c 6a be 97 bc
       -0.022396231 -0.035763457 0.012653465 -0.018523414
000240 52 b1 3c bd 55 f9 e6 3c 87 84 ba 3c 1d bf 73 3c
       -0.046067543 0.028195063 0.022768272 0.014877108
000250 61 c4 ab bc 05 d4 87 3d d0 03 c0 bc ae 99 23 3c
       -0.020967664 0.066322364 -0.023439318 0.009985371
000260 6a ea 52 3c c0 b6 d4 bc d0 2a d4 3c cd fd b2 ba
       0.0128732715 -0.025966048 0.02589932 -0.0013655961
000270 70 b3 56 3c 61 c0 45 3b ea dc f5 3c f6 f2 6e ba
       0.013104305 0.0030174481 0.030012567 -0.00091151835
000280 92 2c 72 bc c3 04 3e 3c d8 96 02 3d 76 f3 9f bb
       -0.014781134 0.011597815 0.031882137 -0.0048813177
000290 96 89 99 3b 12 63 c4 3c d5 b6 35 bc 63 99 54 bc
       0.004685591 0.023973022 -0.011090954 -0.012976023
0002a0 78 b7 df 3c c9 fc ac b9 de d8 0f 3c da 65 27 3d
       0.027309164 -0.00032994736 0.0087797325 0.040868618
0002b0 4d c2 43 3c ea 64 11 bc b8 12 e4 3b 28 56 98 bc
       0.01194818 -0.008874157 0.0069602393 -0.01859577
0002c0 aa 4e ec 3b b6 54 18 bc 9a c1 df ba ce 6f 5d 3c
       0.007211526 -0.00929754 -0.0017071248 0.013515426
0002d0 38 82 a3 bc 9a c0 73 bd 16 bf d0 bc 42 8d 6b bc
       -0.019959554 -0.05950985 -0.025481742 -0.01437694
0002e0 13 37 95 ba 53 34 8a bc 2d c8 5b 3c 40 db 2f bb
       -0.0011384211 -0.016870653 0.013414425 -0.0026833564
0002f0 6f 8e b5 3c ea a2 34 bb e1 d6 8b 3c 28 e6 0f 3c
       0.022162644 -0.0027562925 0.017070236 0.008782901
000300 35 dd da bb 2c 92 93 3c 7e 8d 10 bd cb dd 2d bd
       -0.006679202 0.018014036 -0.035291187 -0.042447846
000310 9c a6 2f 3d 16 4b bf 3b 88 9e 67 3c ae 19 70 bc
       0.0428835 0.0058378084 0.014136918 -0.01465456
000320 12 16 40 bd 7e d9 bb bc dd 92 4e bc 00 1e 05 3d
       -0.046896048 -0.022930857 -0.012608257 0.032499313
000330 68 23 14 bc 1d a2 84 3c ce cf c0 3c 2b 52 c4 bc
       -0.009041645 0.016190583 0.023536589 -0.023964962
000340 64 e2 ab bc 8d 5f 28 3d da 21 99 3c 00 ef b7 bc
       -0.020981975 0.04110675 0.0186929 -0.022452831
000350 6a fc 21 bd 12 b8 80 bc 52 e8 09 3d 56 12 12 3c
       -0.03954736 -0.015712772 0.033668824 0.008915504
000360 70 d5 67 bc b5 38 43 3d 49 00 24 bc 9e 93 97 bc
       -0.014150009 0.047661502 -0.010009834 -0.018503007
000370 50 0a f0 3c 86 32 34 bc e0 01 a8 3c a3 cf a7 bc
       0.029301792 -0.010998374 0.020508707 -0.020484751
000380 f2 11 1e bc 82 74 e1 bb ad 84 90 bc 0a 5e fe 3c
       -0.009647833 -0.006880344 -0.01764139 0.0310507
000390 c9 84 b7 3c 7a e1 53 bc df 3f 0f bd 14 1d 95 bc
       0.022402184 -0.012932176 -0.03497302 -0.018202342
0003a0 82 1f 76 ba 75 1e 61 3a fd 91 fe 3b 72 05 c3 3b
       -0.00093888503 0.00085876073 0.007768868 0.005951577
0003b0 3e 12 13 bd c3 55 94 3b e4 0f b8 ba 86 48 e5 bc
       -0.03590607 0.004526825 -0.0014042822 -0.027988683
0003c0 84 e0 c8 bc 1f 8f b0 3c ed 8d 69 3b 6f 0a 06 bc
       -0.02452112 0.02155262 0.0035637573 -0.0081811985
0003d0 80 55 01 bd cd 3d e4 3c 40 55 d5 bb a8 62 91 3c
       -0.03157568 0.0278615 -0.0065104067 0.017747238
0003e0 33 84 51 3c 28 f3 1f 3b 26 e5 a7 bb 9e 4a c8 bb
       0.012787866 0.0024406407 -0.005123752 -0.0061124107
0003f0 20 60 d7 3c bd 36 54 3c 1a e6 72 3d f0 f4 16 bc
       0.026290953 0.012952504 0.059301473 -0.009213671

MatMul_1 f4 [32, 32]
000000 02 94 c9 3d 66 9d ee bd 80 99 10 3e ce c8 ef 3d
       0.098426834 -0.11651115 0.14121056 0.11708222
000010 a6 0b bc 3d 48 d6 a0 bd 0e a7 e8 bc 3d a6 29 bd
       0.09181909 -0.07853371 -0.02839997 -0.041418303
000020 d2 35 be bd 61 ec ac 3d f2 28 00 be 59 c9 19 bb
       -0.09287609 0.08443523 -0.1251562 -0.002346596
000030 ca b3 45 bd 19 62 32 be 5f 67 a2 bd aa f3 fb 3d
       -0.048267163 -0.17420234 -0.07929873 0.123023346
000040 ed d7 88 bd 8d 4e de 3c fd 6a 29 3d 0b 2a 8c bd
       -0.066818096 0.027137065 0.041361798 -0.068439566
000050 ab d9 fa 3d 66 cb e9 bb f5 32 60 bd aa f8 8d 3d
       0.12248548 -0.0071348427 -0.054736096 0.069321945
000060 92 5d 75 3d e8 e6 4f 3d e3 e6 7e 3d 27 f8 0a 3e
       0.05990369 0.05075732 0.06223191 0.13571225
000070 09 7a 48 3d 53 80 98 bd a6 4f e6 3d 08 66 cf bc
       0.048944507 -0.07446351 0.112456605 -0.025317207
000080 cf e2 35 3d 25 5e 26 be b0 07 a8 bd ba fb dc 3d
       0.044405755 -0.16246851 -0.08204591 0.107902005
000090 1a 8f fe 3d c0 54 e9 bd 10 93 0b be 42 4a 0d 3e
       0.12429638 -0.11393118 -0.13630319 0.13797858
0000a0 0e 56 ac 3c 2a a2 0f 3e df bc 13 3c 35 4c 8e bd
       0.021037128 0.14026704 0.009017198 -0.06948129
0000b0 ab 77 2e 3c 10 b5 ec 3d 76 f7 6e 3d 8a fc 1e 3d
       0.010648648 0.115579724 0.058341466 0.03881506
0000c0 46 fd 25 3e a0 2f 31 3e 95 93 53 bc e6 4c 46 3c
       0.16209897 0.17303324 -0.012913604 0.012103295
0000d0 54 be 0f be 5a b2 d6 3c d3 d2 ee bd 00 f3 9c bd
       -0.14037448 0.026208092 -0.11661305 -0.07663536
0000e0 fa 97 c0 3d 3d 2d c9 3d da 48 d0 3c b3 04 18 bc
       0.09403987 0.09823082 0.025425363 -0.009278464
0000f0 31 71 a9 3c 32 9a 11 3d 62 20 dc 3d 45 f7 00 3e
       0.020683857 0.035547443 0.10748364 0.12594326
000100 70 3d 72 bd 41 15 34 3d b8 a5 ca bd 02 08 18 3e
       -0.059140623 0.04396558 -0.098948896 0.14846805
000110 15 6a 29 3e 6b 88 f1 bd 4a 9f 2b 3e 00 f7 f8 3d
       0.16544373 -0.11793598 0.16759983 0.121564865
000120 4a 4f 8b 3d ea d1 25 be e3 cf b1 3d a3 17 ab bd
       0.068022326 -0.16193357 0.08682229 -0.08354118
000130 84 be 14 be 93 4a 02 3e 32 3f 38 bd 46 13 08 3e
       -0.14525801 0.1272376 -0.044982143 0.13288602
000140 44 fc 91 3d 25 f6 03 bc 9b ba 68 bd fd 2d 22 be
       0.07128194 -0.008054291 -0.056818586 -0.15837856
000150 8d 2c ff bc 31 94 8a bd 36 49 ac 3c 5d 01 a5 3d
       -0.031149173 -0.067665465 0.021031003 0.08056901
000160 4f 76 24 be 56 e8 01 be 42 0c 19 be b3 c3 cd bb
       -0.16060756 -0.12686285 -0.14946082 -0.0062794327
000170 c1 e0 84 bd e3 bb 53 3e fe f5 85 3b 18 75 d8 bd
       -0.06488181 0.20677142 0.0040881624 -0.10569209
000180 b2 33 34 3e 23 f8 21 bd e5 44 05 3e ab dc 17 3d
       0.17597845 -0.039543282 0.13014562 0.03707568
000190 f3 04 40 bc 01 da 0c 3e f6 a4 13 be 50 dd e7 3c
       -0.01171993 0.13755037 -0.14418396 0.028303772
0001a0 fb db 09 be fa 37 db bd e2 bb a9 ba 35 49 56 3d
       -0.13462822 -0.10704036 -0.001294967 0.05231591
0001b0 fe b9 32 3e 52 59 8f 3d e2 a3 d9 bd a2 b6 31 3d
       0.17453763 0.069994584 -0.10626961 0.043387063
0001c0 9e fb 10 be c8 05 07 3d 63 a3 f4 bd 29 07 2b 3c
       -0.14158484 0.032964498 -0.11945226 0.010438719
0001d0 e8 f9 53 bd 85 93 19 3c 31 93 1f be 70 a9 e2 3d
       -0.051752 0.00937355 -0.15583493 0.11067474
0001e0 f9 e0 a1 bd 7f e1 29 be e2 02 41 3e c9 39 32 3d
       -0.07904238 -0.16589926 0.18848756 0.04351214
0001f0 77 fb 1d 3e b2 3c 12 3d 3a 92 a4 3c a5 d0 4c bd
       0.15427957 0.035702415 0.020089258 -0.050003666
000200 f7 6d a2 3d fe 40 b2 3c 15 67 ff bd 1e 35 c7 bd
       0.079311304 0.021759506 -0.12470833 -0.09726928
000210 4c 4e 21 3e 10 d3 33 3c 62 c5 80 3c 4f 2e 4b 3d
       0.15752524 0.010975614 0.01571912 0.04960471
000220 03 50 06 3e 26 8b 19 3e 16 ab 7b bd 46 1f 3e 3e
       0.1311646 0.14994487 -0.061442457 0.18566617
000230 59 56 9d 3c a6 e7 85 bd e3 d3 7c 3d e5 e1 84 bd
       0.019206213 -0.06538324 0.06172551 -0.064883985
000240 f2 e7 12 bd 07 6f 2b 3e 37 90 38 3d 30 1b ac 3d
       -0.03586573 0.16741572 0.04505941 0.08403623
000250 a0 15 1d 3d 4e f7 36 3d 81 9c a9 bd 6e 5d 0a 3e
       0.0383507 0.044669442 -0.08281804 0.13512203
000260 cb 24 46 3e b9 36 10 be 42 3b 91 bd 2a 7a a6 bc
       0.19349973 -0.14083375 -0.07091381 -0.020321924
000270 28 be 6b 3d a5 11 5a 3d 8e 9e 1e be 45 4d 18 be
       0.057554394 0.053239483 -0.15490171 -0.14873226
000280 7e ae a9 3d 65 d1 bd ba 67 c4 ac 3d 47 82 97 3d
       0.08285235 -0.001448196 0.08435898 0.07397895
000290 0d fe c2 3d 9d 8d 1e 3e 98 a2 91 bd de 44 0f bd
       0.095211126 0.15483709 -0.071110904 -0.034977786
0002a0 d8 c6 76 bd 53 73 85 bd 9f 51 99 bc 1a e9 19 bd
       -0.060248226 -0.06516137 -0.018715678 -0.03757582
0002b0 e0 9a cf bd 26 34 ac 3d 57 f8 15 3c 03 6c d9 3d
       -0.10136962 0.08408384 0.009153447 0.10616305
0002c0 6d a1 ec bd 90 0b 02 bd 42 22 b9 bd 46 8d 4d bd
       -0.11554227 -0.031749308 -0.09039737 -0.050183557
0002d0 ea 13 5e bd 10 71 92 3b c7 f4 12 be 31 79 1e 3c
       -0.05421821 0.0044690445 -0.14351188 0.009672449
0002e0 9c 2e 32 3d c0 e9 d7 bd d0 0a f5 3c 15 ba 2e bd
       0.04350148 -0.10542631 0.029912382 -0.04265793
0002f0 62 b2 ff 3d a6 a5 05 3e 08 e0 bc 3c 26 ee ea 3d
       0.12485196 0.13051471 0.023056045 0.114712045
000300 26 40 8c 3d b6 70 2e 3e 52 f9 c0 3d 23 29 ba 3d
       0.06848173 0.17035183 0.09422554 0.090898775
000310 43 0d 4e 3e 94 80 a3 bd f8 ce 41 be 92 70 c4 bb
       0.20122246 -0.07983509 -0.18926609 -0.0059948647
000320 fc 7b 1b bd f6 6f 24 3e 1b 5e d7 3d 95 a0 19 3e
       -0.037960038 0.16058335 0.10515996 0.15002663
000330 ba e6 db bc b7 ea 10 be 9d 0b 14 3d 8b ec bc 3d
       -0.026843417 -0.14152037 0.036143888 0.092248045
000340 87 7e b1 bd 9f 47 06 3e 6e 19 30 be 6a ac 21 3e
       -0.08666711 0.13113259 -0.171972 0.15788427
000350 99 3c 44 bd 00 91 08 3e 9d 4a 5b be 16 1e 8d 3c
       -0.047909353 0.13336563 -0.21415181 0.01722626
000360 88 05 54 3e 13 a9 8d bd 10 28 86 bd 98 0f 67 ba
       0.20705235 -0.06917014 -0.0655061 -0.00088142743
000370 15 82 b6 3d 6b 8f 55 3d fb 3d fa 3d c1 2b 24 3d
       0.0891153 0.052138727 0.12218853 0.04008079
000380 16 00 a6 bb a8 40 07 be 58 bf b6 bd 26 da f9 3c
       -0.005065928 -0.13208258 -0.08923215 0.03049953
000390 ed 41 bb 3d ea 99 84 bd e6 1a 03 be 5e 5b 0f 3e
       0.09143434 -0.06474669 -0.1280323 0.13999698
0003a0 c3 8c ef bd fa 1e 1b 3d 6d e8 4a bc 23 9a bd bd
       -0.1169677 0.03787134 -0.012384516 -0.09257915
0003b0 80 60 18 3e 5e 68 a5 bc 24 33 01 3d 69 76 12 be
       0.14880562 -0.020191368 0.031542912 -0.14302982
0003c0 fc 37 86 3d 8b 93 16 3d d6 92 c8 3d bd 8c 5b 3e
       0.06553647 0.0367618 0.09793632 0.21440406
0003d0 d0 6d 44 3d 4e 0f 02 be 6a 54 3a 3d 66 0f e8 3d
       0.047956288 -0.12701151 0.04549066 0.11331062
0003e0 f1 eb 32 3e 69 be cb bd b0 77 79 3d 33 1a e8 3d
       0.17472817 -0.09948427 0.06090516 0.11333122
0003f0 ea 81 f4 bd 25 e5 50 3c eb d4 2b be 45 9f de bd
       -0.11938842 0.012749945 -0.1678044 -0.10870222

MatMul_2 f4 [1, 32]
000000 f0 a1 53 3d b2 de f3 3c 80 bf bb be 22 8d 70 3e
       0.051668108 0.029769275 -0.3666954 0.23491338
000010 5e 6a 83 3e 08 00 29 3e 4d 8d 4f 3e 9e 72 10 3e
       0.2566709 0.16503918 0.20268746 0.14106223
000020 00 7b 34 3e d0 d2 24 3e 9c d9 0c 3e 74 d4 25 3e
       0.17625046 0.16096044 0.13754886 0.16194326
000030 53 cf c7 be 2e 32 6e bc d3 73 7f bb d9 5f 43 3c
       -0.39025363 -0.014538331 -0.0038978949 0.011924707
000040 52 77 da 3d 04 76 3c bb 52 0c 42 3c eb 3a 29 3e
       0.1066729 -0.0028756866 0.011843758 0.16526382
000050 72 cb a5 be a6 4d e3 3d a2 4a 7e 3e 69 12 b6 be
       -0.3238178 0.11098795 0.24833158 -0.3556092
000060 8d 5a bd be bd c1 76 bd 3f c4 30 3d 80 de dc ba
       -0.36983147 -0.060243357 0.043155905 -0.0016850978
000070 cb d1 c8 be 0d b1 4d bd a0 23 bf be ea 6f 09 3e
       -0.3922256 -0.050217677 -0.37331867 0.13421598
