en/hey_snips/hey_snips.onnx (onnx, 208137 bytes, 9 tensors)

model/tf.math.add_1/Add/y f4 [32]
000000 da 92 79 bd d0 92 e9 bd b1 26 b0 bd f1 04 ac bd
       -0.060931064 -0.114049554 -0.0860113 -0.0839938
000010 83 d3 1c 3e 79 c4 b2 3d cd 16 9b 3c 7b 03 5b 3b
       0.1531506 0.087288804 0.01893177 0.0033418823
000020 7d b8 0b 3e d3 22 9d bd 99 6e 33 bd 07 f0 6c 3e
       0.13644595 -0.07672658 -0.043806646 0.23138438
000030 e6 02 81 bd e7 8e 08 be 39 e7 63 bd ac df 81 bd
       -0.06299381 -0.13335763 -0.055640433 -0.0634149
000040 22 cf db bd 65 b7 4a bd 71 1d 05 bd 0f 38 0b 3e
       -0.10732867 -0.049491305 -0.03249878 0.13595603
000050 a1 81 40 3d a5 05 d7 3c f7 38 d2 3b fb b9 13 be
       0.046998624 0.026247809 0.006415482 -0.14426415
000060 8d e1 80 bd 94 eb 0a 3e a8 1f 3d 3e 9a 3f 98 bc
       -0.062930204 0.13566428 0.18469107 -0.018585015
000070 fa 46 c3 3d 3f eb 28 be 3f d0 b0 bd e0 ec b2 3c
       0.09535022 -0.1649599 -0.0863347 0.021841466

model/tf.math.add/Add/y f4 [32]
000000 6c 68 7b 3d 52 54 c4 3d be d1 b8 3d a7 71 07 3d
       0.06137888 0.09586395 0.0902438 0.03306737
000010 23 0e 7a 3d 46 1f 7d 3c 61 98 06 3c 8f eb c1 3c
       0.061048638 0.015449351 0.008215041 0.023671893
000020 86 76 28 3d 1f bd 8a bc 5f 4d ef 3b 47 4b 67 3c
       0.041128658 -0.016935883 0.0073029245 0.014117069
000030 a6 13 5d 3d 1d b8 82 3d 9c d4 21 bc 44 30 7d 3d
       0.053973816 0.06382773 -0.00987735 0.061813608
000040 8a 7f aa 3d a2 ad 1e 3b e6 9c 65 3d 69 c7 7e 3d
       0.083251074 0.002421238 0.056057833 0.06220189
000050 93 2c bf 3c 07 72 a6 3d f7 04 5c 3c df 3a 27 3d
       0.023336684 0.08127218 0.013428918 0.04082763
000060 1c 4f 8e b9 4b bd 97 3d 41 7e 65 3b 95 98 70 3b
       -0.00027143292 0.07409152 0.003501788 0.003671204
000070 16 80 be 3d 27 3a df 3b 67 45 d3 3c 8f 39 68 bb
       0.09301774 0.006812352 0.02578993 -0.0035434698

model/layer_normalization_1/batchnorm/mul/ReadVariableOp/resource f4 [32]
000000 76 e9 c6 3f 64 7c 99 3f 61 b5 a1 3f 4e 8f a3 3f
       1.5539997 1.1991086 1.2633477 1.2778108
000010 d0 c5 90 3f 1d fa a8 3f 18 c7 9f 3f 25 8c 73 3f
       1.1310368 1.3201329 1.2482634 0.9513572
000020 ef 0b ab 3f 1b de a7 3f 4f d9 b9 3f a1 b9 aa 3f
       1.3363017 1.3114656 1.4519442 1.33379
000030 17 8d 99 3f 93 b4 8c 3f 33 83 9f 3f a9 f2 b7 3f
       1.1996182 1.0992607 1.2461914 1.4370929
000040 5c 14 90 3f 3a 0a ae 3f 20 d4 92 3f 1c bf b7 3f
       1.1256213 1.3596871 1.1470985 1.4355197
000050 af bc a8 3f 5c f3 a1 3f b5 d1 a3 3f d9 33 9d 3f
       1.3182582 1.2652392 1.2798373 1.2281448
000060 44 d7 ba 3f 41 0e aa 3f fc 1e ad 3f f9 c6 9e 3f
       1.4596944 1.32856 1.3525081 1.2404472
000070 c9 c5 94 3f c5 66 9e 3f 82 86 a4 3f 0a 67 92 3f
       1.1622859 1.2375113 1.2853549 1.1437695

model/layer_normalization_1/batchnorm/ReadVariableOp/resource f4 [32]
000000 05 42 09 bd fc d4 5a 3e 79 6b 0b 3e a4 22 1d 3e
       -0.033510227 0.2137031 0.13615216 0.15345246
000010 bf c6 4a 3e ce 44 ab 3c 83 79 0a 3e 24 51 80 be
       0.19802378 0.020906832 0.13522916 -0.25061905
000020 93 5a 15 3e 0f d6 2a 3e 00 62 8f 3e 5c 2d 88 3e
       0.14585333 0.1668322 0.28004456 0.26597106
000030 89 32 7a 3e a3 ea 17 3e 8e bc 04 3d 95 88 4d bd
       0.2443334 0.148356 0.032406382 -0.050179083
000040 20 73 1c 3e 0d e2 b1 3d 4c 5c 1b 3e 0e 3d be 3d
       0.15278292 0.08685694 0.15171927 0.09288989
000050 1c 97 92 3d 52 1a 3a 3e 7d 0f b7 bc ea b0 9b bc
       0.07157728 0.18174103 -0.022346253 -0.019005258
000060 47 cf 89 3e 30 49 47 3e 78 48 70 3e 69 cc 2b 3e
       0.26915953 0.19461513 0.23465145 0.16777195
000070 13 1c 65 3e a9 ca 84 3d 50 79 d6 3d 44 70 1c 3d
       0.2237399 0.06483967 0.10472357 0.038193002

model/layer_normalization/batchnorm/mul/ReadVariableOp/resource f4 [32]
000000 cd 62 8c 3f fd 26 a2 3f 36 04 a5 3f 91 83 84 3f
       1.0967652 1.2668148 1.289191 1.0352651
000010 e3 c9 55 3f c5 94 84 3f 2c 74 87 3f 50 d9 9d 3f
       0.8351118 1.0357901 1.0582328 1.2331944
000020 d0 4c 75 3f 24 38 81 3f 17 be 89 3f 8c 16 86 3f
       0.9582033 1.0095258 1.0761136 1.0475631
000030 b2 05 84 3f 68 ef 8e 3f 71 b2 88 3f 37 16 7a 3f
       1.0314238 1.1166811 1.0679456 0.9769015
000040 83 b7 a7 3f db 34 96 3f fa 5e 9a 3f 0c 33 73 3f
       1.3102878 1.173488 1.2060235 0.94999766
000050 a9 d4 76 3f 3b 95 85 3f b4 41 7f 3f 7d 49 81 3f
       0.96418244 1.0436167 0.9970963 1.0100552
000060 41 96 82 3f bc bd 8a 3f 2d 25 94 3f 84 2e 70 3f
       1.0202104 1.0839152 1.1573845 0.9382098
000070 19 ca 87 3f 27 56 94 3f cb ee 81 3f 35 cb 85 3f
       1.060855 1.1588792 1.0150999 1.0452639

model/layer_normalization/batchnorm/ReadVariableOp/resource f4 [32]
000000 d4 a2 95 3d df 73 4d 3d a7 b8 30 3d b9 a7 7e 3d
       0.073064476 0.05015933 0.04314485 0.06217167
000010 b8 80 12 bd 64 b1 e5 bc 4a f2 82 bc b5 d7 2f 3d
       -0.035767287 -0.028038688 -0.015984673 0.042930324
000020 86 8e 71 bd a3 ef 45 bb 10 b0 87 3d 5b cf a1 bc
       -0.05897381 -0.003020265 0.06625378 -0.019752195
000030 d3 2c e5 bc be 8a 81 3d 6d d6 4d bc 0c 6c 12 3d
       -0.027975475 0.06325291 -0.01256333 0.035747573
000040 3d 12 6d 3d 55 15 a6 3c 63 fb 72 bd 42 aa d3 3b
       0.05787872 0.020273844 -0.059321772 0.0064595053
000050 ce a7 9d bc e4 85 aa bd a7 df 89 3a 3f 2b 55 bd
       -0.019245055 -0.08326319 0.0010518924 -0.052043196
000060 19 4a 3e bc 51 70 c5 3d 7f fa ac 3c 3b be 07 bd
       -0.011614346 0.09640563 0.02111554 -0.033140402
000070 ac 2b a2 3d a9 0e 2f 3d 3c c4 e7 bc 14 f2 97 bc
       0.07918486 0.04273859 -0.028291814 -0.018548049

const_fold_opt__25 f4 [32, 32]
000000 d5 45 4e 3e 18 6d e4 bc a2 59 ae bd 0a 54 1e be
       0.20143826 -0.027884051 -0.0851319 -0.15461746
000010 2f 2a 0f 3d 8b 41 ed 3d 54 45 88 be f0 33 d6 bd
       0.03495234 0.11584767 -0.26615393 -0.10459125
000020 07 6c 2c 3e 5a 89 53 3d ca b6 c1 3d 3e b7 33 3e
       0.16838084 0.05164466 0.09458692 0.1755037
000030 9c 9c 08 bc 26 89 62 bd a4 1f c0 3d 0c d5 52 3e
       -0.00833812 -0.055306576 0.09381035 0.20589083
000040 68 e7 dd 3d 60 61 81 bd 67 b0 c1 3d 04 3c 2c 3e
       0.10835153 -0.06317401 0.09457474 0.16819769
000050 a3 6d f8 bd 57 09 01 be 47 15 82 bd 62 f1 66 3d
       -0.121302865 -0.12601219 -0.063517146 0.056382544
000060 36 f3 52 3d f9 5b 47 be f0 ff 03 be ed e5 2b be
       0.051501475 -0.19468679 -0.12890601 -0.16786928
000070 15 e6 0d 3b dc d2 1f be 37 2f 11 be d6 48 d1 bd
       0.0021652032 -0.1560778 -0.14178167 -0.102189705
000080 d8 4e ad 3d 0e 9a 74 bd 81 50 05 be 69 7e 80 be
       0.08462304 -0.05971723 -0.13018991 -0.25096443
000090 1d c8 9a 3e f5 89 24 3d eb 54 82 be 28 3a be 3d
       0.302308 0.04017063 -0.25455412 0.09288436
0000a0 1b 79 0e bc a3 75 58 bd 08 73 9e 3e d0 cd 99 3e
       -0.008695866 -0.052846562 0.30947137 0.30039835
0000b0 60 56 5f 3e b4 7c 61 3e 51 12 0a 3d 72 6f a8 3d
       0.21810293 0.22020227 0.033708874 0.082243815
0000c0 ae ed 0e 3e b6 01 1b be 86 25 85 3e 45 7d bf 3c
       0.13957855 -0.15137371 0.2600519 0.023375163
0000d0 5a b3 0d be f0 5c 36 be b7 43 0a be 69 dc 07 bc
       -0.13837948 -0.1780889 -0.13502394 -0.008292296
0000e0 04 d5 d5 3e 67 ee 99 be 69 74 78 3e 77 42 6a be
       0.4176408 -0.300647 0.24263157 -0.22876917
0000f0 d5 b4 be 3e 6c 38 3a be db 6d 33 be e1 2d 30 be
       0.3724734 -0.18185586 -0.17522375 -0.17205001
000100 b6 73 c3 bd c8 83 27 3b 0f cf 9d bd 84 28 11 be
       -0.095435545 0.0025560725 -0.07705509 -0.14175612
000110 a2 b2 b2 3e 55 74 ef bd 2c 15 e8 bd 96 9b 9d 3d
       0.3490191 -0.116921104 -0.11332163 0.07695691
000120 40 bc 1f be 1c 46 dc bd 73 32 a2 3e 11 2c e0 3e
       -0.15599155 -0.1075556 0.31679115 0.4378362
000130 0e f3 72 3e f4 3d c6 3e 6d 36 9f bd 20 53 ee bd
       0.2372553 0.3871914 -0.07774053 -0.116369486
000140 6e 4f 61 3d 87 6b 49 be 42 9c 1d 3e 76 51 d4 bd
       0.05500739 -0.19669925 0.15391639 -0.103671
000150 70 60 ef bd 68 23 5c be 42 b6 00 be 06 3e bd bc
       -0.11688316 -0.21497881 -0.12569526 -0.023100864
000160 b5 c0 7b 3e 89 a8 4b be 10 d3 89 3e 77 a8 49 be
       0.2458523 -0.1988851 0.2691884 -0.1969317
000170 fb 13 76 3e 0c 5f fb bd 10 78 d1 bd 13 10 02 be
       0.2403106 -0.12273988 -0.10227978 -0.12701444
000180 24 aa 39 3d 70 bb f0 bc af 73 c7 3d b6 60 1b 3e
       0.045328274 -0.029386252 0.09738862 0.15173611
000190 3c 19 75 be d0 ef 02 3e 90 3f 20 3e f9 ce 95 3c
       -0.23935407 0.12786794 0.15649247 0.018287169
0001a0 3f cb 0f 3d 6f 15 0c 3e 2e 8d 94 bd e5 b7 65 be
       0.03510594 0.13680051 -0.072534904 -0.22433431
0001b0 5d 1a 82 be 6d 64 24 be b0 43 67 3e 50 b9 8e 3c
       -0.2541074 -0.16053934 0.22584414 0.017422348
0001c0 ae e6 77 bd 51 a9 28 3e 5c c4 cc 3c 0e 3c ec 3d
       -0.060522728 0.16470839 0.024995975 0.11534892
0001d0 5c c1 86 3e 4b 5a 1b 3e 42 3b 93 3d 0f cd 90 3c
       0.26319396 0.15171163 0.07189037 0.017675905
0001e0 02 96 16 be f1 f7 24 3e 3f f2 0f be e0 25 73 3e
       -0.14705661 0.16110207 -0.14057253 0.23744917
0001f0 4b b5 5f be fb 77 5f 3e 63 46 88 3e ed 8d af 3d
       -0.21846502 0.21823113 0.266162 0.08571992
000200 04 12 0d 3e d3 d0 bc bd 3c 39 40 3d e1 b0 82 bc
       0.13776404 -0.092195176 0.046929583 -0.015953483
000210 b6 01 00 3e 82 d1 93 3d f1 b8 43 bc a3 dd 23 3e
       0.12500653 0.07217695 -0.011945949 0.16002516
000220 12 ff a5 bd 4e a2 cb bd 11 3f 91 bd 69 ff bf bc
       -0.081052914 -0.099430665 -0.07092107 -0.023437219
000230 d5 ce af bd 68 c8 0b be 4a bf b2 3d b0 6e 13 3d
       -0.08584372 -0.13650668 0.08727892 0.03599423
000240 ca 35 ed 3c ea b9 ab 3d fa f2 74 3d 3e d0 80 bd
       0.028956313 0.0838507 0.059802033 -0.06289719
000250 54 eb cc 3d a2 09 ad bc 0e 98 39 bd ba 12 e9 bc
       0.10005823 -0.021122757 -0.045311026 -0.028451312
000260 01 b3 2d 3e 3e f8 c3 bd c4 a0 03 bd 31 d7 40 3d
       0.16962816 -0.09568833 -0.03213574 0.047080223
000270 5b 46 94 bc 61 6d 94 bd 1a 51 d4 bd 89 f9 8c bd
       -0.018099954 -0.07247425 -0.103670314 -0.068835326
000280 4a 86 91 3e 78 97 de 3b 5c 22 1e 3e 03 2e f2 3d
       0.28422767 0.006792959 0.15442795 0.11825182
000290 30 b8 19 be ef b0 15 3d 00 b0 14 3e 63 ac 85 3d
       -0.15011668 0.03654569 0.14520264 0.06527021
0002a0 35 0f bf 3d 2f 15 b0 3d 59 ea 59 be 42 31 88 bd
       0.093290724 0.085977904 -0.21280803 -0.0665002
0002b0 4b 9a 36 be 81 c6 49 be fc 51 8f bc 9a ed 9d 3e
       -0.17832296 -0.1970463 -0.017495148 0.30845338
0002c0 05 62 7a bc 47 19 06 3e 1b 1a a5 bd 13 62 d6 3d
       -0.015282159 0.1309558 -0.0806162 0.10467925
0002d0 c3 96 6d 3e af e5 16 3e aa 50 b9 3d 09 22 db 3d
       0.23202042 0.14736055 0.090485886 0.10699851
0002e0 fb 3b 11 be 13 db b4 3d fa 98 8e be 54 f1 dd 3d
       -0.14183037 0.088308476 -0.27851087 0.10837045
0002f0 da 4a 03 be 71 19 50 bc b9 91 a2 3d 3b 4e 20 3e
       -0.12821522 -0.012701378 0.07937951 0.15654843
000300 92 cf 41 3e f0 86 2e 3d f3 16 f8 3d 7c fa 35 3e
       0.18926838 0.042609155 0.12113752 0.17771333
000310 88 31 70 be 09 f3 ae 3d dd b6 5c 3e de 73 18 3e
       -0.23456395 0.08542449 0.21554132 0.1488795
000320 a7 46 9b 3e 24 71 42 3e a5 be 4d be 50 ed 43 be
       0.3032734 0.18988472 -0.20092256 -0.19133496
000330 c5 31 33 bc 0f d4 8c bd ac 35 a3 3e 0a 70 4d 3e
       -0.010937159 -0.068763845 0.31876886 0.20062271
000340 20 51 58 3d 7a d4 bf 3e de 4a d0 3d 2d 09 1f 3e
       0.05281174 0.37466794 0.1017053 0.15530844
000350 bf 06 2b 3e 7a ed c2 3e 5f 00 39 3e c8 2b 95 3d
       0.16701792 0.38071805 0.18066548 0.07283741
000360 29 75 48 3d e4 26 86 3e ed d6 07 bd 64 94 89 3e
       0.048939858 0.26201546 -0.033163954 0.26871026
000370 2c 0c df bd e4 5b 10 3e 31 c0 b2 3d 68 c8 90 3e
       -0.108909935 0.14097553 0.08728064 0.28277898
000380 1e 75 e1 3e f0 bb 28 bc 18 29 34 3e d7 74 bd 3e
       0.44034666 -0.010298714 0.17593801 0.37003204
000390 72 be 40 be 49 92 b1 3e 25 20 91 3e c5 7e 73 bc
       -0.18822649 0.3468192 0.28344837 -0.014861767
0003a0 81 55 e2 3e c3 08 d5 3e 3d 8d 8e be 1c fe ee be
       0.4420586 0.41608247 -0.2784213 -0.46678245
0003b0 19 96 81 be 82 9b 6d be 31 25 c9 3e cb 62 e5 3e
       -0.25309828 -0.23203853 0.39286187 0.44801936
0003c0 e6 d3 f7 3d 1b 47 af 3e 16 e5 1e bd 95 4d c2 3e
       0.12100963 0.34233937 -0.038792692 0.37949815
0003d0 cc 10 bd 3e 58 d9 a7 3e 02 84 6b 3e 19 47 85 3e
       0.36926877 0.32783008 0.22999576 0.26030806
0003e0 f2 e2 54 be e1 f6 a1 3e f4 a0 0a be fe 66 d5 3e
       -0.20789698 0.31633666 -0.13537961 0.4168014
0003f0 41 91 26 be 5e 4b 66 3e d5 dc 0b 3e 78 bb 28 3e
       -0.16266347 0.22489688 0.1365846 0.16477764

const_fold_opt__23 f4 [32, 1]
000000 89 7e 0f 3f 0f f8 77 3e 30 7f 98 3e b4 51 ca 3e
       0.5605245 0.2421572 0.29784536 0.3951546
000010 96 b4 80 be b1 19 b5 3e 24 f8 c1 3e d5 7c 61 3e
       -0.25137776 0.35371163 0.3788463 0.22020276
000020 8c e9 cb 3e 24 ad a3 3e 2d 9e 0f bf 7a 3c e5 be
       0.3982662 0.31968033 -0.5610073 -0.44772702
000030 26 00 96 be 9c 6c 53 be 59 02 c8 3e fd 38 0a 3f
       -0.29296988 -0.206469 0.3906429 0.5399321
000040 49 12 41 3e 30 9c f1 3e f7 c3 2b 3e 17 f8 dd 3e
       0.18854631 0.47189474 0.16773973 0.4335334
000050 d3 0b b3 3e aa 03 b0 3e 6e f3 8f 3e c7 19 6f 3e
       0.3496996 0.34377795 0.2811541 0.23349677
000060 3a 78 09 bf be 17 c0 3e 70 0d ee be dc 12 c5 3e
       -0.53699076 0.37518114 -0.46494627 0.3849095
000070 63 e8 83 be 67 33 a2 3e 37 5c bc 3e 47 0a 9b 3e
       -0.25763234 0.31679842 0.36789104 0.30281278

const_fold_opt__22 f4 [1536, 32]
000000 83 9b bd bb 3d 15 5c bd d0 a0 f7 bc 2d c3 ce bc
       -0.0057863607 -0.053731192 -0.030228049 -0.025239551
000010 b9 23 ac bc fd 8e 87 bd 17 9a 16 bd 9b 94 5e bd
       -0.021013128 -0.0661907 -0.036768045 -0.05434094
000020 33 0e 88 bd 89 83 07 bd 40 8c b7 bc 79 3c 81 bd
       -0.06643333 -0.033084426 -0.022405744 -0.06310362
000030 12 00 ba 3d f7 fc b4 bd b7 51 38 bd 66 71 27 bd
       0.09082045 -0.08837312 -0.044999804 -0.04087963
000040 54 14 a9 bd 75 06 09 3c 6a 73 56 3c f8 c9 a6 bd
       -0.082558304 0.008363356 0.01308904 -0.08143991
000050 db 1a c8 3c 6d ab f9 bc eb 4c 56 bc 07 fe 0f 3d
       0.024426868 -0.03047725 -0.013079862 0.03515437
000060 8e 64 c8 3c a6 b9 32 bd 7e a2 1e 3d 32 09 55 bd
       0.02446201 -0.04363408 0.038729183 -0.052010722
000070 7f 1f 37 bd 34 41 9c 3c f8 24 d6 ba 7a 18 3b bd
       -0.04470777 0.01907406 -0.0016337922 -0.04567764
000080 15 78 5b 3c a0 ed d1 3c 9f 41 ac 3b 90 7d 42 3d
       0.013395329 0.025626004 0.005256846 0.047483027
000090 84 08 e3 3c e3 61 89 3d 7a 04 ac 3c d5 8d 5c 3d
       0.027714022 0.067081235 0.020998228 0.0538462
0000a0 79 cc 98 3d 6a 5f 82 3d 51 bc 09 3d 84 4f a4 3d
       0.07460875 0.06365855 0.03362686 0.08022979
0000b0 80 38 74 3c 5d 2a c8 3c e5 ab 6c 3d 2a a8 d2 3c
       0.014906049 0.024434263 0.05778112 0.025714952
0000c0 ca 09 1c 3d 44 63 45 3d d0 74 3c 3d 8c 93 1f 3c
       0.038095273 0.04819037 0.04600984 0.009739768
0000d0 c6 1a f7 3c 43 97 13 3d 82 c9 7b 3d 70 06 0a 3d
       0.030164134 0.036032926 0.06147147 0.033697546
0000e0 fd 8b 15 3d 0a ba 0e bc b4 e2 be bc 14 9b 9d 3d
       0.036510456 -0.008711347 -0.02330146 0.076955944
0000f0 60 5d 06 bc 49 aa 74 bb dc cc 4a 3d 0e 79 bd 3d
       -0.008200973 -0.0037332943 0.049511775 0.09251605
000100 b5 f5 72 3d 35 9e c4 bc 9e 2f 6d 3d ea f8 01 bb
       0.059316356 -0.02400122 0.05790674 -0.0019832202
000110 1a 07 1d 3d 3d 99 bd 3d 4c 4c 1d 3d f2 2a 03 3d
       0.03833685 0.092577435 0.03840284 0.032023378
000120 ef 88 17 bd b7 5f 9a 3d d4 f0 53 bc ec 67 f6 3d
       -0.036995824 0.075377874 -0.012935836 0.1203154
000130 9a 16 03 be 31 93 6a 3d b8 f7 c9 3c 7d 6b 24 bd
       -0.1280159 0.05726928 0.024654254 -0.04014157
000140 3c e6 06 3e 05 25 87 3d bc 21 12 be 38 b2 c6 bc
       0.13173765 0.06598858 -0.14270681 -0.024254903
000150 01 fd 4b bd 87 1a 2f bd a0 3b e0 ba d6 1d 32 be
       -0.04980183 -0.042749908 -0.0017107613 -0.17394194
000160 6a 60 ad 3c e3 f1 bd 3c 46 95 b2 bc a2 63 76 3c
       0.021164138 0.02318663 -0.021799695 0.015038403
000170 61 f4 5e bd 87 cd 34 bc 8b c5 ed bc aa 4f c1 3d
       -0.054432277 -0.01103533 -0.02902486 0.09439023
000180 72 a1 66 3b e1 40 aa 3d ed 1e be 3d 0d ca d0 bd
       0.0035191444 0.08313156 0.092832424 -0.10194788
000190 78 c7 28 3d 7e 3e 0a be 50 c5 82 bd f6 85 93 bd
       0.041205853 -0.13500401 -0.063852906 -0.072032854
0001a0 53 45 a5 bd c9 8e 1b be ad 35 9d bd f0 b9 c9 bd
       -0.08069863 -0.15191187 -0.076762535 -0.09849918
0001b0 26 0b 87 bb 20 0e 20 bd 34 18 35 bd 61 9b 2f 3d
       -0.004121202 -0.03907597 -0.044212535 0.04287279
0001c0 e2 32 58 3d b5 e0 b8 bd 13 cb e4 bd ef a1 68 3d
       0.0527829 -0.090272345 -0.11171546 0.056795057
0001d0 2e b7 4a bd 24 0b 08 3d 4b eb ec bd 27 a4 6d bc
       -0.0494911 0.03321375 -0.11568316 -0.014504469
0001e0 ed 96 eb bd 77 42 b6 3d 2b fe a7 bc 88 6e ba bd
       -0.11503396 0.08899396 -0.020506939 -0.091031134
0001f0 e1 e4 92 3d ae 2d eb bc b2 dd 90 bd ab 4c 29 be
       0.071725614 -0.028708305 -0.07073535 -0.16533153
000200 f0 c5 35 3c ea 96 22 3d 10 76 34 ba 12 61 75 3d
       0.011094555 0.039694704 -0.0006884048 0.059907027
000210 65 ec 08 3c 3a 36 e2 3d 99 45 b9 3c 31 9e 13 3c
       0.008357142 0.11045499 0.022616195 0.009009884
000220 fe 72 2c 3d 03 f7 8b 3d 2b 9a a2 3d 79 a7 23 3d
       0.042101853 0.06834223 0.079395615 0.039954636
000230 73 d0 56 3d 43 45 4b 3d 12 86 75 3c d2 b6 17 3d
       0.052444886 0.0496266 0.014985578 0.037039585
000240 36 d9 86 bc a1 9f cf 3d 5e 10 a1 3d 43 78 a7 3c
       -0.016460996 0.10137869 0.0786445 0.020443087
000250 b5 24 3b 3d 3c e2 19 3d e1 78 79 3d fd 35 1c 3d
       0.045689303 0.03756927 0.060906295 0.038137425
000260 b2 5b a8 3d 06 42 0a 3d ca 61 10 3d 25 ec 37 3d
       0.082206145 0.03375437 0.03524951 0.04490294
000270 fa 45 2f 3d f0 a9 a3 3d 78 f7 ad 3d 5b 6f a5 3d
       0.042791344 0.079913974 0.084944665 0.0807788
000280 11 29 63 3d f3 f5 03 3d 29 6b 55 3d 91 58 26 3d
       0.055459086 0.032216977 0.05210415 0.040611807
000290 97 c8 0e 3d 78 c1 95 3c 2d 9b c9 3c 07 5c 14 3d
       0.034859266 0.01828073 0.024610126 0.036220577
0002a0 22 1b 77 3d 39 3a 87 3c 18 e5 d1 3c da 68 91 3b
       0.06032861 0.016507255 0.025621936 0.004437548
0002b0 ff c5 65 3d 0e 6b 86 3c 97 aa 6c 3c 3d 00 21 3d
       0.056097027 0.01640847 0.014444969 0.039306868
0002c0 50 90 80 3d 2b 00 7d 3d 47 c2 51 3d b9 9e a7 3c
       0.062775254 0.06176774 0.051210668 0.020461427
0002d0 4b 12 95 3c a6 c1 6b 3d 46 85 ff 3c af 83 bb 3c
       0.0181972 0.057557724 0.03119148 0.02288994
0002e0 9a b5 b4 3c db 52 3d 3d 51 5c 33 3d bf cb 56 3d
       0.02205925 0.046221595 0.04378921 0.0524404
0002f0 a5 f2 f4 3c 02 42 1f 3d 47 09 88 3d c2 25 52 3d
       0.029900858 0.03888131 0.066423945 0.05130554
000300 9e 60 2a 3c c0 05 c2 bc 29 d6 ab 3d dc 37 05 3d
       0.010399012 -0.023684382 0.08390457 0.032523975
000310 79 ff 4e 3c a8 22 7f 3d 43 c6 30 3c 00 55 00 3d
       0.012634152 0.06228891 0.010789457 0.031331062
000320 8d bd c4 3d 73 b0 a3 3d 90 09 e4 3d 14 26 bf 3b
       0.096064664 0.079926394 0.111346364 0.0058333967
000330 1d 39 07 bd 36 16 ba 3c 94 80 41 3d 71 91 c5 3c
       -0.03301345 0.02271567 0.047241762 0.024117203
000340 93 60 f9 bb 78 7a c4 3d 56 8a 25 3d 27 86 32 bd
       -0.0076103895 0.095936716 0.04041513 -0.04358497
000350 21 e1 b0 3d cc bb 6a 3d 1b f3 b2 3d 82 f1 8b 3c
       0.0863669 0.057308003 0.08737775 0.017082933
000360 8d 9f a7 3d d7 0e 2f 3c f0 50 59 3d a3 aa 4a 3d
       0.08184729 0.01068469 0.053055704 0.049479138
000370 ec 2d 77 3c af 31 a9 3d e4 86 ce 3d 89 fd e5 3c
       0.015086632 0.082614295 0.10084322 0.028074997
000380 7d 55 43 bd b8 5b 1a 3d d2 28 f0 3c 28 45 28 bc
       -0.04768895 0.037685126 0.02931634 -0.010270394
000390 0b 4c 25 bd 21 14 f1 bd 6c c2 9b bd 54 7f b5 bd
       -0.040355723 -0.117714174 -0.076054424 -0.088621765
0003a0 27 20 0b bd d7 bc eb bd 56 aa 87 bd 79 66 b2 bd
       -0.03396621 -0.11510628 -0.06624286 -0.08710951
0003b0 73 d2 16 bd b0 23 1b bb 8b f2 ae bd e4 40 b9 3c
       -0.036821794 -0.0023672394 -0.08542355 0.02261395
0003c0 41 67 5e 3b 6a 1a d6 bd a3 80 1d bd 95 c8 41 3d
       0.0033936056 -0.10454257 -0.038452756 0.04731043
0003d0 bd 5d 75 bd 0d 1c 54 bc 08 c2 85 bd 3e 37 05 3c
       -0.05990385 -0.012946141 -0.06531149 0.008130847
0003e0 9a e0 ed bd 1f 1b 7d 3c ed bf 04 bd d3 2d d4 bd
       -0.11615105 0.015448361 -0.032409597 -0.10360303
0003f0 af 70 13 3d b9 30 a5 bd 2d 40 33 bc c3 77 88 bd
       0.035996135 -0.08065934 -0.010940594 -0.06663468
