en/sheila/sheila_v2.onnx (onnx, 208134 bytes, 9 tensors)

model/tf.math.add_1/Add/y f4 [32]
00000000: a449 10bb 9d9d 133e ef6e 22be 47d0 f0bd
00000010: 4f9b 6f3c 70c7 58be b0cc 313e 0bc1 01be
00000020: db7c 9e3d 8a75 273e 3848 1cbe 7b69 af3c
00000030: 0956 933d b20e b8bd e9e5 cbbd 3ce3 913d
00000040: 5c08 b23c f2a4 8f3d 5307 013d a1f3 a63d
00000050: 98b0 043e bfb4 e1bd 2617 62bd f435 14bc
00000060: 4a83 3b3e 8cfa 043e 1a75 ed3d 212d 6739
00000070: 90b1 bd3d 3d42 1ebd a840 b2bd 1d41 c03d
-0.002201655 0.14415593 -0.1586263 -0.11758476 0.014624431 -0.2116983 0.17363238 -0.12671296
0.07738658 0.16353431 -0.15261924 0.021412602 0.07194144 -0.08987178 -0.09955961 0.0712342
0.021732502 0.07013883 0.031501126 0.08151937 0.1295799 -0.11020803 -0.055197857 -0.009046067
0.18311802 0.12986201 0.11594601 0.00022046689 0.09262383 -0.03863739 -0.087037385 0.093874194

model/tf.math.add/Add/y f4 [32]
00000000: 78e2 f23a 9fcb 8c3d 42eb d23c ad76 893d
00000010: c100 903d 4ba4 a3b9 6ff7 de3c ae63 7a3c
00000020: a191 f53c 5145 aa3d fc64 aa3c 17a1 753c
00000030: b32c 9a3d 318c 003c 2106 893d 9783 1c3b
00000040: 0f84 ec3c 0220 9d3d 3056 c73d 422a 0cbc
00000050: a085 be3b fd60 cf3c a3a3 0f3d 4818 1f3c
00000060: 5a6c 013d 8279 e5bb d36e 5e3c 52ae cd3d
00000070: 4bce 813c bd0e 843d 20d8 163c 9ece 8bbc
0.0018530628 0.06874775 0.025746945 0.06712089 0.07031394 -0.0003121219 0.027217595 0.015282555
0.029976668 0.08314002 0.020800106 0.01499202 0.07528057 0.007845924 0.06690622 0.0023882145
0.028871564 0.07672121 0.09733236 -0.008554997 0.005814269 0.025314802 0.035068166 0.009710379
0.031597473 -0.0070030103 0.013576227 0.100430146 0.015845438 0.064481236 0.009206802 -0.017066296

model/layer_normalization_1/batchnorm/mul/ReadVariableOp/resource f4 [32]
00000000: 0d75 a63f 9b2a a63f a0f3 973f c46a a23f
00000010: ec37 a23f 4f38 a53f c8ed c43f 81d3 963f
00000020: 9bc2 983f 0288 ad3f c497 953f 63c0 973f
00000030: 87be 9a3f 256a 993f c000 9a3f a95b a13f
00000040: 10b3 a13f 8e53 823f 743f a03f cb22 7a3f
00000050: b7c6 753f 95dc 953f 8597 9a3f ad53 a43f
00000060: f8e1 9e3f 9ae0 983f 9dd6 9c3f 4eaf 9e3f
00000070: 8faa ac3f 4155 a13f ecd4 a63f 3db9 853f
1.3004471 1.2981752 1.1871223 1.2688832 1.2673316 1.2907809 1.5385065 1.1783296
1.1934389 1.3557131 1.168694 1.1855587 1.2089394 1.1985518 1.2031479 1.2606097
1.263277 1.0181749 1.2519364 0.9770934 0.9600634 1.1707941 1.207749 1.2838036
1.241271 1.1943543 1.2252995 1.2397249 1.348955 1.2604142 1.3033729 1.0447155

model/layer_normalization_1/batchnorm/ReadVariableOp/resource f4 [32]
00000000: 0f1f 173e 167a 063e 0614 0ebc 287f 903c
00000010: df7e 373e 54a5 913d c206 993e 9d08 70bd
00000020: 059e 833d c419 a83d 1730 213d efc3 d13d
00000030: 3800 5f3d 8611 5f3e 6854 8dbd bf9e 3c3e
00000040: 3eb2 8c3e 8893 8d3d 69fd 2b3e 76f7 d5bd
00000050: 7cdf 07bf 4b9d 30bd 4748 273e 4754 843e
00000060: d269 7f3e 3385 8a3d 35ef 0d3e 0de2 6d3d
00000070: 0ff3 e03d c9f3 673e f01b 1c3e e928 173c
0.14757942 0.1313251 -0.008671766 0.017638758 0.17919491 0.07111612 0.29887968 -0.058601964
0.06426624 0.082080394 0.039352503 0.102424495 0.054443568 0.21784028 -0.06900865 0.18419932
0.27479738 0.06912905 0.16795887 -0.1044759 -0.53075385 -0.043118756 0.16336165 0.2584555
0.24942711 0.06763687 0.13860781 0.058076907 0.1098386 0.2265159 0.15245032 0.009226062

model/layer_normalization/batchnorm/mul/ReadVariableOp/resource f4 [32]
00000000: c266 8e3f 082d a93f f7c3 773f d257 9b3f
00000010: 0be0 973f 3b7e 873f deb5 833f 3e0f 813f
00000020: 857b 843f 4e76 bd3f be45 803f 255f 8e3f
00000030: ea6b 8b3f cb74 7d3f f2c6 943f 4a6f 8a3f
00000040: 3304 7f3f 2d6d 863f d90a 963f 8d9a 803f
00000050: d8ea 7e3f 3f98 873f 4a6c 853f 31d2 623f
00000060: 795e 833f ba8e 763f deec 7a3f 2590 a03f
00000070: ac74 853f 1830 853f 2f63 853f 2c1f 983f
1.1125109 1.3216867 0.96783394 1.2136176 1.1865247 1.0585397 1.0289876 1.0082777
1.0350195 1.4801729 1.0021284 1.1122786 1.0892308 0.99006337 1.1623213 1.0815213
0.9961578 1.0502068 1.172206 1.0047165 0.99577093 1.0593337 1.0423672 0.88601977
1.0263206 0.96311533 0.9801768 1.254399 1.042623 1.0405302 1.0420893 1.1884513

model/layer_normalization/batchnorm/ReadVariableOp/resource f4 [32]
00000000: 87f4 c1bc 0cd3 db3d c01c 56bd d5c4 f23d
00000010: 1c5c dd3d a547 a4bc f2a1 a63c 3200 c4bb
00000020: 638f 233b a735 d73d dadf 2c3b 56ae d63c
00000030: 643c f13d 90b1 fdbc 1281 d53d d934 8b3d
00000040: 51cb bdbc 62e1 fc3d ce67 e03d 3ce6 57bd
00000050: 11b8 85bc f1f1 e3bc 226f 923d 2be1 a0bd
00000060: 66bb 843c bd3b 29bd 0b2e ed3c 59bc cb3d
00000070: 6e2b 01bc 3fd3 653c 319e 973d 4b6f afbc
-0.02367617 0.10733613 -0.052273512 0.11853949 0.10808584 -0.020053694 0.020340893 -0.0059814686
0.0024957291 0.1050828 0.0026378543 0.026206177 0.11779097 -0.030968457 0.10425009 0.06797189
-0.023168238 0.12347676 0.10957299 -0.052709803 -0.016323121 -0.027825328 0.07150103 -0.078554474
0.01620264 -0.041316736 0.028952619 0.09948034 -0.00788389 0.014027416 0.074032195 -0.021415373

const_fold_opt__25 f4 [32, 32]
00000000: 2fa9 b33e 0e9c b23e 81fc 803e 65a4 ae3e
00000010: 098f f4bd 917e 883e edfe 0bbe dc7b 8d3e
00000020: 9ec9 9f3e 3516 203e ee66 863e 7d72 803e
00000030: f527 af3e 882d 5fbe 9874 cd3e e9e9 ba3e
00000040: 88e6 99be 406b c1be 5227 bf3d 6029 833d
00000050: ba54 40bd be1c bf3d 6f94 a63e 598c 96be
00000060: 0a4b 5fbd 94e6 c93e 5115 de3e 26de d23e
00000070: 9a60 4b3e 01c5 2ebe 14d9 9b3e 9f80 833e
00000080: 594f fdbd 4b4a 5fbd 9ab2 86bd fbff 1f3e
00000090: d176 cc3e 6f50 b2be 61cd b53e 9b19 2bbd
000000a0: 6ef1 ce3d 3e7f b73c 6f70 22be 0123 a2be
000000b0: 4fb6 883c a1c3 db3e 008f b3be 4f2c 83be
000000c0: e0a9 e13e a010 ab3e ecb1 47be 8816 923d
000000d0: 2f03 b23e 2c6e f0bc d3b7 92be 44cc 8e3e
000000e0: a53f a13e 7550 4fbe dd5e b9bd 7dec 6bbe
000000f0: 2621 49be 7d63 d53e 9871 84be 52e3 a5bd
00000100: c05c fb3d 6ca4 383e 8c13 283e 22d6 a13e
00000110: 776a dcbd 5255 093e a03d 273d 1795 e53d
00000120: 2ff8 6a3e 378b 8b3e 8eaf 3d3e 9314 3e3d
00000130: 9e83 583e 2c3c 983c 1796 613d 1bba 1a3e
00000140: f524 fabd 1859 05be 7767 983c e018 e23c
00000150: cc90 093d 41fd 123e 81b9 e93d 83dd 39be
00000160: 285e debc 158e 5e3e d9c7 333e 7b1e b73e
00000170: f3aa 413e a71b 34bd 05be 0a3d 1688 efbd
00000180: cd41 f43d 7874 7bbd cf37 e4bd dcb7 a73c
00000190: 4e8d 813e 5969 7ebe ff5e 893e b4b7 3c3d
000001a0: 4b70 953d 21d5 593d 7917 24be b220 bfbd
000001b0: 9ec5 aebd 3b08 c63e 4394 32be ebd2 5dbd
000001c0: 801c b73e 1f52 993e ea18 aabd cc2a 013c
000001d0: c7c4 803e 20fd 33be 1db8 93bd 3a0f 453e
000001e0: 8d4c 2d3e 6c96 55be c322 87bd efed 28be
000001f0: 192b 87bb 4bb1 f53d 6ae7 25be f151 a8bd
00000200: bab1 1bbe dd13 b8bd 3bdd b5bd bd91 3dbd
00000210: f342 753e f4b4 babd 838e 833e eb98 bb3d
00000220: ccf1 0bbe f6b5 ff3d 69a9 813d defd 6cbe
00000230: f7e1 71bd 2b6f 1e3e 3b7a babd 5be0 27bd
00000240: d19e a83e 02be 7d3e d50a 3cbe ce93 1f3e
00000250: 1e54 f23d 2282 61bd 9827 35be 4911 9a3e
00000260: a1bd b33d 9c86 2abe d031 5fbd 2bbd df3d
00000270: 9110 9abc 5c52 6c3e bf03 dabd 3cbd 9eba
00000280: 8cfb 453e 2c2a 343e 785a 983e 8c34 983e
00000290: 6bbb 4dbe 4424 e83d 16db 5dbe 5420 ca3d
000002a0: ebdc b03e 55ef af3e 86b3 743e ff0b 603e
000002b0: 27f9 7c3e 556f 78bd dc77 973e 7b3c b13d
000002c0: 8c6e 12be d675 89be 8434 973e 1dfe 25bd
000002d0: 09b6 563c faa2 d13d b197 583e 9721 6bbe
000002e0: e5e6 0abe 4c1e 983d 82f0 983e 377a 643e
000002f0: f4a4 a73e c6d1 97bd 724c 8d3e 7036 93bd
00000300: 7b11 803e 58d9 35bd be6f f9bd 2b47 dcbd
00000310: 599f 953d 778a a0bc 6322 5abd 795b 25bd
00000320: 9e07 a2bd 56db 5ebd a6d5 dcbd 4500 873d
00000330: 9db1 eebd 7191 39bd a48f 2e3e f147 e03d
00000340: 1897 653d 25f8 dfbc af7b 253e ae25 8b3d
00000350: c355 08be 4ef7 5bbd 09d3 a73d 401b 233d
00000360: b601 febd eca9 c43c dad6 3d3e be93 06be
00000370: ff04 303e 0187 91bd 2940 133e 78d8 8abc
00000380: 84b8 9e3e 8505 b63d ae08 5d3e 03da 593e
00000390: 4b8a 06bd 7351 2c3d 1fef d8bd c358 933d
000003a0: cc36 923e 0f10 143e 68d1 473e 2c07 393e
000003b0: fb96 893d a1d0 23be f481 573e bf27 0a3e
000003c0: c4b6 26be ae6b 2dbe eafe 643d ee12 50bb
000003d0: eb08 9dbb 6853 753d 8015 3b3e 8b4d 99bd
000003e0: e82a aebd eb84 973d 77af 873e d55c 2f3e
000003f0: 8c1b 203e 0639 5f3c 58a3 d13d 2fe8 ca3d
0.35090014 0.34884685 0.25192645 0.34109798 -0.11941344 0.26659063 -0.13671465 0.2763356
0.3120851 0.15633471 0.26250404 0.25087348 0.34210172 -0.21794713 0.40128016 0.36506584
-0.30058694 -0.37777138 0.09333672 0.06404376 -0.0469558 0.09331654 0.3253512 -0.29403952
-0.054514922 0.3943373 0.43375638 0.4118511 0.1986107 -0.17067339 0.30439055 0.25684068
-0.1236865 -0.05451421 -0.06577034 0.15624993 0.399344 -0.3482699 0.35508254 -0.041772466
0.10104643 0.022399541 -0.15863203 -0.3166733 0.016688494 0.4292269 -0.35070038 -0.25619742
0.44074917 0.3341112 -0.19501466 0.07133204 0.34768054 -0.029349409 -0.28655872 0.27890217
0.3149387 -0.20245536 -0.09051297 -0.23039432 -0.19641551 0.41677466 -0.25867915 -0.080999985
0.1227355 0.18031472 0.16413707 0.31608683 -0.10762494 0.13411453 0.040830255 0.11210077
0.22946237 0.2725465 0.18524 0.04640634 0.21143958 0.01858338 0.055074777 0.15110056
-0.1221408 -0.13022268 0.018604023 0.027599752 0.033585355 0.14354421 0.11412335 -0.18150906
-0.027144507 0.21733887 0.17556705 0.35765442 0.18912868 -0.043971684 0.033872623 -0.11695878
0.11926613 -0.06139037 -0.11143457 0.020473413 0.2530312 -0.24844874 0.2683029 0.04607363
0.07296809 0.05318177 -0.16024579 -0.09332408 -0.08533786 0.38678154 -0.1743937 -0.054156225
0.3576393 0.29945466 -0.08305533 0.007883739 0.2515013 -0.17577028 -0.07212851 0.1924409
0.16923733 -0.20858163 -0.06598427 -0.16497014 -0.0041250107 0.119967066 -0.16201559 -0.08218754
-0.15204516 -0.089881636 -0.08880087 -0.046281565 0.2395132 -0.09116545 0.25694665 0.09160026
-0.13666457 0.12485878 0.063311405 -0.23143718 -0.059053387 0.15472095 -0.09105345 -0.040985446
0.32933667 0.24779513 -0.18363507 0.15583727 0.1183245 -0.055055745 -0.17690885 0.30091313
0.08776403 -0.16652912 -0.054490864 0.10924753 -0.018806728 0.23078293 -0.10645246 -0.001211084
0.19334239 0.17594212 0.29756522 0.2972759 -0.20091026 0.11335042 -0.21665606 0.09869447
0.34543547 0.34362283 0.23896608 0.21879576 0.24704419 -0.06065305 0.29583633 0.08654114
-0.14299983 -0.26847714 0.29532254 -0.040525544 0.013104924 0.102361634 0.21151616 -0.22962032
-0.13564642 0.07427654 0.29870993 0.22312246 0.32743037 -0.07413058 0.27597386 -0.071881175
0.25013337 -0.04439673 -0.12179516 -0.10755762 0.07305784 -0.019597275 -0.05325545 -0.04037044
-0.07911609 -0.054408394 -0.10782938 0.06591848 -0.11654971 -0.04530472 0.17046982 0.10951222
0.056052297 -0.027340004 0.16160463 0.06794296 -0.13313965 -0.053702645 0.08194549 0.03982091
-0.1240267 0.024006806 0.1853899 -0.13142297 0.17189406 -0.07105828 0.14379944 -0.016948923
0.3100015 0.088877715 0.21585342 0.21274571 -0.03284673 0.042069864 -0.10592484 0.07194664
0.28557432 0.14459251 0.19513476 0.18069142 0.0671825 -0.15997554 0.21045667 0.13491724
-0.16280657 -0.16935608 0.055907167 -0.0031749564 -0.004792323 0.059893996 0.1826992 -0.07485493
-0.085042775 0.07398399 0.26501057 0.17125256 0.15635508 0.013624435 0.102362335 0.09907567

const_fold_opt__23 f4 [32, 1]
00000000: 36f0 d43e 3582 9d3e 8058 a23e ba46 af3e
00000010: e34f c6be 701b c83e 6cd2 10bf e629 633e
00000020: 3dd9 833e 28e2 c53e 21af a43e f5a4 6b3e
00000030: 869c 8a3e 70c0 95be e611 833e e532 8d3e
00000040: a1db d5be eb75 01be f4b6 a23e 543f a33d
00000050: 37e4 a8be 1909 b33e a044 953e 5bfe bebe
00000060: d9e4 c3be 925e 873e 85f4 9b3e 3cea b83e
00000070: 6745 a23e 5530 bebe 413f 8f3e 7738 073e
0.41589516 0.30763403 0.31708145 0.34233648 -0.38732824 0.39083433 -0.5657108 0.22183952
0.25751677 0.38649106 0.32164863 0.23012145 0.27072543 -0.2924838 0.25599593 0.27577892
-0.41769126 -0.12642638 0.31780207 0.07971063 -0.32986614 0.34967878 0.2915392 -0.37303433
-0.38260534 0.2643934 0.3045999 0.36116207 0.31693575 -0.3714625 0.27977946 0.13205133

const_fold_opt__22 f4 [1536, 32]
00000000: 39dd a03d bdcd 51bc 868e 0ebe a63b 763d
00000010: 3a1c babb 3673 fbbd 51f5 b53c d3c4 8ebd
00000020: dfbe b6bd e5fa 553c d43c ebbd 75cb a2bd
00000030: 752a 5bbd b8da 47bd d875 1fbe b94d b5bd
00000040: c72e 973c 9aac 2bbd a10f 9fbd 3dba cfbd
00000050: 883c 0fbc f91c a9bb 1896 dabd c32d bbbd
00000060: 66e5 38bd ccaa 253d aa91 82bd fe2a 403c
00000070: b30a 0abe ebce 95bd 46b5 a5bd cc10 6ebe
00000080: 9a94 853d f250 3a3d ba8d 903d 11a9 bc3c
00000090: 18ef fe3c fba0 a53d 7acf 8e3c 2d7b 763d
000000a0: 509c bf3c e06e d43c caeb 963d e0a1 8f3d
000000b0: 99ce 6f3d 9bbb 563c 6120 873d d47b 873d
000000c0: bb1c 153d c5dc 223d d928 573d 7aa3 1e3d
000000d0: 311e 393d f4e1 333d 8f7d 903d c8af 6b3d
000000e0: 3fa4 c63d 052e 643d e328 663d fecd 9739
000000f0: 3b6b 143d f84a a83d 4660 b93d 6ba9 633d
00000100: ef10 15bc 113a 18be 378a bb3d 557a 34bd
00000110: 21a8 79bd b07d eb3c 1278 aa3d 6e0c 033e
00000120: 6640 7a3d 4cc3 a83c 3b94 e43d 0330 213d
00000130: b6ef cc3c bffd b93d 9784 933d 4eb0 9e3d
00000140: b181 ae3d a6ff 20bc 9fa8 f43c c2fa cf3c
00000150: 8706 be3d 5221 623d c5b2 cd3d b7c5 a93d
00000160: d8ff e43c ff3c c43c f15c b13d cc2a 2fbd
00000170: 2e15 0d3e 1d17 a63d 910b e43c ce4b cf3d
00000180: 8fdb 82bd ec7a 56be ccf1 b63c a00a 873c
00000190: 69f8 eabd 8896 8bbd e2ba 38bd aef7 05be
000001a0: cb11 3abd dc61 af3d 8080 8bbd fbc2 26bd
000001b0: 17d7 b13b 9300 1d3c 4481 ffbd ac0f 46bd
000001c0: 0182 6abd 41ef 6cbc 0b7b 04bd 40c5 2abd
000001d0: e14c 09bd 3a4f 39bd c570 29bd 3aa5 1abd
000001e0: 3340 c9bd 5099 50bd d490 eabc 173a e53d
000001f0: de31 25bd d561 00be 4ce9 83bc fa4c a23c
00000200: 8c45 113d 53e0 b33d 75aa 493d e519 29bc
00000210: 34ee 353d 22fd 643d a170 ae3d 13ca 983d
00000220: 3295 b23d 34dc 43bd c3b6 153d 6420 d63c
00000230: acc1 84bb 5c45 dc3d b6e0 bf3c 419d 8f3d
00000240: 9d63 083e a0d7 cf3c 0cd6 08bd 66ea 7a3d
00000250: 81c2 473d da93 aa3d 193e 793d 5a8c 113d
00000260: 141d cf3d 0ad0 873d 69a9 2c3d bbd8 053d
00000270: ba31 ec3d 9a83 353d 199d bb3d 8b73 983d
00000280: 384e 543d 503b be3d 4606 b43c a891 fc3d
00000290: 3968 a53d c4d2 5ebb 3268 0a3d ade3 88ba
000002a0: 8952 d83b eadc a03d eb93 bfbb 6912 b53c
000002b0: 518a c43d 3b37 ae3c 4d5c b33d e78c 9b3c
000002c0: 0461 36bb e6e5 e63d 21f8 9a3d c1a0 4bbc
000002d0: 261b 3e3d b756 1abc 877a 29bc b949 463d
000002e0: 60a1 4c3d d0ba d33c 6037 083d c585 a63d
000002f0: ea07 303c 2620 773d eb17 933c 83a5 30b7
00000300: 2b01 c23d 529b b5bc f8ee d03d 0626 803c
00000310: 995a a5ba 5dba 043e 055c b83d 154a a13d
00000320: 230c eb3d 5d43 833d 7e35 f33d 728b 923d
00000330: db19 34bc e63b f63d 8cb8 31bd 280d 8e3d
00000340: 2324 e23d da59 afbc 0f5a 01bd b43e a93d
00000350: 175a 3f3d 72ce 073e 2e0e df3d 26f6 803d
00000360: 9eb0 853d 2631 c13d 3766 be3c c51e 1ebd
00000370: fb67 183e e6cd b93c bfa2 293d d88b 243e
00000380: fe94 19bd 824b f7bc 5276 6ebd 6df5 43bd
00000390: ffe0 12bd 16e6 6fbd be0b 7bbd 87c2 8ebd
000003a0: 4946 98bd 15a8 7e3c 49f6 cabd 452b 6abd
000003b0: d0f4 a9bc 9ef7 d9bd 3d93 c3bc 38e1 cfbd
000003c0: 9b90 c4bd b2ea 0dbd 592b 34bd 84fe 4ebd
000003d0: d29b 2fbd 82ec febd c8f7 25bd 71f5 38bd
000003e0: 02b6 69bd d886 93bd eac8 213d 7285 b0bc
000003f0: c752 09be af98 99bd 7220 81bd efb6 25bd
0.07854695 -0.0128053995 -0.13921556 0.06011548 -0.0056796344 -0.12277834 0.022211703 -0.06971135
-0.089231245 0.013060306 -0.114862114 -0.079489626 -0.053507287 -0.04879257 -0.15572298 -0.08852715
0.018454922 -0.041912653 -0.07766653 -0.10142944 -0.008742459 -0.0051609245 -0.10673159 -0.09139588
-0.045140646 0.040446088 -0.063754395 0.011729 -0.13480644 -0.07314857 -0.08091216 -0.23248595
0.06522484 0.04548735 0.07058282 0.023029836 0.031119868 0.08087345 0.017432917 0.060176063
0.023389965 0.025931776 0.07369192 0.07013297 0.058546636 0.013106252 0.06597973 0.06615415
0.036404353 0.039761323 0.05252919 0.038730122 0.04519481 0.043916658 0.070551984 0.057540685
0.09699296 0.05570795 0.056191336 0.0002895444 0.036235075 0.08217424 0.09051566 0.05558149
-0.009098276 -0.148659 0.09157222 -0.044061977 -0.060951356 0.028746456 0.08323683 0.1279771
0.06109657 0.020600937 0.11161085 0.03935243 0.025016647 0.09081601 0.07203024 0.07748471
0.085208304 -0.009826576 0.029865561 0.025388125 0.09278589 0.055207558 0.10043863 0.08289664
0.027954027 0.023954866 0.08660305 -0.042765424 0.1377761 0.08109877 0.027837547 0.101218805
-0.06389534 -0.20945328 0.022332095 0.016484559 -0.11473162 -0.06815821 -0.0451001 -0.13082764
-0.045427125 0.08563587 -0.06811619 -0.04071329 0.005427252 0.009582656 -0.12475827 -0.04835479
-0.057252888 -0.014461339 -0.032343905 -0.04169202 -0.033520583 -0.045241572 -0.04136731 -0.03775523
-0.09826698 -0.05092746 -0.028633513 0.111927204 -0.04033076 -0.1253732 -0.016102456 0.019812096
0.035466716 0.08783021 0.049234826 -0.010321115 0.04441662 0.05590547 0.08517576 0.074604176
0.08719863 -0.047817424 0.03655125 0.026138492 -0.004051408 0.10755417 0.02342258 0.07012416
0.1331925 0.025371373 -0.033407256 0.061258696 0.048769478 0.08328982 0.060850237 0.03553424
0.10112968 0.06631477 0.04215375 0.032677393 0.11532922 0.04431496 0.091608234 0.07443913
0.051832408 0.09288657 0.021975648 0.12332469 0.080765195 -0.0034000138 0.033790775 -0.0010443829
0.006601636 0.07854636 -0.0058464906 0.022103505 0.09596694 0.02126657 0.08757839 0.018988086
-0.0027828822 0.112743184 0.07566858 -0.012428463 0.04641261 -0.0094200885 -0.010344154 0.04841015
0.049958587 0.025845915 0.033255935 0.08130983 0.010744074 0.060333394 0.01795574 -1.0528954e-05
0.09472879 -0.022168789 0.1020183 0.015643131 -0.0012615501 0.12961717 0.09001926 0.07875458
0.11476924 0.06409333 0.11875437 0.07155503 -0.010992493 0.120231435 -0.04338889 0.06936103
0.11042049 -0.02140515 -0.031580027 0.08263913 0.046716776 0.13262346 0.108913764 0.06296949
0.06527828 0.094332024 0.0232421 -0.038603563 0.14883415 0.022681188 0.041414972 0.16068971
-0.037495606 -0.030187372 -0.058218308 -0.04784148 -0.035859104 -0.058569036 -0.061290495 -0.06970697
-0.07435281 0.015543004 -0.099102564 -0.05717017 -0.020746619 -0.10642932 -0.02387392 -0.10150379
-0.09597894 -0.03464765 -0.043986652 -0.050535694 -0.04287321 -0.12447454 -0.040519506 -0.045155946
-0.05705834 -0.07203454 0.039498247 -0.021548007 -0.13410483 -0.07499825 -0.063050166 -0.040457662
