en/hey_potato/hey_potato.onnx (onnx, 208139 bytes, 9 tensors)

model/tf.math.add_1/Add/y f4 [32]
0.08096463 -0.074874334 -0.096659906 0.08839546 0.084819265 0.08279056 0.20928632 0.11318581
0.07659897 -0.07530922 -0.013455678 -0.033240534 -0.061355 -0.14883436 -0.12619217 -0.13707651
-0.018137448 0.124095924 0.057616048 0.131076 0.045718834 0.033724744 -0.054995663 0.087264374
0.17601933 0.14302546 0.059897 -0.006152252 0.21055973 -0.14965467 -0.08297161 -0.08117034
00000000: c9d0 a53d b757 99bd a1f5 c5bd ae08 b53d
00000010: b9b5 ad3d 198e a93d 274f 563e f6cd e73d
00000020: ecdf 9c3d b83b 9abd 3475 5cbc 3a27 08bd
00000030: 614f 7bbd 0968 18be 8538 01be c95d 0cbe
00000040: fc94 94bc 0126 fe3d cefe 6b3d c938 063e
00000050: ac43 3b3d f522 0a3d 2243 61bd aab7 b23d
00000060: 693e 343e 4475 123e 8f56 753d d598 c9bb
00000070: f89c 573e 133f 19be 05ed a9bd a33c a6bd

model/tf.math.add/Add/y f4 [32]
-0.009105127 -0.009084251 0.002950538 0.033824865 0.0958922 -0.0072499937 0.08538156 0.05551738
0.0266123 0.022723153 0.02525396 0.05906404 0.020475445 0.03146373 -0.008723925 0.07204679
0.018315427 0.022432338 -0.008238378 0.1112178 0.012371694 -0.003437432 0.0825152 0.00996517
0.082965404 0.052185077 0.019658575 0.015919207 0.07785899 0.06714618 0.034558732 -0.002242309
00000000: ac2d 15bc 1cd6 14bc d05d 413b f18b 0a3d
00000010: 2163 c43d 5b91 edbb 87dc ae3d 3166 633d
00000020: 0a02 da3c e825 ba3c 65e1 ce3c 23ed 713d
00000030: 1fbc a73c 1de0 003d cbee 0ebc 448d 933d
00000040: 3c0a 963c 06c4 b73c 43fa 06bc 28c6 e33d
00000050: a5b2 4a3c 8a46 61bb bbfd a83d f444 233c
00000060: c4e9 a93d 05c0 553d 050b a13c ff68 823c
00000070: 8974 9f3d f083 893d 758d 0d3d b4f3 12bb

model/layer_normalization_1/batchnorm/mul/ReadVariableOp/resource f4 [32]
1.2794254 1.4269952 1.2492529 1.3328801 1.2613137 1.234221 1.3561538 1.3124417
1.2215564 1.2590044 1.2206845 1.3574015 1.2591585 1.323707 1.3281223 1.229226
1.323621 1.4037836 1.4104662 1.34783 1.1841924 1.444928 1.3814473 1.2854201
1.37581 1.3349626 1.1540617 1.1891897 1.3951743 1.184886 1.2429634 1.1560779
00000000: 36c4 a33f c7a7 b63f 85e7 9f3f d19b aa3f
00000010: ba72 a13f f4fa 9d3f 7396 ad3f 17fe a73f
00000020: f65b 9c3f 0e27 a13f 643f 9c3f 55bf ad3f
00000030: 1b2c a13f 3b6f a93f e9ff a93f 4757 9d3f
00000040: 6a6c a93f 2eaf b33f 288a b43f b285 ac3f
00000050: 9e93 973f 67f3 b83f 44d3 b03f a588 a43f
00000060: 8b1a b03f 0ee0 aa3f 4bb8 933f 5e37 983f
00000070: 1295 b23f 58aa 973f 6d19 9f3f 5cfa 933f

model/layer_normalization_1/batchnorm/ReadVariableOp/resource f4 [32]
0.080015495 0.0020215272 0.2417753 0.28014654 0.17611289 0.10838935 0.28069463 0.09851744
0.1608307 0.010435273 -0.016839722 0.27283013 0.05505363 -0.030529246 0.10718492 0.090683036
0.041739266 0.13394484 0.07457104 0.16231623 0.1835432 0.068248235 0.28777835 0.057236496
-0.07985253 0.106937125 0.08416122 -0.025109945 0.26450413 0.20868555 0.20071357 0.20423788
00000000: 2adf a33d 997b 043b f293 773e 5e6f 8f3e
00000010: f056 343e 3cfb dd3d 35b7 8f3e 83c3 c93d
00000020: ceb0 243e b5f8 2a3c 75f3 89bc 64b0 8b3e
00000030: ea7f 613d 7818 fabc c483 db3d 07b8 b93d
00000040: cbf6 2a3d d628 093e b4b8 983d 3a36 263e
00000050: c0f2 3b3e bbc5 8b3d af57 933e d170 6a3d
00000060: b989 a3bd da01 db3d b85c ac3d 5fb3 cdbc
00000070: 166d 873e aab1 553e dc87 4d3e bc23 513e

model/layer_normalization/batchnorm/mul/ReadVariableOp/resource f4 [32]
1.0742455 0.90915346 1.0347872 0.97235405 1.2315441 0.9818474 1.0832454 1.034797
0.99915123 1.1021553 1.0014249 0.93149185 1.130271 1.0443078 0.99966633 0.98992074
0.90801746 0.9592491 1.1278217 1.047729 0.9985955 1.0664136 1.1953319 1.1799141
1.3074957 1.034187 0.9428585 0.98172444 1.2801418 1.1256775 0.99048615 1.0228816
00000000: e080 893f 48be 683f e873 843f 32ec 783f
00000010: 3da3 9d3f 5a5a 7b3f c9a7 8a3f 3a74 843f
00000020: 60c8 7f3f 6d13 8d3f b12e 803f 4076 6e3f
00000030: b8ac 903f e1ab 853f 22ea 7f3f 726b 7d3f
00000040: d573 683f 5991 753f 765c 903f fc1b 863f
00000050: f4a3 7f3f 3e80 883f a300 993f 6d07 973f
00000060: 055c a73f 3d60 843f 2d5f 713f 4b52 7b3f
00000070: b0db a33f 3316 903f 8090 7d3f c9ed 823f

model/layer_normalization/batchnorm/ReadVariableOp/resource f4 [32]
-0.08707755 -0.039537117 -0.029222786 0.00043024085 0.051776063 0.009558133 0.08393019 0.036196996
-0.028725658 0.0043445113 -0.021331334 -0.04108109 0.021189468 -0.032245733 -0.03420741 0.049408253
-0.11642802 -0.024041481 0.012736202 0.08085642 -0.02588343 0.011291954 -0.035308726 0.01746433
0.055613704 -0.08583055 -0.04651009 -0.0037614736 0.056284137 0.037473895 -0.018462151 0.009429939
00000000: b755 b2bd acf1 21bd a064 efbc f391 e139
00000010: 2313 543d b799 1c3c 97e3 ab3d 4d43 143d
00000020: 1252 ebbc 675c 8e3b 0dbf aebc a544 28bd
00000030: 8995 ad3c 1a14 04bd 121d 0cbd 4f60 4a3d
00000040: d071 eebd a4f2 c4bc 81ab 503c 0d98 a53d
00000050: 7d09 d4bc e301 393c e29f 10bd 5b11 8f3c
00000060: 32cb 633d edc7 afbd 5d81 3ebd 0e83 76bb
00000070: 328a 663d 3a7e 193d f03d 97bc 0880 1a3c

const_fold_opt__25 f4 [32, 32]
0.17529544 0.29913542 -0.21726277 -0.2633877 0.13802056 0.24078427 -0.32586348 0.31430274
0.25383586 0.42604312 0.13762316 -0.27168566 0.24269591 0.28927478 0.2843829 0.34529832
0.1675745 0.343074 0.25818437 0.19050843 0.098044 0.31921715 -0.15385874 0.31233191
0.30653346 0.22351323 -0.2567652 0.37068984 -0.19503969 -0.16264577 -0.2781283 -0.3816865
0.10123034 0.13974796 0.009314123 -0.15933815 0.0034227287 0.060085386 -0.06732008 0.13130614
0.060624346 0.17548105 0.10846642 0.07058948 0.14516015 0.07259801 0.022359591 0.1016645
0.21689756 0.061772086 0.12989251 0.110375255 0.022394728 0.18968855 -0.05248505 0.16272998
0.028017204 0.063810006 -0.13386817 0.04878486 -0.12629214 0.05275465 -0.14715096 0.022006426
0.21449152 0.09193223 -0.17522828 -0.022623196 0.13025169 0.061114926 -0.21277542 0.18870841
0.1854776 0.19067775 0.093245976 -0.008404778 0.3206133 0.2187176 0.06417188 0.124546684
0.19391127 0.1203602 0.16288061 0.23563871 0.018340439 0.26101983 -0.093939185 0.35150996
0.22635292 0.15496269 -0.026677553 0.055987 -0.15913038 -0.010286908 -0.1626612 -0.255848
0.10632251 0.17793733 -0.044141278 -0.07229937 0.07465764 0.09264892 -0.18314078 0.02968452
0.18276294 0.24339557 0.063123755 -0.18327707 0.10793687 0.16467354 0.14035664 0.17931409
0.14582594 0.071662255 0.20604897 0.16637321 0.010073692 0.2781621 0.0434315 0.21880059
0.22412433 0.1333008 -0.019023042 -0.031226333 -0.13562201 -0.008072892 -0.02949835 -0.20443982
-0.15731856 -0.041411616 0.24810514 0.33703995 -0.21669164 -0.041082423 0.203981 -0.17438452
-0.22408624 -0.118191585 -0.08012633 0.28104946 -0.058965307 -0.09195109 -0.2040448 -0.1177304
-0.28187427 -0.21603268 -0.11087724 -0.1962685 0.11054347 -0.13354307 0.27763024 -0.14066494
-0.057335842 -0.12852882 0.11783955 -0.12204228 0.23898174 0.06165807 0.20595562 0.20298664
0.071170636 0.03813573 -0.09127221 -0.17466997 0.1345074 0.07835706 -0.08686274 0.13672136
0.0759538 0.044025168 0.11031509 -0.1143455 0.15972166 0.03633385 0.20958585 0.19590685
0.1301871 0.074990354 0.17307179 0.24473837 -0.08920865 0.11881429 -0.06459955 0.08538038
0.045620453 0.091415316 -0.0553371 0.043506775 -0.0112157175 0.07836025 -0.10324599 -0.14119487
-0.013210859 -0.038890734 0.10867789 0.12051578 -0.13021132 0.0147790965 0.12452836 -0.10787031
-0.16323523 -0.004175246 0.11662243 0.14140187 0.0014899677 -0.09173812 -0.09706187 0.025628949
-0.1075172 -0.1356704 -0.16349533 -0.124398425 0.15351924 -0.09506106 0.03187594 -0.072515056
-0.092033006 -0.14367773 -0.014517273 -0.026665336 0.18353243 0.15104121 0.21048601 0.12934923
-0.03016234 -0.044080872 0.07442953 0.08258623 0.14470685 0.025552284 -0.022940453 -0.010743092
0.13430554 -0.024858719 0.048909068 -0.025658565 -0.011037664 -0.09734837 0.0789901 0.10317564
-0.04959847 0.05710904 -0.08578891 0.15042487 -0.122084826 -0.15070134 0.008837092 -0.16156577
-0.10040395 0.15084319 0.13678524 0.092923015 -0.061148714 0.12264894 -0.06736295 0.029685548
00000000: a680 333e 4728 993e 227a 5ebe c1da 86be
00000010: 4355 0d3e 2790 763e 94d7 a6be 4aec a03e
00000020: c6f6 813e 5322 da3e 16ed 0c3e 621a 8bbe
00000030: 4785 783e d31b 943e a39a 913e f1ca b03e
00000040: a698 2b3e 65a7 af3e be30 843e a414 433e
00000050: 4bcb c83d 6e70 a33e 258d 1dbe f8e9 9f3e
00000060: f4f1 9c3e a7e0 643e ba76 83be 0fcb bd3e
00000070: 7cb8 47be 9d8c 26be d566 8ebe 6a6c c3be
00000080: da51 cf3d 171a 0f3e 439a 183c 8a29 23be
00000090: dc4f 603b 181c 763d 1cdf 89bd 1e75 063e
000000a0: 3c51 783d 4eb1 333e a423 de3d 3891 903d
000000b0: dda4 143e 44ae 943d 762b b73c 7a35 d03d
000000c0: 651a 5e3e ba04 7d3d 8b02 053e 6c0c e23d
000000d0: 2675 b73c b73d 423e 90fa 56bd b0a2 263e
000000e0: 5684 e53c d2ae 823d bd14 09be a2d2 473d
000000f0: ba52 01be 4315 583d beae 16be d246 b43c
00000100: aaa3 5b3e f746 bc3d 0b6f 33be 4854 b9bc
00000110: b360 053e a553 7a3d cde1 59be c73c 413e
00000120: d7ed 3d3e 0741 433e bff7 be3d 32b4 09bc
00000130: 6d27 a43e 82f7 5f3e 8c6c 833d 5512 ff3d
00000140: ad90 463e 697f f63d 2dca 263e 464b 713e
00000150: b03e 963c 64a4 853e 3063 c0bd 1df9 b33e
00000160: 0fc9 673e 8aae 1e3e e28a dabc a052 653d
00000170: 13f3 22be 6b8a 28bc a890 26be 82fe 82be
00000180: 9ebf d93d 3435 363e 7ccd 34bd b111 94bd
00000190: 1be6 983d b8be bd3d 4289 3bbe f32c f33c
000001a0: 3526 3b3e b03c 793e 0747 813d fcac 3bbe
000001b0: 010e dd3d 2ea0 283e a7b9 0f3e 1d9e 373e
000001c0: 6553 153e a9c3 923d 80fe 523e bd5d 2a3e
000001d0: 200c 253c 436b 8e3e 3be5 313d 430d 603e
000001e0: d980 653e 0180 083e 36d6 9bbc 5ece ffbc
000001f0: 7fe0 0abe 2a44 04bc 86a6 f1bc ac58 51be
00000200: 1e18 21be 3a9f 29bd 460f 7e3e 8090 ac3e
00000210: 6ae4 5dbe 0b46 28bd 65e0 503e db91 32be
00000220: dd76 65be 6e0e f2bd 4619 a4bd b7e5 8f3e
00000230: 9b85 71bd da50 bcbd 1ff1 50be a31c f1bd
00000240: d351 90be ac37 5dbe 9b13 e3bd 9cfa 48be
00000250: 9d64 e23d 84bf 08be 8d25 8e3e 780a 10be
00000260: fdd8 6abd 0f9d 03be dd55 f13d 4ef1 f9bd
00000270: a1b7 743e 2c8d 7c3d 08e6 523e bbdb 4f3e
00000280: e9c1 913d 3634 1c3d edec babd afdc 32be
00000290: 4fbc 093e ab79 a03d 18e5 b1bd af00 0c3e
000002a0: aa8d 9b3d bc53 343d e1ec e13d f92d eabd
000002b0: 138e 233e ced2 143d ac9d 563e ce9b 483e
000002c0: c44f 053e 8b94 993d bb39 313e b29c 7a3e
000002d0: 06b3 b6bd e854 f33d c54c 84bd e9db ae3d
000002e0: 83dc 3a3d f437 bb3d 28a9 62bd 2934 323d
000002f0: 21c2 37bc 577b a03d a272 d3bd 6395 10be
00000300: 5c72 58bc e44b 1fbd 8392 de3d fad0 f63d
00000310: 1e56 05be 0624 723c ba08 ff3d 1ceb dcbd
00000320: 2327 27be 81d0 88bb bed7 ee3d a7cb 103e
00000330: 054b c33a 32e1 bbbd 60c8 c6bd cdf3 d13c
00000340: fa31 dcbd 2eed 0abe 526b 27be 9ac4 febd
00000350: 2634 1d3e 5faf c2bd 5890 023d c682 94bd
00000360: cd7b bcbd 4120 13be dbd9 6dbc 4371 dabc
00000370: edef 3b3e 8caa 1a3e a589 573e 2074 043e
00000380: 0317 f7bc 258e 34bd 826e 983d f822 a93d
00000390: 082e 143e 0653 d13c 9eed bbbc cb03 30bc
000003a0: 6487 093e 83a4 cbbc e054 483d e931 d2bc
000003b0: 51d7 34bc 955e c7bd 90c5 a13d c04d d33d
000003c0: c427 4bbd 2beb 693d 19b2 afbd fa08 1a3e
000003d0: 9c07 fabd 7451 1abe 73c9 103c 7f71 25be
000003e0: 96a0 cdbd a376 1a3e 6e11 0c3e 6c4e be3d
000003f0: 1377 7abd 5e2f fb3d 96f5 89bd 1b2f f33c

const_fold_opt__23 f4 [32, 1]
0.26701528 0.38597947 -0.4057393 -0.44295982 0.36329398 0.3050517 -0.4434022 0.3442776
0.3622191 0.4202058 0.27513358 -0.4173654 0.34604394 0.33939075 0.29337063 0.30031875
0.46505028 0.38285014 0.40769604 0.36380944 0.29401198 0.5046829 -0.46967098 0.36113104
0.38057938 0.41826332 0.2625702 0.29229316 -0.3818612 0.2696611 -0.29526746 -0.19114807
00000000: 3ab6 883e 1a9f c53e 10bd cfbe a1cb e2be
00000010: ab01 ba3e bd2f 9c3e 9d05 e3be 2745 b03e
00000020: c874 b93e 3725 d73e 4fde 8c3e ebb0 d5be
00000030: ac2c b13e a0c4 ad3e ad34 963e 61c3 993e
00000040: 121b ee3e ef04 c43e 89bd d03e 3b45 ba3e
00000050: bd88 963e e632 013f b778 f0be 2be6 b83e
00000060: 4ddb c23e 9c26 d63e 9a6f 863e 73a7 953e
00000070: 5083 c3be 0511 8a3e 4c2d 97be 52bc 43be

const_fold_opt__22 f4 [1536, 32]
-0.050570916 -0.09545677 -0.1047806 -0.12314396 -0.011937151 -0.07665502 0.009642658 -0.04840558
-0.15664202 -0.050442748 -0.08567328 -0.038720205 -0.06931181 -0.042141486 -0.0706086 0.032232646
-0.09275367 -0.08507053 -0.033229273 -0.01474977 -0.12390368 -0.06991635 0.025755744 -0.05364022
0.01599671 -0.024339283 -0.03716279 -0.08566184 0.017355004 0.006359969 -0.055445947 -0.08765627
-0.0005183975 0.030694831 0.039411776 0.07506474 0.05591659 0.057969507 0.07049541 0.05957392
0.019077392 0.03668932 0.0031580697 0.02413963 0.04561601 -0.0014517858 0.056132305 0.023232883
0.045901287 0.034684878 0.029219441 0.05269052 0.083239965 0.017758233 0.07717512 0.03449851
0.05894173 0.04004698 0.0016716666 0.07971149 0.038351808 0.08147143 0.04400479 0.054371532
0.011145785 0.025155857 0.07521232 -0.02442565 0.07683823 -0.03330351 0.032596238 0.029459734
0.04536973 0.094902076 0.059142783 -0.039434105 -0.015789017 0.0689574 0.062342204 -0.07057896
0.062235992 0.059954252 0.005583414 0.055463523 0.092131265 0.019760659 -0.04461227 0.026989615
0.047205426 -0.032428302 0.092499554 -0.11404606 0.003981617 0.10774912 -0.036467217 -0.0916678
-0.08090215 -0.024678217 -0.117890455 -0.028780745 0.028028954 0.03875644 -0.027347771 0.075074084
-0.030102907 -0.026843967 -0.062296875 -0.07909483 -0.037920676 0.061168395 -0.0061255037 -0.057079718
-0.062000524 0.0030401442 -0.062453613 -0.030706532 -0.0143984165 -0.03979785 -0.083859876 -0.07679597
0.10621891 -0.11929759 -0.06641386 0.033448316 -0.06913951 -0.0320568 0.008870135 0.008782341
0.049869463 0.02763336 0.07303969 0.103878416 -0.05703242 0.06549318 0.008538765 0.11541238
0.045618 0.10257398 0.0659549 0.0474382 0.03398912 0.13991147 0.120395295 -0.029135408
0.06387014 0.108217314 0.018844703 -0.015546252 0.118246324 0.10705828 0.042534165 0.06550176
-0.033174638 0.055438902 0.044769403 0.028809058 0.004645154 0.032220945 0.050373986 0.09643001
0.035956588 0.032220494 0.025020733 0.011502206 0.06108343 0.039855488 0.07773238 0.08022741
0.010206674 0.02946702 0.0070092976 0.046387035 0.02527647 0.0013672423 0.015513269 0.074636415
0.036293045 0.0026264018 0.025721654 0.07599221 0.024196478 0.0018921276 0.0903702 0.010356064
0.06606634 0.035695545 0.04431102 0.048847336 0.059884224 0.048572995 0.019146036 0.043932203
0.02435196 0.031098237 0.07808153 0.07444306 0.04139062 0.018857673 0.042686123 0.04638281
0.07253714 0.048914697 0.03866563 0.018537972 0.022686964 0.079857 0.024832811 0.054840315
0.040486235 0.061672978 0.04942882 0.0178829 0.06050896 0.08594768 0.03695916 0.08387951
0.0401968 -0.0015734627 0.0339388 0.048806313 0.010856197 0.0084504 0.092994526 0.044722907
-0.047620025 -0.07939898 -0.030692618 -0.07442576 -0.05241801 -0.02181057 -0.05902597 -0.0021948107
-0.045170162 -0.050974872 -0.020264635 -0.04121602 -0.033085328 -0.0690532 -0.010725877 -0.018500695
-0.01039883 -0.03377105 -0.018986067 -0.023300314 -0.04195652 -0.086468324 -0.039263714 -0.041014723
-0.055624466 -0.041586738 -0.04452742 -0.032679945 -0.008119668 -0.083973266 -0.043401867 -0.016934568
00000000: 7323 4fbd d77e c3bd 3697 d6bd e732 fcbd
00000010: 0a94 43bc 4ffd 9cbd 3dfc 1d3c ee44 46bd
00000020: c466 20be 0e9d 4ebd 7975 afbd 1499 1ebd
00000030: 5af3 8dbd 8d9c 2cbd 3e9b 90bd 6106 043d
00000040: a3f5 bdbd 7539 aebd 6b1b 08bd 05a9 71bc
00000050: 36c1 fdbd 4e30 8fbd b6fd d23c d9b5 5bbd
00000060: 880b 833c 2d63 c7bc 0238 18bd 7a6f afbd
00000070: 152c 8e3c 4967 d03b 4a1b 63bd 2185 b3bd
00000080: 11e5 07ba ba73 fb3c 3e6e 213d 8bbb 993d
00000090: cb08 653d 6f71 6d3d e65f 903d c803 743d
000000a0: 3148 9c3c 8a47 163d 9ef7 4e3b 79c0 c53c
000000b0: dad7 3a3d d949 beba fdea 653d e352 be3c
000000c0: fd02 3c3d bb11 0e3d 9c5d ef3c 04d2 573d
000000d0: b779 aa3d b779 913c fd0d 9e3d 4f4e 0d3d
000000e0: e26c 713d 4d08 243d d31b db3a c73f a33d
000000f0: c916 1d3d 7eda a63d 5e3e 343d afb4 5e3d
00000100: d09c 363c a813 ce3c eb08 9a3d 4d18 c8bc
00000110: 5d5d 9d3d 4369 08bd a283 053d 8a55 f13c
00000120: 9cd5 393d 055c c23d b43f 723d a885 21bd
00000130: f857 81bc 8a39 8d3d 8a5a 7f3d b48b 90bd
00000140: 2beb 7e3d 9792 753d 12f5 b63b b82d 633d
00000150: 51af bc3d 1be1 a13c 5bbb 36bd 5319 dd3c
00000160: 7a5a 413d 8ad3 04bd 6870 bd3d fb90 e9bd
00000170: 3978 823b 92ab dc3d a65e 15bd 54bc bbbd
00000180: 07b0 a5bd f929 cabc 8d70 f1bd 99c5 ebbc
00000190: fa9c e53c 13bf 1e3d 6f08 e0bc 71c0 993d
000001a0: 5f9a f6bc e1e7 dbbc 022b 7fbd 78fc a1bd
000001b0: b652 1bbd b68b 7a3d 73b8 c8bb 6ccc 69bd
000001c0: 43f4 7dbd 283d 473b 5ccf 7fbd 448c fbbc
000001d0: 56e7 6bbc 1203 23bd babe abbd 3547 9dbd
000001e0: 4d89 d93d 4b52 f4bd fd03 88bd 1a01 093d
000001f0: 0499 8dbd fe4d 03bd 0b54 113c cfe3 0f3c
00000200: ec43 4c3d 5b5f e23c d595 953d 35be d43d
00000210: d49a 69bd 4a21 863d 2de6 0b3c 535d ec3d
00000220: f1d9 3a3d 4f12 d23d 5d13 873d 8f4e 423d
00000230: 2d38 0b3d f444 0f3e cf91 f63d 61ad eebc
00000240: 59ce 823d 0aa1 dd3d 3560 9a3c b5b5 7ebc
00000250: 212b f23d 5f41 db3d 4e38 2e3d c925 863d
00000260: 21e2 07bd e713 633d 1f60 373d f900 ec3c
00000270: 6036 983b 1cfa 033d f454 4e3d 197d c53d
00000280: 3747 133d a3f9 033d 48f8 cc3c c073 3c3c
00000290: 9e32 7a3d 823f 233d 2732 9f3d 454e a43d
000002a0: e539 273c d264 f13c 40ae e53b 5500 3e3d
000002b0: 9a10 cf3c 0a35 b33a 5e2b 7e3c fada 983d
000002c0: 04a8 143d b61f 2c3b 38b6 d23c cea1 9b3d
000002d0: b137 c63c 4401 f83a 0314 b93d 7bac 293c
000002e0: ca4d 873d 7e35 123d 797f 353d 2514 483d
000002f0: 2949 753d 7af4 463d 26d8 9c3c 41f2 333d
00000300: c37d c73c bbc1 fe3c 36e9 9f3d 9a75 983d
00000310: 3689 293d 687b 9a3c a5d7 2e3d e7fb 3d3d
00000320: 5a8e 943d c75a 483d da5f 1e3d f2dc 973c
00000330: 03da b93c 118c a33d 2e6e cb3c 3da0 603d
00000340: e5d4 253d ce9c 7c3d e075 4a3d 297f 923c
00000350: 3ed8 773d 5605 b03d 7d62 173d 05c9 ab3d
00000360: 66a5 243d a63c ceba 6903 0b3d 21e9 473d
00000370: 31de 313c 8c73 0a3c ea73 be3d 5e2f 373d
00000380: 370d 43bd ef9b a2bd 166f fbbc 886c 98bd
00000390: 44b4 56bd 15ac b2bc 37c5 71bd d0d6 0fbb
000003a0: 5904 39bd 07cb 50bd 0502 a6bc 21d2 28bd
000003b0: 7b84 07bd c46b 8dbd 97bb 2fbc c58e 97bc
000003c0: db5f 2abc 8353 0abd ab88 9bbc 4de0 bebc
000003d0: 9ada 2bbd 4e16 b1bd fdd2 20bd 0eff 27bd
000003e0: 7bd6 63bd db56 2abd 6262 36bd 68db 05bd
000003f0: 5b08 05bc 2dfa abbd 28c6 31bd 5dba 8abc
