en/hey_esp/hey_esp.onnx (onnx, 208133 bytes, 9 tensors)

model/tf.math.add_1/Add/y f4 [32]
000000 2d 08 17 3e 7e e4 22 bb da bc 80 3e da 2b 05 be
       0.14749213 -0.002485543 0.25144082 -0.1300501
000010 94 8e d2 3c e4 85 1d be b2 74 ac 3d 6a 8b bd bd
       0.025702752 -0.15383106 0.08420695 -0.09255107
000020 6f 40 a0 bd 1f f4 80 be 28 fd 3a 3d 0a c2 9b 3c
       -0.0782479 -0.2518625 0.045651585 0.019013423
000030 9f 88 d3 3d 79 2c 33 be c0 8f 63 3c be 49 36 be
       0.10328793 -0.17497434 0.013889253 -0.17801568
000040 52 d6 18 be aa ab f5 bd 7d d8 c2 bd 51 e2 cb 3d
       -0.14925507 -0.11995633 -0.09513948 0.09955276
000050 48 03 af bd 65 d8 d0 3d 83 e2 ba 3b 64 5b ba bd
       -0.08545548 0.10197524 0.005703272 -0.09099463
000060 08 ec ff bd e5 00 ca bd bf 87 36 3e a3 ad 4b 3c
       -0.12496191 -0.09863452 0.1782522 0.012431535
000070 a2 63 e0 3c 03 49 f2 3d bc 40 3b 3d 56 3b 12 3e
       0.027391259 0.11830332 0.045716032 0.14280447

model/tf.math.add/Add/y f4 [32]
000000 96 08 a7 3c 93 09 b0 3d ab 19 e0 3d fb 3c 3c bb
       0.020389836 0.08595576 0.10942396 -0.002872287
000010 55 f7 0c 3c f4 0a a4 3c b2 a8 1c bc ed af ad 3d
       0.00860389 0.020024754 -0.0095617045 0.08480821
000020 65 39 f6 3d ad 29 43 bc 27 d9 b0 3c 0e 1d c5 3d
       0.12022666 -0.011911792 0.021587921 0.09624682
000030 3a bc a6 bc bb 53 f3 3c e4 58 85 3c 2c a7 67 3d
       -0.020353425 0.029703012 0.016277738 0.056555912
000040 13 0d 78 3c 67 64 64 3b 31 34 af 3d dc 71 3b 3d
       0.015139836 0.0034849884 0.085548766 0.04576288
000050 cd 32 c0 3c 7d b2 c5 bb b1 cf ab 3d ac 6e a3 3d
       0.023461724 -0.0060332404 0.08389223 0.07980093
000060 07 ba 84 3c b3 8c 33 3c 43 e4 9a 3d 1c f7 62 3c
       0.016201986 0.010958838 0.07563069 0.013852861
000070 a4 20 ea bb aa 5b 48 bc b5 93 0b 3b 5d 2f 07 3c
       -0.0071450043 -0.012228886 0.0021297757 0.008251038

model/layer_normalization_1/batchnorm/mul/ReadVariableOp/resource f4 [32]
000000 2a 3d 86 3f 6c eb 78 3f e1 32 ac 3f 15 00 a5 3f
       1.0487416 0.97234225 1.3453027 1.289065
000010 d0 48 88 3f 43 0e a8 3f 6f bc a7 3f fc 83 9d 3f
       1.0647221 1.3129352 1.310438 1.2305903
000020 eb 09 a6 3f 49 9e 9f 3f 79 e1 a6 3f 23 8a 9d 3f
       1.2971777 1.247018 1.3037559 1.2307781
000030 b6 b7 96 3f 52 aa c0 3f cd 7d 95 3f b4 69 a8 3f
       1.1774814 1.5051978 1.1679016 1.3157258
000040 c5 dc ad 3f 22 42 94 3f db 5d 53 3f 29 6b 9d 3f
       1.3582999 1.1582682 0.8256509 1.2298328
000050 26 ac aa 3f e3 19 a6 3f 1d 21 88 3f 29 58 96 3f
       1.3333786 1.297665 1.0635105 1.1745654
000060 cb e3 82 3f cc d9 b8 3f ef b1 90 3f 55 c1 aa 3f
       1.0225767 1.4441466 1.1304301 1.334025
000070 63 d1 9a 3f ef 75 a2 3f 37 e1 a1 3f 7a 17 b7 3f
       1.209515 1.269224 1.2646855 1.430404

model/layer_normalization_1/batchnorm/ReadVariableOp/resource f4 [32]
000000 3b 70 1c 3c a7 38 38 bd d0 64 97 3e 43 a8 fb 3c
       0.009548242 -0.044975903 0.295691 0.030719882
000010 24 ba f2 bd 06 f8 1d 3e a8 1a 5d 3e 60 a3 1f 3e
       -0.1185191 0.15426645 0.215922 0.15589666
000020 a8 94 b6 3d ad 19 82 3d 70 84 8b 3e d8 19 50 3e
       0.08915073 0.063525535 0.2724948 0.20322359
000030 7d 64 e4 3d 56 2d d9 3d 03 84 82 3d a1 15 19 3e
       0.11151979 0.1060435 0.063728355 0.14949657
000040 01 7f 0d 3e d2 8e 02 3e 6d a9 88 be 95 d7 c7 3d
       0.1381798 0.12749794 -0.26691762 0.09757916
000050 29 1a 35 3e a4 cc 63 3e ea d9 62 3d 13 dd 6d 3e
       0.1768576 0.22246033 0.0553836 0.23228864
000060 13 53 86 3c 16 2b 1d 3e 9a b6 43 3e 8b a4 b9 3d
       0.016397035 0.15348467 0.19112626 0.09064587
000070 22 18 ab 3d bc 2b 6b 3d fb 7e 6f 3e f1 7c 87 3e
       0.08354212 0.057414755 0.23388283 0.2646251

model/layer_normalization/batchnorm/mul/ReadVariableOp/resource f4 [32]
000000 a7 be 8e 3f 3b dd a4 3f 2b ad 85 3f 71 84 81 3f
       1.1151932 1.2880014 1.0443472 1.0118543
000010 9d cb 74 3f 25 84 86 3f a4 93 88 3f 7e fc 90 3f
       0.9562319 1.0509077 1.0670056 1.1327055
000020 4a b3 88 3f 3c 24 8a 3f d6 54 8b 3f b3 00 9e 3f
       1.0679715 1.0792308 1.0885265 1.2343963
000030 4f d1 87 3f a0 f4 82 3f 44 66 99 3f 10 14 88 3f
       1.0610751 1.0230904 1.1984334 1.0631123
000040 e5 15 85 3f d5 b4 81 3f 30 f2 82 3f 31 78 76 3f
       1.0397307 1.013331 1.023016 0.9627715
000050 a6 b0 85 3f d3 9c 85 3f b6 41 89 3f 5d 12 9a 3f
       1.0444534 1.0438484 1.0723178 1.2036854
000060 fd 7b 87 3f 5f f3 80 3f 66 92 ad 3f 27 39 7f 3f
       1.0584713 1.0074271 1.3560302 0.9969658
000070 3a f5 86 3f e3 2b 92 3f ff 94 8a 3f d9 a7 86 3f
       1.0543587 1.1419643 1.082672 1.0519973

model/layer_normalization/batchnorm/ReadVariableOp/resource f4 [32]
000000 4a 09 3a bc 60 2c 2e 3d 7b e2 a0 3d 2a aa 99 3c
       -0.011354754 0.042522788 0.07855698 0.018757898
000010 22 a1 f1 bb b7 60 17 3d 79 a5 52 bc 15 a9 66 3d
       -0.007373945 0.03695747 -0.012856835 0.056313593
000020 98 dc b2 3d a0 b8 bc bb b2 00 4f 3c 96 d1 8a 3d
       0.08733481 -0.0057593137 0.012634443 0.067782566
000030 01 10 15 bc cd 58 03 3e e0 5c 57 bc fc e9 51 3d
       -0.009098054 0.12826844 -0.013144702 0.051248536
000040 94 40 86 3d d8 10 79 bc 32 b2 99 3d d7 3f 97 bc
       0.06555286 -0.01520177 0.07504691 -0.018463058
000050 49 93 21 3d 1a 48 2c 3d f2 cb 61 3d 55 dc 60 3d
       0.039447103 0.04206095 0.055126138 0.054897625
000060 f0 28 db 3b 85 67 04 3e c1 a7 a7 3d c5 b8 65 bc
       0.0066882297 0.12930115 0.081862934 -0.014021103
000070 ce a6 06 3c 69 b4 5c bc 4e e0 07 3c f3 47 47 3d
       0.00821848 -0.0134707475 0.0082932245 0.0486526

const_fold_opt__25 f4 [32, 32]
000000 0f 3e 80 bd 31 5f 02 3e cc 41 1d be a8 69 89 3e
       -0.06261837 0.12731625 -0.15357131 0.26838422
000010 c0 23 43 3d b8 ed e3 3d bf 30 d1 bd f9 29 6e 3e
       0.047641516 0.11129326 -0.10214376 0.23258199
000020 68 da 39 3e d2 78 be 3e bf 86 71 be 0b c3 94 be
       0.18149722 0.37201554 -0.23586558 -0.29055056
000030 a5 82 65 3e 50 1c 3f 3e 49 af 27 3e 20 af 5c 3e
       0.22413118 0.18663144 0.1637546 0.2155118
000040 f2 cc a4 3e f4 e9 95 3d c3 70 4e be c5 2c 80 3e
       0.3218761 0.07320014 -0.20160203 0.25034156
000050 91 79 6e 3e 00 b8 09 be 18 c0 71 3b 0e ed 80 be
       0.23288561 -0.13449097 0.0036888178 -0.25180858
000060 79 47 c0 3c 85 ff d1 3e 01 96 85 be 32 6b 87 3e
       0.02347158 0.41015258 -0.26091006 0.2644897
000070 a5 bd 13 3e 52 7e c2 3e d7 ae 0b be 2c 6c 60 be
       0.14427812 0.37987 -0.13640915 -0.21916264
000080 2a c2 0e 3e c3 46 ca 3d 39 0d ec 3e 82 65 28 bd
       0.13941255 0.09876778 0.46103838 -0.04111243
000090 62 4a e8 bd 08 fc 2d be 7c bf b1 3e 73 f4 f7 bd
       -0.113423124 -0.16990674 0.34716403 -0.12107172
0000a0 c0 66 2e bd 36 df bd be b4 52 4a 3e 06 b0 ef 3e
       -0.04257846 -0.3708436 0.19758111 0.46813983
0000b0 ed 15 69 be 73 99 e0 bd 03 71 9e bd 27 46 1a bd
       -0.2276227 -0.10966768 -0.07736399 -0.03766456
0000c0 b2 e3 06 be bc b0 11 be a0 0a 59 3e 3d 10 43 be
       -0.13172796 -0.14227575 0.2119546 -0.19049163
0000d0 22 a4 93 bd b9 81 9d 3e 03 44 1c 3e d9 b9 9f 3e
       -0.0720904 0.30763033 0.1526032 0.31196478
0000e0 00 b0 42 bd 07 8e 34 be fe c0 b0 3e b1 41 37 be
       -0.047531128 -0.17632304 0.3452224 -0.17896153
0000f0 e0 42 4f be 0c b9 65 be 03 f2 57 3e c8 e4 c2 3e
       -0.20240355 -0.22433871 0.21088414 0.3806517
000100 ea 90 c0 bc 5a 94 68 3d 47 ed 46 3b fc 89 5b bd
       -0.0235066 0.056782104 0.003035383 -0.05359839
000110 2b 7c 0e bd 03 7f 2d be 68 e1 de bc 1b 83 46 be
       -0.034786385 -0.16942982 -0.027207091 -0.1938595
000120 db 7f d2 bb 30 04 d8 bd b0 0f 4c 3d d1 e6 9a bd
       -0.006423933 -0.10547674 0.04981965 -0.07563556
000130 94 39 8a bd 73 bb 2f 3d 62 76 29 3d 4b 24 0b be
       -0.067492634 0.042903375 0.041372664 -0.13588063
000140 07 db fa bd 10 59 14 be f5 0c 29 3e 21 d9 3f be
       -0.122488074 -0.144871 0.16508849 -0.18735172
000150 8d dd 3c bd 7c 31 39 3e 34 59 0d 3d ce 28 0d 3e
       -0.046109725 0.18085283 0.0345089 0.13785097
000160 bb c0 c7 bd 0f fa d5 bd 37 9c 4b 3d 74 03 8e 3d
       -0.09753557 -0.104480855 0.049709525 0.069342524
000170 58 6b 0c be 58 71 7c be bd 65 cb 3d 2f 8b 5d 3d
       -0.13712823 -0.24652612 0.099315144 0.054087814
000180 cd bd a9 3d 21 57 f8 3d 0e cd 18 3d 16 04 33 3e
       0.08288155 0.121259935 0.03730493 0.17482027
000190 4e 1b 23 3e 5b 19 5e 3e ed ce 0f bd 3c 8e a1 3e
       0.15928385 0.2168936 -0.03510945 0.3155383
0001a0 7d 79 21 3e 07 3e 2d 3e ec f6 55 be 4a 01 9d bd
       0.15769 0.16918193 -0.20894974 -0.076662615
0001b0 21 31 43 3e e3 a1 47 3e 62 58 55 3d 6a 67 82 3e
       0.1906171 0.19495349 0.05208624 0.25469524
0001c0 3a 6c 5b 3e 03 d3 66 3e 3e 5b 06 bb b0 a0 21 3e
       0.21428004 0.22541432 -0.0020501162 0.15783954
0001d0 68 ac 30 3e f6 aa 32 be c3 9d e6 bd b1 7f 83 be
       0.17253268 -0.17448029 -0.112605594 -0.25683358
0001e0 90 ae c1 3c 8a d9 9f 3e 08 42 48 be f1 e1 0d 3e
       0.023642808 0.31220657 -0.19556439 0.13855721
0001f0 72 3f f0 3d 55 f1 0a 3e 7d c9 9e bc 51 79 3f be
       0.11730851 0.13568623 -0.019383186 -0.18698622
000200 ca c3 e8 bc fb 1b ed 3d e8 20 5f bc 34 2c 1d 3e
       -0.028413672 0.115776025 -0.013618685 0.15348893
000210 a6 36 74 3d ba 3e 1d 3e 85 ed 60 bb 93 9b 9b 3e
       0.05962243 0.1535596 -0.003432126 0.3039213
000220 64 84 0d 3e e2 06 84 3e 8e dd 20 be 68 1e 05 be
       0.13820034 0.257865 -0.15709516 -0.1299988
000230 52 3a ac 3d 15 7e c7 3d 38 4a ee 3d 53 9b 4e 3e
       0.08409561 0.09740845 0.1163525 0.20176439
000240 a3 cf 54 3e 92 b1 d3 3d 66 85 87 bd 73 b5 3c 3d
       0.20782332 0.10336603 -0.066172406 0.04607148
000250 e4 fe 7c 3d fb 9c 0a be d1 46 af 3d 71 71 76 be
       0.06176652 -0.13536446 0.08558429 -0.24066712
000260 01 74 9a 3d f8 12 44 3e ea 92 f4 bd 3a b7 ef 3d
       0.07541657 0.19147861 -0.11942084 0.117048696
000270 5e 8e 38 3e 63 8f 39 3e 38 6e 05 be 71 58 3d 3d
       0.18023059 0.18121104 -0.13030326 0.046226922
000280 54 9a 6e bd a8 07 ce 3d 97 95 08 3d 70 22 a7 3c
       -0.058252648 0.10060054 0.033345785 0.020402163
000290 3a b3 8c 3c be 25 35 3e 66 e4 e5 3d fa d3 70 3d
       0.017175306 0.17690179 0.11225204 0.058795907
0002a0 94 77 ac bd e7 5f 47 3e 17 92 5f be 9d 4b f6 3d
       -0.08421245 0.19470178 -0.21833073 0.12026141
0002b0 f2 79 d9 3b 49 df 3b 3e 11 6d 59 3d 9e 22 57 bd
       0.0066368515 0.18346895 0.05308253 -0.052523248
0002c0 ba 3c 7f 3e 79 ba 29 3e e3 26 ba ba c4 54 37 3d
       0.24925509 0.1657504 -0.0014202263 0.044758573
0002d0 21 28 07 3e d4 fd 42 be ff 83 fe 3c 7e 0f 2e be
       0.13198902 -0.1904214 0.0310688 -0.16998097
0002e0 0b 3a 1e bc 74 11 81 3e 1d 6f e6 bd 97 2a 50 3e
       -0.009657393 0.25208628 -0.11251662 0.20328747
0002f0 51 cc 86 3d 4c 7c 8d bd b7 33 b5 bd 82 ef 00 bd
       0.06581939 -0.06908473 -0.088477544 -0.031478412
000300 c1 34 a5 bc 91 21 5c 3c dc dd d8 3c 9b ef 0e 3e
       -0.020166757 0.013435737 0.026472978 0.1395859
000310 78 a4 0a 3e ff 1d 73 3e 57 b2 26 be 63 9f 8f 3e
       0.13539302 0.23741911 -0.16278969 0.2805129
000320 de 61 2f 3e 22 42 87 3e d3 a0 92 bd c9 25 03 be
       0.17127177 0.26417643 -0.07159581 -0.12807383
000330 93 5e 35 3e a4 cd b1 3e ec a7 7a 3e 94 72 9c 3e
       0.17711858 0.34727204 0.2447812 0.30556166
000340 b9 89 69 3e 44 f1 7d 3e 30 33 94 bd 7c f0 81 3e
       0.22806443 0.24799067 -0.07236326 0.25378788
000350 e0 84 70 3e 1b 2d 1b be a5 9f ad 3c 83 dd 2b be
       0.23488188 -0.15153925 0.021194289 -0.16783719
000360 5e 42 c9 3d 63 42 50 3e a5 0b 01 be 16 c9 ac 3e
       0.09827112 0.20337825 -0.12602098 0.33747166
000370 ea 6c 6f 3d de a0 1d 3e 46 9c 0c be 01 30 e0 bd
       0.058453478 0.15393397 -0.13731489 -0.10946656
000380 80 fa 38 3d 4a d4 33 bc b3 e4 10 3e 8d 4e dc bd
       0.04516077 -0.010975907 0.14149742 -0.1075717
000390 4c f2 b4 bd e9 98 c8 bd 60 43 8b 3e dc ec 97 bd
       -0.08835277 -0.0979479 0.2719984 -0.07418224
0003a0 ae eb 20 be 17 ae f3 bd 99 c6 f9 3d 13 37 d8 3d
       -0.15714905 -0.118984394 0.121960826 0.105573796
0003b0 b1 0f e0 bd e2 2f 48 bd 55 d6 cc bd 3c 2f 34 bd
       -0.10940493 -0.04887379 -0.10001818 -0.04399036
0003c0 79 4c 3d be 36 2f 35 bb 1a 41 b8 3c 37 5d 88 bd
       -0.18486203 -0.0027646548 0.02249198 -0.06658404
0003d0 7d cf e6 bd 40 25 eb 3d 67 90 24 3e 34 2b 99 3e
       -0.11270044 0.11481714 0.1607071 0.29915774
0003e0 81 10 96 bd 10 44 85 be 1b bb 24 3e ad 0d fc bd
       -0.073273666 -0.2602849 0.16087 -0.12307296
0003f0 a3 63 6f bd f9 ba 8e be 04 d3 66 3e 54 17 3a 3e
       -0.05844463 -0.27877024 0.22541434 0.18172961

const_fold_opt__23 f4 [32, 1]
000000 c9 0d 46 3e b0 70 bd 3d 6c 20 02 bf 00 0a 8a 3e
       0.19341196 0.09250009 -0.5083072 0.26960754
000010 83 92 50 3e 20 67 ac 3e c9 f5 b6 be 68 0a c3 3e
       0.2036839 0.33672428 -0.35734394 0.38093877
000020 56 d2 ca 3e 60 35 ca 3e 57 dc be be a9 d2 b9 be
       0.396136 0.39493847 -0.3727748 -0.36293533
000030 fe de 37 3e 6b 29 e9 3e 84 11 87 3e a1 a3 b7 3e
       0.17956159 0.45539412 0.2638055 0.35867026
000040 07 b9 f0 3e 6a 57 55 3e 2c 92 c7 bb b9 ac aa 3e
       0.47016165 0.20834127 -0.006090423 0.33334902
000050 d9 72 a3 3e 52 50 c0 be 5a 82 34 3e d2 9e 9d be
       0.3192356 -0.3756128 0.1762785 -0.30785233
000060 b0 f0 4c 3e a6 c3 d8 3e 82 e6 50 be 61 89 dc 3e
       0.2001369 0.42336768 -0.20400432 0.43073562
000070 45 1c 61 3e da e2 dd 3e c9 a7 bf be b4 ea 14 bf
       0.2198344 0.43337137 -0.37432697 -0.5817063

const_fold_opt__22 f4 [1536, 32]
000000 94 64 4d be a1 7b a0 bd 42 fe b1 bd 21 05 75 bd
       -0.20057899 -0.0783608 -0.08691074 -0.059819344
000010 e7 da 5e bd b9 a3 96 bd f1 a1 53 bd 74 e4 0e 3d
       -0.05440798 -0.07355446 -0.05166811 0.03488584
000020 e4 f0 0c bd c6 00 f2 3c 83 c7 8b bd 51 3d a3 ba
       -0.03440942 0.029541384 -0.06825163 -0.0012454187
000030 13 e2 96 bc 46 f0 43 bd dd 43 97 bd 65 de 60 bd
       -0.018418347 -0.047836564 -0.07385991 -0.054899592
000040 df 04 7d bc d7 fc 43 bd bc bd 86 bd bc cc 0f bd
       -0.015443056 -0.04784855 -0.06579158 -0.03510736
000050 e1 e3 91 bd fc f0 57 bd 42 51 73 bd 6c 43 3c bd
       -0.071235426 -0.052720055 -0.059403665 -0.045962736
000060 5b 74 44 bd 16 7e f1 bc 56 aa e8 3b 78 c4 b2 bd
       -0.047962528 -0.029479068 0.0071003838 -0.0872888
000070 c9 76 4f bd 71 7b d6 bd 36 30 15 3d 12 0e 83 bd
       -0.05065039 -0.10472763 0.03642293 -0.06399168
000080 d0 7b 89 3d 8e f8 6c 3d 89 da 68 3d dd 85 81 3d
       0.067130685 0.057854228 0.056849036 0.063243605
000090 a4 43 84 3d de de 83 3d b7 29 0b 3d 6c e0 01 3d
       0.06458214 0.06438993 0.03397533 0.031708166
0000a0 fe dd 71 3d da f8 62 3c 16 fa 74 3d 1b 0d 49 3d
       0.0590496 0.013853276 0.059808813 0.049084764
0000b0 6e 25 c8 3c 76 fc 8e 3d 11 a7 fe 3d 1a 96 95 3c
       0.02443191 0.06981747 0.12434209 0.01826005
0000c0 c9 70 89 3d 57 1f 52 3c 4a f5 35 3d 20 cd db 3c
       0.06710965 0.012824855 0.04442338 0.02683121
0000d0 75 d1 34 3d dc a3 35 3d 8e 0f d6 3d 94 39 83 3d
       0.044145066 0.04434572 0.104521856 0.064074665
0000e0 61 15 83 3c 48 11 9d 3d c2 9c 48 ba d4 fb 8f 3d
       0.016001405 0.07669312 -0.0007652753 0.07030454
0000f0 c1 da 5c 3d b5 7d 7e 3d bc 86 88 3d 4c be 9d 3d
       0.053919557 0.062131602 0.066663235 0.07702312
000100 18 78 5c 3d 39 3e 5c 3d 95 33 28 3d f6 49 27 3b
       0.053825468 0.053770278 0.041064817 0.0025526262
000110 10 cb 01 3d 06 aa 8d bc 26 4f 8d 3c 6a 9a 2f bb
       0.031687796 -0.017292988 0.017249655 -0.0026794919
000120 bd bb 89 3d 63 53 ae 3b 02 a4 01 3d ce 67 44 3d
       0.06725261 0.005319999 0.03165055 0.04795056
000130 f6 98 0c bd 46 ba 46 3c 67 dc 78 3d 9e 6a 05 3e
       -0.034325562 0.012129372 0.060757067 0.13028952
000140 1b 68 4d 3c 5d a2 03 bc 61 1a 95 3d 10 3a b2 3c
       0.012537028 -0.008034316 0.07280422 0.021756202
000150 2d 9e b8 3d cd f0 12 3d 92 da 49 bd 08 d9 80 3d
       0.09014545 0.035874177 -0.04928071 0.062913954
000160 57 b2 78 3d cd 51 2a 3a 1b 9f 0c 3d 13 4c 2c bd
       0.060716953 0.00064971746 0.034331422 -0.042064738
000170 7a 2e 80 3d d2 cf 81 3d 98 d7 0f 3c 2f 5f 62 3c
       0.06258865 0.06338467 0.008779429 0.013816639
000180 31 f0 4e bd 17 3a ea bc a1 2a 92 bc e4 fc f0 bd
       -0.050522033 -0.028592153 -0.017842593 -0.11766985
000190 ae a4 98 bd 72 10 a7 bd ed 93 ee bc e3 25 2c 3d
       -0.07453285 -0.081574336 -0.02912327 0.04202832
0001a0 b4 82 ee bc ac ba d2 bc fa 93 33 3b ad 3f ac 3b
       -0.029115058 -0.025723778 0.0027401433 0.005256614
0001b0 3c 26 6b bd 93 fb b5 bc e8 8e a3 bd 6a 2a fc 3c
       -0.05740951 -0.022214686 -0.079862416 0.030781943
0001c0 b0 f8 c6 bd cb 29 24 bd 27 32 fe bc 73 23 a2 bd
       -0.09715402 -0.04007892 -0.031029774 -0.07916918
0001d0 65 06 c4 bd 80 ff 48 bd 44 3f 16 bd ec 89 bf bc
       -0.09571532 -0.04907179 -0.03668143 -0.023381196
0001e0 b8 c3 76 bd 0f fc 1b be a6 26 5e 3b 2b 4b 97 bd
       -0.060245246 -0.15232871 0.0033897548 -0.07387384
0001f0 32 88 ca bc 1f 47 00 ba 2a d2 cb bd 0b a6 c8 ba
       -0.024723146 -0.00048934104 -0.09952195 -0.0015308274
000200 d6 1d a6 3d 2f 36 a6 3d 1b 45 82 3c 89 f2 fe 3d
       0.081111595 0.081158035 0.015902093 0.12448604
000210 5d 26 d8 3d 8f 18 b1 3d 62 17 4c 3d 95 c6 7f bd
       0.10554192 0.08647262 0.049826987 -0.062445242
000220 15 a0 45 3b 70 14 3e 3d c7 bf 95 3d 5d 11 4d bc
       0.003015523 0.04640621 0.07311969 -0.012516347
000230 cd 83 c2 3d 9f f9 7b 3d 86 81 02 3e 04 ba d9 3c
       0.09497795 0.061517354 0.12744722 0.026577957
000240 d3 f5 c5 3d e8 c2 94 3d 5b 97 14 3c 32 a3 88 3c
       0.09666028 0.07263738 0.009069289 0.01667938
000250 da 79 dc 3d da 71 85 3d 24 d3 ee 3c 15 6b 18 3d
       0.10765429 0.06515856 0.029153414 0.037211496
000260 3a 6b 87 3d 9e e2 94 3d e5 96 02 bd d9 d4 bb 3d
       0.06612249 0.07269786 -0.031882185 0.09171457
000270 d7 22 c1 3c bf ef a8 3d 82 50 a7 3d 9f 72 be 3d
       0.023576183 0.08248853 0.081696525 0.09299206
000280 f6 8c 9f 3c 7e f1 b0 3d e5 f3 a7 3d be 0c 2a 3d
       0.019476395 0.08639811 0.08200816 0.04151606
000290 13 01 83 3c 92 5b 78 3d a8 c2 42 3d 03 37 98 3d
       0.015991723 0.060634203 0.04754892 0.07432368
0002a0 66 d3 b9 3d 27 3b 97 3c f3 02 cf 3b 62 df 98 3d
       0.09073524 0.018460823 0.0063174902 0.07464482
0002b0 1e f3 10 3d 15 c6 4e 3d 5f e1 3c 3d 41 cb 35 3d
       0.035388105 0.050481874 0.046113368 0.04438329
0002c0 ce 8d a3 3b 68 48 2b 3d 07 91 93 3d 27 42 0e 3d
       0.0049912697 0.0418171 0.07205396 0.034731057
0002d0 6b 91 30 3d 4a ad 00 3d 81 62 7e 3d de b2 7c 3d
       0.04310743 0.03141526 0.06210566 0.06169402
0002e0 77 91 00 3d ce b8 5c 3d 7f 1b b1 3d a4 89 f9 3c
       0.031388726 0.05388718 0.086478226 0.03046114
0002f0 ce 60 4f 3c c0 38 1e 3b 92 93 2e 3d 8f e8 16 3d
       0.012657357 0.0024142712 0.042621203 0.03684288
000300 33 05 34 3d f1 df ee 3d 28 01 f1 3d 3d ba 15 3d
       0.04395027 0.11663807 0.11767799 0.036554564
000310 68 76 f2 3c 52 c7 12 3c b8 ef 6e bb 08 a4 a2 3d
       0.029597476 0.0089586545 -0.0036458801 0.07941443
000320 e2 9e a7 3d 47 6c 34 bb da 0d 7f 3d fb 4e 8f 3d
       0.08184601 -0.0027530359 0.06226907 0.06997486
000330 50 44 41 3d 48 e4 d7 3c 7a b9 8b bd 0c 3f 79 3d
       0.04718429 0.02635397 -0.06822486 0.06085114
000340 b9 31 53 3b b8 e8 1f 3d da 8e f8 3d 12 c1 ea 3c
       0.0032225682 0.039040297 0.12136622 0.028656516
000350 e5 71 21 3b 49 ec fb bc 02 cc 61 3d c3 29 e9 3d
       0.0024634537 -0.030752318 0.055126198 0.113849185
000360 3e 0a cd bc 8e d2 9a 3d 52 87 94 3d d4 65 f3 3c
       -0.025029298 0.07559691 0.07252373 0.029711641
000370 09 d9 6f 3c 62 d6 26 3d 15 59 a8 bc a9 52 0e 3c
       0.014639148 0.040731795 -0.02055029 0.0086867
000380 5c 2b a2 bd 46 ca 7c 3c e0 bf f9 3c 9b 78 80 bd
       -0.079184264 0.015429085 0.030487001 -0.06273004
000390 43 1b ae bd 42 a3 f0 3a 8d 23 a0 bd 39 f9 cc 3a
       -0.085012935 0.0018359201 -0.07819281 0.0015638239
0003a0 b7 be b6 3c 4c 8f 84 bd da 12 cd bd e0 dd 04 3b
       0.022307737 -0.06472644 -0.10013361 0.002027385
0003b0 78 65 c4 bd 0a 70 59 3d ad 81 80 bd 21 51 ee 3c
       -0.09589666 0.053085364 -0.06274734 0.02909142
0003c0 84 87 71 bd cc 2e cc bd 6d f0 74 3c b9 ac be 3b
       -0.05896713 -0.09969863 0.0149499 0.00581893
0003d0 e2 ee 9c bd 7a 7e 4c bd 42 63 a7 3c ff b1 88 bc
       -0.07662751 -0.049925305 0.020433072 -0.016686438
0003e0 6e d5 01 be 92 8e 90 bd 41 2a 9c bb 20 d8 58 bc
       -0.12679073 -0.07058443 -0.0047657792 -0.013235122
0003f0 1b 48 d3 bd 52 42 ad bd 63 ec 97 bd 61 d6 ab bd
       -0.103164874 -0.08459915 -0.07418134 -0.08390499
