en/hi_xiaowen/hi_xiaowen_v1.onnx (onnx, 208142 bytes, 9 tensors)

model/tf.math.add_1/Add/y f4 [32]
00000000: 451b e3bc 4e8b 6e3e 52ed 053e 1b03 0e3e
00000010: b359 073e f42c 363e d099 f1bd 96f9 d8bd
00000020: 0c45 57be 4473 cbbd d753 dd3d 7fc6 18bd
00000030: 77c3 b03d 00d5 1a3e 485f 07bd c8cf 49be
00000040: 9bb8 26be b51b 9ebd b2d1 923c 8ae6 09be
00000050: f2ef 2fbe 963a 2f3d 5b9d f9bd 15bd 613d
00000060: 9622 93bd 7bf8 6a3d 06ad 3dbe 6f35 44be
00000070: c182 d4bc 7c21 9cbd 8ea5 fabd 1c82 e13c
-0.027722964 0.23295328 0.13078812 0.13868372 0.13217811 0.17790586 -0.117969155 -0.1059448
-0.21022433 -0.099340945 0.10807007 -0.037298676 0.08631032 0.15120316 -0.03304985 -0.19708169
-0.16281359 -0.077201284 0.017922256 -0.1346685 -0.17181376 0.04278048 -0.12188216 0.055111963
-0.07184331 0.057365876 -0.18523034 -0.19161008 -0.025941255 -0.07623574 -0.12238608 0.027527861

model/tf.math.add/Add/y f4 [32]
00000000: 82bc 743d 7df7 5f3d b7c3 df3c 9008 c53c
00000010: 071c 223e 87e2 6f3d 9d19 863d 44e7 073e
00000020: 864a 1e3e 38b0 823d 0bc1 6d3d 1d99 c23d
00000030: d6a5 433c 491a 1b3d 3bd6 b83c 7685 f13d
00000040: 0e72 223e 4295 463d 07ce ad3d 06f7 9c3d
00000050: 5d17 1c3d 6d50 353d 6fdf 2d3b d08a 353d
00000060: d741 183d ce02 0b3e db20 083e 33a0 863c
00000070: 6c5c 0b3e 02c3 243d 92b1 c03d 212e 2e3d
0.059750088 0.054679383 0.027315004 0.024051934 0.15831004 0.058565643 0.06547854 0.13271815
0.15458116 0.06381267 0.05804543 0.0950186 0.011941394 0.037866864 0.02256309 0.11793034
0.15863821 0.048482187 0.08486562 0.076643035 0.03810822 0.044266153 0.0026530882 0.044321835
0.037172165 0.13575289 0.13293783 0.01643381 0.13609475 0.040225036 0.09408869 0.04252446

model/layer_normalization_1/batchnorm/mul/ReadVariableOp/resource f4 [32]
00000000: 9f8a af3f 50be 9a3f 9f4a 9a3f c90b 823f
00000010: 0020 ac3f 46fc 903f 3666 923f 93cf a33f
00000020: de4d a83f 2368 b83f 25e7 b33f 6750 953f
00000030: a85f ab3f 5978 9f3f fe6c 853f cd36 973f
00000040: 5f0f a33f 1f70 be3f 7a3e 983f b02b cb3f
00000050: bfb5 993f 80be a13f b649 d03f ac0f a03f
00000060: 8060 a53f e16e a23f 218f 973f bec6 a83f
00000070: 7795 983f 92e5 993f c90b d33f c336 933f
1.3714179 1.2089329 1.2054023 1.0159847 1.3447266 1.1326988 1.1437442 1.2797722
1.3148763 1.440678 1.4054915 1.1665162 1.3388567 1.2458602 1.0423887 1.1813599
1.2739066 1.4877967 1.1894066 1.5872707 1.200859 1.2636261 1.6272495 1.2504783
1.2920074 1.2690088 1.1840554 1.3185651 1.1920613 1.2023184 1.6487972 1.1501087

model/layer_normalization_1/batchnorm/ReadVariableOp/resource f4 [32]
00000000: f19a e53d 252a 1f3e 2513 283e 0989 853d
00000010: 1e73 803e e97a e7be b630 3a3e 6928 293e
00000020: 8fbf 3d3d b98c 563e 80c9 933e e915 713e
00000030: 03c0 dc3d cb38 673e 16d6 8ebe 2d03 2b3e
00000040: f629 dfbc e512 fe3d e6ec 543e e2fa 023e
00000050: 7e50 263e bd10 853e b3b3 0f3e b2af 283e
00000060: 8a3d be3d 1c01 643e 780a ee3d 5559 fa3d
00000070: 5e30 3d3e 23a1 713e 5a34 e0bd 60a1 263e
0.11211193 0.1554342 0.16413553 0.06520278 0.25087827 -0.4521096 0.18182644 0.16519322
0.046325263 0.20952119 0.2886467 0.23543514 0.10778811 0.22580259 -0.2789771 0.1670043
-0.027241688 0.124059476 0.20793495 0.12791017 0.16241643 0.25989333 0.14033394 0.16473272
0.092890814 0.22266048 0.116230905 0.1222407 0.18475482 0.23596625 -0.10947485 0.16272497

model/layer_normalization/batchnorm/mul/ReadVariableOp/resource f4 [32]
00000000: 2237 903f 654d 843f 6aaf 9a3f e8c5 8f3f
00000010: 6b45 933f 494a 863f e790 813f 1d6a 8e3f
00000020: b728 9d3f 1e3f 843f 0041 823f 8ce7 883f
00000030: a461 933f 5f0c 8a3f 4051 823f 6e2f 743f
00000040: 663b 933f 0f33 883f 0482 853f 142b 743f
00000050: dd75 8b3f d3ac 8c3f c9dd a23f 5da8 7d3f
00000060: 8215 853f 03c9 8e3f 4b6d b13f 2830 a13f
00000070: 1b8d 7c3f fb0f 8b3f 07c9 8d3f d52d 893f
1.1266825 1.0336119 1.2084782 1.1232271 1.150556 1.049142 1.0122346 1.1126133
1.227805 1.0331762 1.0176086 1.0695662 1.1514173 1.0785025 1.0181046 0.9538487
1.1502502 1.0640582 1.0430303 0.9537823 1.0895344 1.0990242 1.2723933 0.99085027
1.0397189 1.1155094 1.3861479 1.2592821 0.9865281 1.0864252 1.1076974 1.0717112

model/layer_normalization/batchnorm/ReadVariableOp/resource f4 [32]
00000000: 001f c13d a118 283e cd10 223c caff 983d
00000010: bd4c 103e 96a3 143d d832 ad3b 9f7c da3c
00000020: 3ef0 103e 8053 1f3d 0285 5e3d 92b2 0c3d
00000030: 3d00 6d3c 5bc0 d23d 0b79 9b3c 1813 f2bc
00000040: 2ec9 083e 766f 1e3c 5e8b d1bd 1133 35bd
00000050: 4669 443d 12d2 443c 777f 9f3c 401c 413e
00000060: 3195 763e fd59 0e3e ee5d 173e ede0 873c
00000070: 0885 9b3c 9180 f43c 763c d03b e6d3 283d
0.09429741 0.16415645 0.009891701 0.07470663 0.14091773 0.03628882 0.005285602 0.026670752
0.14154145 0.03889799 0.054326065 0.034349985 0.014465389 0.10290595 0.018978616 -0.02955012
0.13357994 0.009670129 -0.1023166 -0.044238154 0.04795196 0.012012975 0.01946996 0.18858433
0.2408035 0.13901515 0.14781925 0.016586745 0.018984333 0.029846461 0.0063548638 0.041217707

const_fold_opt__24 f4 [32, 1]
00000000: 7718 c43e 355c b6be 2bc1 62be 71eb bbbd
00000010: d04b c4be 3c68 bf3d 2140 993e c86c aa3e
00000020: 4c1a 963e a516 f83e f7ba ffbe cadd acbe
00000030: 8aaf 8e3e e545 9ebe 2b11 d73d 7c39 af3e
00000040: c671 f13e 9d1c e23e 2f39 333e 9f15 d83e
00000050: 5059 803e 4b25 dbbe a399 323f d098 803e
00000060: d5fb 923e 691a d0be 873e b63e b4ac 9a3e
00000070: a668 773e cb68 863e e693 343f 78f4 a43e
0.38299915 -0.35617223 -0.22144 -0.09175766 -0.3833909 0.09346053 0.2993174 0.33286119
0.29316938 0.48454776 -0.4994733 -0.33762962 0.278683 -0.309127 0.105013214 0.34223545
0.47157115 0.44162455 0.17502283 0.42203996 0.2506814 -0.4280189 0.6976568 0.25116587
0.28707758 -0.4064515 0.3559458 0.30209887 0.24161014 0.26251826 0.70538175 0.32217765

const_fold_opt__23 f4 [1536, 32]
00000000: becc d1bc 5f12 b3bb e2c3 b13c c1bf 01bd
00000010: 5611 edbc ec62 1fbd ce27 99bd d6fa 193d
00000020: 2a9f 193c ba84 4bbd cf00 d4bc d57c 1dbe
00000030: 524d 9cbc f4a1 3bbc 0273 593c 29a6 21bd
00000040: 0765 0c3c 7008 4bbd 492a 9e3d d1d4 7abc
00000050: 8dcc 863a 49e9 56bd 6d8c efbc 8766 3cbc
00000060: f57f d6bd c70d 14bc e174 3dba 43b7 09be
00000070: f01f 1abc 8310 d5bd 5b58 8fbc 597d debb
00000080: 950f 293d 9739 963d 748a 813d da22 833c
00000090: 322a e33d 8073 df3c a35a 933d 050a 7b3d
000000a0: 5559 d03d 12e7 883d 4172 9c3d ad19 843d
000000b0: 735f 783d 9ca4 223d c740 553d 48da c23d
000000c0: 6a28 b03d 7332 583d 4bb2 863d 207a c53d
000000d0: c352 663d 58c9 9f3d 2a5b 173d f6a7 973d
000000e0: ee5e 8b3d 92a0 d13d 48b8 e43d 1e8f da3d
000000f0: 2981 8e3d 274f 443d 04c9 c23d 9b66 463d
00000100: 25b3 dc3c 412b 7d3d 93c3 723e a6bf 343e
00000110: bf0b 5cbc 151a 1e3e e062 fe3d 3881 0a3e
00000120: 3e93 00bd ac9c d23d 38c2 fe3d 79f6 f03d
00000130: 5c01 163e ee6b f13d dd42 9f3d 7f3f 35bd
00000140: 3173 143d 58cb a23d e094 e93d cb10 023e
00000150: 4803 c63d 5cf5 e23d d07e 2e3e 86e8 ae3d
00000160: 104b e93d 6632 03bd becd 57bd 4894 a23d
00000170: faf8 173d aff6 e33d 7971 c7bd fe44 903d
00000180: 9257 debc 3c58 64bd 299d 43bd cd72 df3c
00000190: f612 9b3c 0724 02be eb40 95bd 3f49 dbbd
000001a0: 80bd 99bc 70f2 9ebd 697c 7bbc 6b45 843d
000001b0: 9c1b 00bd 35af c9bd 4604 2abd ebe2 c6bd
000001c0: 74b3 a43a 27a5 d9bd b85b 82bd cf1b 6ebd
000001d0: a440 a4bd 93d2 8fbd 06f8 0bbe d5b0 a3bd
000001e0: 3cb8 7b3c 2a17 8c3c 93a1 bb3b ba37 43be
000001f0: 4c46 5c3d b454 8dbd 3d78 82bd b0eb c0bc
00000200: 299a f43d 4985 e43d e2eb 2c3e a416 103e
00000210: 0200 5e3c 0299 4a3e 13c7 923d fa2c 00bd
00000220: a7b1 3dba 5055 ef3d cfec 2d3e b561 b23d
00000230: abd3 6b3e 436a 283e 998d 473e d2eb c23d
00000240: 544b fa3b b933 0e3e e845 dd3d 114c 873d
00000250: a06b b63d 7539 0b3e 2fa7 a23d 7bf3 a33d
00000260: d632 c53d 9140 983c 5c4e abba 33b1 e33d
00000270: 2d36 6b3d d40c 1f3e e177 593d 50d6 de3d
00000280: 3d4b 603d 071a d63d be79 c63c f6cd 6a3d
00000290: 1fef f63d a5aa 913d c354 333d b0d6 e73d
000002a0: 0eb9 dd3d e19e 5d3d 9653 8d3d 667c 923d
000002b0: f954 1b3d ad2d 383d a8d6 b43d d66d 043e
000002c0: 8ef0 b83d 2183 913d f5c6 213d 7f42 aa3d
000002d0: e212 243d 16e5 543d 1631 d63c c8e6 873d
000002e0: d545 253d e792 013e 28f8 cc3d 8583 963d
000002f0: 702e a03d eead b23d 8486 fa3d 42eb 903d
00000300: 1ded 9e3d 1a27 413d 7d62 233c 61e3 883d
00000310: 3ab4 073e cf5c 113d 599d a83d 3d66 a33d
00000320: 0f2e 053e 8170 c23d 2b54 283d f881 e03d
00000330: 6968 f23c 8912 bc3d d7b9 583d f083 9f3d
00000340: 98cb dd3d 36d2 473d ab68 8e3d 856d ac3d
00000350: 542d 853d b42a bf3d edd2 953d c385 a23d
00000360: 8082 8a3d 706d f33d 7bd5 0d3e df5f 593d
00000370: 6107 e43d 6574 973d 5050 7f3d 9233 9a3d
00000380: 402b 9cbc 9a4c 34bd 552a 4dbd d153 78bd
00000390: 6f08 69bd 8f3f c3bd 150b 16bd 6550 98bd
000003a0: 9996 abbd eb15 51bc 6262 b0bd c7d1 423b
000003b0: e9df 84bd 4708 0fbd b254 30bd dfb1 83bd
000003c0: f20c f4bc 744e b8bd d118 87bd 227a acbc
000003d0: 0a3b c0bc 7979 07be 5fbb 39bd 2127 81bd
000003e0: e2bc 7abd 3142 92bd 36b4 e7bd 70b7 a6bd
000003f0: 03b8 3abd 9f22 81bd f8fb e8bc 23bd bcbd
-0.025610324 -0.0054648365 0.02169985 -0.03167701 -0.02893893 -0.0389127 -0.07478295 0.03759273
0.009376327 -0.049687125 -0.025879292 -0.15379651 -0.019079838 -0.011452187 0.013272049 -0.039465103
0.008569009 -0.049568594 0.07722909 -0.015309528 0.001028435 -0.05246857 -0.029241765 -0.011499054
-0.104736246 -0.009036488 -0.0007227194 -0.13448815 -0.009407029 -0.1040354 -0.017498186 -0.006789845
0.041274626 0.07335203 0.06325236 0.01600783 0.110920325 0.027276754 0.07195022 0.061288852
0.10173289 0.06684698 0.0763898 0.0645021 0.060637902 0.039707765 0.05206373 0.0951429
0.08601458 0.052782487 0.065769754 0.09642434 0.05623127 0.07802075 0.036952175 0.07405083
0.06805216 0.102357045 0.11167961 0.10671829 0.06958229 0.047927048 0.09510997 0.048437696
0.026940892 0.06180883 0.23707418 0.17651233 -0.013430535 0.15439637 0.12421203 0.13525856
-0.03139042 0.10283789 0.12439388 0.11765761 0.14648956 0.11788164 0.07776425 -0.044250008
0.036242668 0.07948941 0.11405349 0.12701719 0.096685946 0.11081955 0.17040563 0.08540444
0.1139127 -0.032030486 -0.052686445 0.07938439 0.037102677 0.111310355 -0.0973844 0.07044409
-0.027141366 -0.05574821 -0.0477573 0.027276421 0.01892994 -0.12709056 -0.07287773 -0.1070733
-0.018767118 -0.07761085 -0.015349486 0.06458553 -0.03127633 -0.09847871 -0.04150798 -0.0971125
0.0012565688 -0.106272034 -0.0636515 -0.05813199 -0.08020142 -0.07022586 -0.13668832 -0.079927124
0.015363749 0.01710089 0.0057260483 -0.19064227 0.053777978 -0.069009215 -0.0637059 -0.023549885
0.11943466 0.111582346 0.16886857 0.14071137 0.013549807 0.1978493 0.07166877 -0.031292893
-0.000723625 0.11686194 0.16984867 0.087100424 0.23029964 0.16446786 0.19487609 0.095176354
0.0076383743 0.13886918 0.10804349 0.066063054 0.089072466 0.13596137 0.07942044 0.080054246
0.09628837 0.018585475 -0.0013069618 0.111177824 0.057424713 0.15532237 0.05309284 0.108807206
0.054759253 0.10454183 0.024227973 0.057325326 0.120573275 0.07112626 0.043782007 0.11320245
0.10826312 0.054106597 0.069007084 0.07152633 0.037922833 0.044965435 0.08830005 0.12932524
0.09030257 0.07105089 0.03949638 0.083134644 0.04005707 0.051976286 0.026146453 0.06635815
0.0403498 0.12653695 0.100082695 0.07349304 0.07821357 0.08724581 0.12232688 0.07076122
0.077600695 0.04715643 0.009972212 0.06683994 0.13252345 0.0354889 0.08233137 0.07978485
0.13005851 0.09494115 0.041095894 0.109622896 0.029590802 0.09183223 0.052911606 0.07788837
0.10829848 0.048784457 0.069535576 0.08419327 0.06502786 0.09334317 0.073156215 0.07935669
0.06763172 0.11886108 0.13850968 0.053069945 0.1113422 0.07395247 0.06233245 0.075293675
-0.019063592 -0.044018365 -0.0500892 -0.06062681 -0.05689281 -0.09533607 -0.036631662 -0.07437209
-0.083783336 -0.012761573 -0.08612515 0.0029727088 -0.0648802 -0.034920003 -0.04304952 -0.064304106
-0.029791329 -0.08999339 -0.0659653 -0.021054331 -0.023465652 -0.13229932 -0.045344707 -0.06306291
-0.06121529 -0.07141531 -0.113136694 -0.08140457 -0.045585644 -0.063054316 -0.02844046 -0.092157625

const_fold_opt__22 f4 [32, 32]
00000000: 3178 603e 2b38 f9bc 95ee 3bbe 4666 6cbe
00000010: 457f 99be f7fe 22be b0fe 1f3e 7e19 b63c
00000020: 78af 563e 3866 cf3e d687 19be 83db abbe
00000030: 18b9 7d3e c214 7dbe 48c2 61bd 371e 613e
00000040: fd02 9e3e 56ca a23d 1b18 7a3e 6387 83be
00000050: 43c1 6e3e e9c4 65bd 73d6 403e 22c7 8a3e
00000060: 35b5 743e 778e d6bd 316c 723e 3fed 8c3e
00000070: 0af5 5a3e d233 053e 623d d4bd 23db 863e
00000080: 3041 c43d dfc9 3bbd a4ed 0ebe 43e9 42bd
00000090: fb5c 03be 933d b73d 48d9 2f3e 6b9b 6e3d
000000a0: e982 8abc be36 9b3e b147 98be b2e0 e9be
000000b0: b5c5 833e 3b79 2bbe 46fe b63d d3db 613e
000000c0: 420c 163e 1f53 57bd 2e2a 6b3d a237 adbd
000000d0: 42c8 7d3e 292a b3be 3ea6 f53d 142c 6c3e
000000e0: c233 2d3e fc7e 33be e2eb be3c 95b0 173e
000000f0: 4658 003e 206c 003e 8510 e03d e58b 833e
00000100: e9be cc3e 4be4 d4be 1c93 b6be 7a4e a2be
00000110: 051a c8be b53c 47be 73a3 ba3e f6ed 14bb
00000120: 23e3 dd3e 133d a23e 0f1c bebe 2094 b1be
00000130: 81c4 413e b8d2 d8be 9786 69bd 7ebd af3e
00000140: 2566 dabd 8529 07be fdf1 6c3d c1c6 0a3f
00000150: 59f2 8c3e d2c8 95be 1b32 9d3d bc33 9d3e
00000160: 202f ac3e 529e 86be 6bdf 983e 2a48 853e
00000170: ff7a c53e 0204 553e b07a 33be b8f3 813e
00000180: 71cd 2d3e f724 71be 8c38 2ebe 8fb0 acbe
00000190: b7bf 9cbd d6b7 34bd 0666 373e b7b5 403e
000001a0: 4112 373e a876 c53e e9f7 24be 464a 21be
000001b0: 0131 ba3e 48fa 64be 0ea5 983c 9457 af3e
000001c0: d1f1 64bd b42c 3c3e bc9c fb3d 80d6 1d3e
000001d0: 3ea9 9d3e aa33 8fbe a859 00bd e616 833e
000001e0: 2607 923e f36d 7ebe d35f 4f3e 81a3 163e
000001f0: da0e e53d 18fa 1d3d 38b0 d93d 6d6f 9d3e
00000200: bf1b 3bbd 49b3 9abd cc89 d93d d640 d93d
00000210: e9d4 1c3e 90d3 51bd 1758 bbbc 0d1c 51be
00000220: 86a2 7cbd ad92 2fbe cec3 893e b010 973e
00000230: 50e0 09be a9c8 ce3d d759 9bbd 3625 1bbc
00000240: 0f27 0cbd 6ba9 1bbe 2af1 e03c 3553 b8bd
00000250: 14d9 0fbe d794 0e3e fcec b8bd 2dce c4bd
00000260: b877 f7ba 06bf 0b3e c812 05bb e89e 34bd
00000270: 3e1e a3bc 8c44 e43d 992f e2bd 71b2 c3bc
00000280: a15a 293e 265a ecbd b74e 46be 12b3 89be
00000290: 1d5e 39be 6d04 993d d98b 403e 7bfc 203e
000002a0: 0383 2e3e a2e5 623e 98fd 62be af4e 9abe
000002b0: 576a 5a3e 3842 183c 7cf8 163e 386f 293e
000002c0: 2d6c 143e 32ed 863d 60ff c53c 209c 353e
000002d0: 209a cf3d 93e0 a0be 4a7c 963e a346 dd3d
000002e0: 674a 2e3d 95f7 d8bd 29b1 973e 3b97 bd3d
000002f0: 0fb1 8a3d 826e 68bd 5a5f b03d b973 ec3d
00000300: 7057 9d3d ee59 04be 24cd c5bd 9229 8dbe
00000310: aef9 9abd 1679 8b3d 9eca b63d 86c1 e83d
00000320: 61cf 4c3e b902 3a3c 886d 2abe 533b debd
00000330: 3e23 673e 7165 84be 5c47 fb3d 4146 063e
00000340: ce0a 873e 9454 803e eff0 5bbc 7c8b a73e
00000350: 9384 c23d f189 80bd 2187 723e 9ce5 223e
00000360: 542d 553d 8b0c 0ebe 4245 0b3e 7d2a 313e
00000370: 8c3e 743e aaaf e4bb 1b08 e33e b20e 3f3e
00000380: 7aa1 29bd 24b9 5d3e 2bc7 a03e c490 153e
00000390: 802a 5b3e 9636 a33d 956d 81be 86ce 1f3e
000003a0: 61d6 2ebe 799a 3cbd 83ad 893e 1035 3abd
000003b0: c75c 09be bf1d 8e3e ae14 2d3e 86f0 6bbe
000003c0: 093f f63d de46 f83d 3a6d 8cbe 9a14 033d
000003d0: 71d3 51be cf5d 223e 3927 d83d 0f95 69be
000003e0: 0444 e4bd d9fd 5c3e 5bd7 383c 231a 43be
000003f0: 3919 84be 99c1 88be b274 3d3e 9733 47be
0.2192085 -0.03042229 -0.1835273 -0.23085889 -0.2997991 -0.15917574 0.156245 0.022228952
0.20965374 0.40507674 -0.14993224 -0.33565912 0.24777639 -0.2471495 -0.05511692 0.21984182
0.30861655 0.07948749 0.24423258 -0.2568923 0.23315911 -0.05609599 0.18831806 0.2710505
0.2389725 -0.10476392 0.23674084 0.27524754 0.21382537 0.13008049 -0.1036327 0.26339063
0.09582746 -0.045846816 -0.1395784 -0.047585737 -0.12828438 0.08947291 0.1717273 0.058253687
-0.016908126 0.30315202 -0.29742196 -0.4567924 0.25736776 -0.16745465 0.089352176 0.22056513
0.14653113 -0.052569505 0.057413273 -0.08457877 0.24783424 -0.34993103 0.11994599 0.2306369
0.16914275 -0.1752891 0.023305837 0.14813454 0.12533674 0.12541246 0.10940651 0.2569267
0.39989403 -0.41580424 -0.3565911 -0.31700498 -0.3908235 -0.19456752 0.36452827 -0.0022724844
0.43337354 0.3168722 -0.37130782 -0.34683323 0.18922617 -0.42348266 -0.05701312 0.3432426
-0.10664014 -0.13199432 0.057847966 0.54209524 0.27528647 -0.29254776 0.076755725 0.30703533
0.33629704 -0.26292664 0.29857954 0.2603162 0.385704 0.2080231 -0.1752727 0.25381255
0.16972901 -0.23549257 -0.17013758 -0.33728454 -0.07653754 -0.044120632 0.17910013 0.18819319
0.17878057 0.3856709 -0.16110195 -0.1575099 0.36365512 -0.223611 0.018633392 0.34246504
-0.055894677 0.18376428 0.12285754 0.15413857 0.30793184 -0.27969104 -0.031335503 0.25603408
0.2852108 -0.2484663 0.20251398 0.1471081 0.11184473 0.038568586 0.10629314 0.30749074
-0.045680758 -0.07553727 0.10621986 0.106080696 0.15315594 -0.051227152 -0.022869153 -0.20420857
-0.061678432 -0.17145796 0.269072 0.2950492 -0.13464475 0.10096867 -0.07585495 -0.009469321
-0.034216937 -0.15201347 0.027458746 -0.090002455 -0.14047652 0.13923965 -0.09029576 -0.096096374
-0.0018880283 0.13647088 -0.0020305384 -0.044096857 -0.019911882 0.11145887 -0.11044235 -0.023888798
0.16538478 -0.11540632 -0.19365965 -0.26894432 -0.18102308 0.07471547 0.18803348 0.15721314
0.17042165 0.2215791 -0.22167051 -0.30138156 0.21329628 0.0092931315 0.14743227 0.16546333
0.14494391 0.0658821 0.024169624 0.17735338 0.10136819 -0.31421337 0.293917 0.108044885
0.042551424 -0.105940975 0.2962735 0.092573605 0.067720525 -0.056746013 0.08611937 0.1154551
0.07682693 -0.1292493 -0.09658268 -0.27570778 -0.07567154 0.06810205 0.08925365 0.11365037
0.20000984 0.011353188 -0.16643345 -0.10851159 0.22572038 -0.25858644 0.1226947 0.13112737
0.2637543 0.25064528 -0.013424142 0.32723606 0.09497943 -0.0627631 0.2368436 0.15907902
0.05204518 -0.13871972 0.13600639 0.17301364 0.23851985 -0.0069789486 0.4434212 0.1865795
-0.04141376 0.21652657 0.31401953 0.14606005 0.21402931 0.07969396 -0.25278917 0.15606126
-0.17073967 -0.046045754 0.2689019 -0.04546076 -0.13414298 0.2775707 0.1690242 -0.23040971
0.12023742 0.12122892 -0.27427083 0.03200207 -0.20490815 0.15856098 0.10554356 -0.22810768
-0.111457855 0.2158121 0.0112818135 -0.19052939 -0.25800493 -0.26710203 0.18501547 -0.19453274
