en/mirror_mirror_on_the_wall/mirror_mirror_on_the_wall.onnx (onnx, 208169 bytes, 9 tensors)

model/tf.math.add_1/Add/y f4 [32]
0	0x3e010e26	0.12603053
1	0xbe5b05d5	-0.21388943
2	0x3e113af5	0.14182647
3	0x3e39581f	0.18100022
4	0xbdd5538d	-0.10416327
5	0x3c678b41	0.014132322
6	0xbd34b6c3	-0.044119608
7	0xbd0b13ef	-0.033954557
8	0x3d89b348	0.06723648
9	0x3db47677	0.08811658
10	0xbe1686b7	-0.14699827
11	0xbc7da101	-0.015480281
12	0x3e17aea4	0.14812714
13	0xbe0dbb6d	-0.13841029
14	0xbda98530	-0.082773566
15	0xbde66c71	-0.11251152
16	0xbe06eaae	-0.1317546
17	0xbdeebd19	-0.11657161
18	0xbd291b94	-0.041286066
19	0x3da65712	0.08122076
20	0xbe413a37	-0.18869863
21	0x3b5fc0a7	0.003414193
22	0x3c231e8b	0.0099560125
23	0xbdfcb1a8	-0.12338573
24	0x3dbaf4e8	0.091287434
25	0x3d37e84b	0.044899266
26	0x3cc85030	0.024452299
27	0x3cdfd188	0.027321592
28	0x3dd4a3c3	0.103827976
29	0x3da33044	0.0796819
30	0x3cf3a222	0.029740397
31	0xbad14b5a	-0.0015967891

model/tf.math.add/Add/y f4 [32]
0	0x3de2e535	0.11078874
1	0x3daff286	0.085911795
2	0x3da66d37	0.081263
3	0x3d896965	0.067095555
4	0xba8cb774	-0.0010735826
5	0x3ddf710e	0.10910235
6	0x3ce318aa	0.027721722
7	0x3ce70a0e	0.028203037
8	0x3c428d0a	0.011874447
9	0x3ce86e84	0.02837301
10	0x3d29739f	0.04137003
11	0x3d9a98f2	0.07548703
12	0xbb847d49	-0.0040432555
13	0x3d0176ac	0.031607315
14	0x3cab3f2b	0.020904144
15	0x3d396435	0.04526158
16	0x3cbbfaf5	0.022946814
17	0x3d217835	0.03942128
18	0x3da38f08	0.079862654
19	0x3d7cb6e9	0.061697874
20	0x3dc5b976	0.096545145
21	0x3d1fbad7	0.038996544
22	0x3d9e1d35	0.077204145
23	0x3deefb27	0.11668997
24	0x3b89efc0	0.0042094886
25	0x3d720621	0.059087876
26	0x3d7a073b	0.06104205
27	0x3bed46e9	0.007241119
28	0x3dec20f4	0.11529723
29	0x3c027820	0.00796321
30	0x3cac4c1e	0.02103239
31	0x3c578c15	0.013155957

model/layer_normalization_1/batchnorm/mul/ReadVariableOp/resource f4 [32]
0	0x3f8078c4	1.0036855
1	0x3fa233c1	1.2672044
2	0x3f9116f9	1.1335136
3	0x3fae61b5	1.3623568
4	0x3fca0309	1.5782176
5	0x3fc15f1f	1.5107154
6	0x3fb2d8a0	1.3972359
7	0x3f8ae2a6	1.0850418
8	0x3fb8c926	1.4436386
9	0x3f87e32e	1.0616205
10	0x3fd0c39a	1.6309693
11	0x3fad51a3	1.3540539
12	0x3f60c15a	0.8779503
13	0x3fa7a4ac	1.3097129
14	0x3f97762e	1.183294
15	0x3f9761f8	1.1826773
16	0x3fa99f8f	1.3251818
17	0x3f9f99ea	1.2468846
18	0x3fa7d739	1.3112556
19	0x3f940c79	1.1566306
20	0x3fa0ea1f	1.2571448
21	0x3fae3467	1.3609742
22	0x3fa1db4a	1.2645047
23	0x3fbd6b36	1.4798343
24	0x3f9004ac	1.1251426
25	0x3f896438	1.0733709
26	0x3f86a568	1.0519228
27	0x3fa77fca	1.3085873
28	0x3f96b57c	1.1774135
29	0x3fb44974	1.4084916
30	0x3fbba6cd	1.4660279
31	0x3f930620	1.1486244

model/layer_normalization_1/batchnorm/ReadVariableOp/resource f4 [32]
0	0x3e4d3d80	0.20042992
1	0x3de9ae53	0.11410203
2	0x3e70b2c3	0.23505692
3	0x3e8f999b	0.2804688
4	0xbd0850bd	-0.033280123
5	0x3e134e18	0.14385259
6	0x3e84b940	0.25922585
7	0x3e3dc672	0.18532732
8	0x3e95599c	0.2916993
9	0x3e46bb08	0.19407284
10	0x3d95fe4d	0.07323895
11	0x3e27c493	0.16383581
12	0xbe5ed5f4	-0.21761304
13	0x3e4f1338	0.20222175
14	0xbd87bf98	-0.066283405
15	0x3e45d89a	0.19320908
16	0x3e0b239c	0.13587803
17	0x3dbce72c	0.0922378
18	0x3e852c1c	0.26010215
19	0x3d83033e	0.06397103
20	0x3de50eb2	0.111844435
21	0x3e8f604f	0.28003165
22	0x3d6abec0	0.05731082
23	0x3dd580de	0.1042497
24	0x3dc27873	0.0949563
25	0x3d2238c3	0.039604913
26	0xbeada067	-0.3391144
27	0x3d9638c8	0.07335049
28	0x3bc753f6	0.006083007
29	0x3e4dcbe3	0.20097308
30	0x3d61a4d6	0.05508884
31	0x3dc7d215	0.09756867

model/layer_normalization/batchnorm/mul/ReadVariableOp/resource f4 [32]
0	0x3f95421b	1.1660799
1	0x3f93fa19	1.1560699
2	0x3f9a5851	1.2058202
3	0x3f6ec0d0	0.9326296
4	0x3f9893c6	1.1920097
5	0x3f88ee3d	1.0697705
6	0x3f83c8b0	1.029562
7	0x3f98f1f2	1.1948836
8	0x3f8ce432	1.100714
9	0x3f584d3e	0.8449286
10	0x3f8cc36e	1.099714
11	0x3f8a296b	1.079389
12	0x3f8ff916	1.124789
13	0x3f87cd6d	1.0609566
14	0x3f901d63	1.1258968
15	0x3f93aedf	1.1537741
16	0x3f9b5e67	1.2138184
17	0x3f8aad4a	1.0834134
18	0x3f99e30b	1.2022413
19	0x3f89d2e9	1.076749
20	0x3f89f61b	1.077823
21	0x3f8419ab	1.0320333
22	0x3f91a232	1.1377623
23	0x3f91ebe7	1.1400117
24	0x3f956de4	1.1674161
25	0x3f932241	1.1494828
26	0x3f5967b5	0.8492387
27	0x3f98cbc7	1.1937188
28	0x3f8db369	1.1070377
29	0x3f9b58a4	1.2136426
30	0x3f953f94	1.1660028
31	0x3f94b7b5	1.1618563

model/layer_normalization/batchnorm/ReadVariableOp/resource f4 [32]
0	0x3e03ab62	0.12858346
1	0x3e05befa	0.13061133
2	0x3e127226	0.14301357
3	0x3e78a228	0.24280608
4	0x3cb0140c	0.021493934
5	0x3df8a30f	0.12140476
6	0x3e4c941f	0.19978379
7	0x3e0234bb	0.12715428
8	0x3c17453f	0.009232818
9	0x3e9978c5	0.29974952
10	0xbb0ce5e1	-0.0021499323
11	0x3dfe3948	0.12413269
12	0x3caa17d1	0.02076331
13	0x3ab045ba	0.0013448515
14	0x3e61d56b	0.22054069
15	0x3e6d98e3	0.23202853
16	0x3e8525ac	0.26005304
17	0x3de30ff4	0.11087027
18	0x3e118360	0.14210272
19	0x3d4e1131	0.050309364
20	0x3de98be1	0.11403633
21	0xbc3ff6dd	-0.011716572
22	0xbdca26b0	-0.0987066
23	0x3e07e3f3	0.1327055
24	0x3dcf7f68	0.10131723
25	0x3e6755d8	0.2259134
26	0x3e9677a8	0.29388165
27	0x3d4b58e1	0.04964531
28	0x3ddf4aff	0.10902976
29	0x3e1f03ff	0.15528868
30	0x3c8a6030	0.016891569
31	0x3de6b4b3	0.112649344

const_fold_opt__25 f4 [32, 32]
0	0x3e553101	0.20819475
1	0xbe2c27cb	-0.16812055
2	0x3e6f3c7d	0.23362918
3	0x3e887206	0.26649493
4	0x3ce50c3a	0.027959932
5	0xbe25c41f	-0.16188096
6	0xbdee4a49	-0.116352625
7	0x3e260aea	0.16215101
8	0x3e483ce8	0.19554484
9	0x3eb0b34f	0.34511802
10	0xbd889245	-0.06668524
11	0xbd9abcc1	-0.07555533
12	0xbd10ba18	-0.035333723
13	0xbd046da2	-0.032331116
14	0xbe4428f9	-0.19156255
15	0x3e65b3ff	0.22431944
16	0xbcf72b09	-0.030171888
17	0xbe0f871a	-0.14016381
18	0x3e973a4f	0.29536673
19	0xbda6949f	-0.08133816
20	0xbcb1ce65	-0.021704862
21	0x3e0ff0bc	0.14056677
22	0xbe5b3b01	-0.21409227
23	0xbd071fac	-0.03298919
24	0xbde7987e	-0.113083825
25	0xbd4c02e4	-0.049807444
26	0xbdf8ce5d	-0.12148736
27	0xbdc33a55	-0.0953261
28	0x3b69a05d	0.0035648562
29	0x3c3ded7c	0.011592265
30	0xbd8572bc	-0.065160245
31	0xbe404f49	-0.18780245
32	0x3e84b6b6	0.25920647
33	0x3dd5a4ab	0.104317985
34	0x3e19d934	0.15024263
35	0x3dccfe94	0.100094944
36	0xbe233dee	-0.15941593
37	0xbc31ddda	-0.010856116
38	0xbe2f263d	-0.1710443
39	0x3e304f0e	0.17217657
40	0x3cd90027	0.02648933
41	0x3e835573	0.2565113
42	0x3e06d1d5	0.13165982
43	0xbde4cb67	-0.111716084
44	0x3dcd77e4	0.10032633
45	0xbe350437	-0.17677389
46	0x3b73fb3b	0.0037228602
47	0x3e5338f3	0.20627193
48	0xbe396246	-0.18103895
49	0x3e0fe193	0.14050893
50	0x3e66128e	0.22468016
51	0xbbdbd7f8	-0.006709095
52	0xbdba041e	-0.090828165
53	0xbceb3382	-0.028711084
54	0xbe525b1c	-0.20542568
55	0xbdc3c535	-0.09559099
56	0xbd8eefc8	-0.069793284
57	0x3ca87985	0.020565758
58	0xbe3c7279	-0.18403043
59	0x3de04c2c	0.10952029
60	0x3ce270c4	0.027641661
61	0xbd8b400e	-0.06799327
62	0xbe469825	-0.19393976
63	0xbe205d5e	-0.15660617
64	0x3ea22202	0.3166657
65	0xbe20f329	-0.15717758
66	0x3e4137f2	0.18868998
67	0x3e514ee0	0.20440245
68	0xbd2ef612	-0.04271514
69	0xbe2b8526	-0.16750011
70	0x3d559647	0.05214527
71	0x3e221842	0.15829566
72	0x3e9182d8	0.28420138
73	0x3e3d3a6e	0.1847932
74	0xbac7ed6e	-0.0015253255
75	0xbe1bda37	-0.15219961
76	0xbcc1ef03	-0.02367354
77	0xbe5b8e4b	-0.21440999
78	0xbea4df9c	-0.3220185
79	0x3e472057	0.1944593
80	0xbdd7de4d	-0.105404474
81	0xbe231cca	-0.15928951
82	0x3e62583d	0.22103973
83	0xbcd99cc3	-0.026564008
84	0x3d2ba2fb	0.041903477
85	0x3e83cbe1	0.25741485
86	0xbe0de981	-0.13858606
87	0x3d6012b7	0.054705348
88	0xbe231199	-0.15924682
89	0xbdd1dce0	-0.10247207
90	0xbd8d5df0	-0.06902683
91	0x3d2c5e1c	0.042081937
92	0xbe24f4b1	-0.16108967
93	0xbc85a4c6	-0.016313922
94	0xbe2088fb	-0.15677254
95	0xbd922108	-0.071352065
96	0xbec66b2a	-0.38753635
97	0x3e738fe9	0.23785366
98	0xbeb350fd	-0.35022727
99	0xbea51fc5	-0.322508
100	0xbd99954c	-0.07499179
101	0x3ea1f64e	0.31633228
102	0x3ea3c697	0.3198745
103	0xbe8d5eb1	-0.27611306
104	0xbe7cb7a4	-0.24679428
105	0xbe7d114c	-0.2471363
106	0x3de69266	0.11258392
107	0x3ea94061	0.3305693
108	0x3c9b9034	0.01898966
109	0x3e51bd95	0.20482476
110	0x3e0444f3	0.12916927
111	0xbeb9cfbe	-0.36291307
112	0x3eb678f9	0.3563917
113	0x3e7373ba	0.23774615
114	0xbea8ad9f	-0.32944962
115	0x3e4355f7	0.19075762
116	0x3e884d85	0.26621643
117	0xbe983c40	-0.29733467
118	0x3e839529	0.25699738
119	0x3e038f35	0.12847598
120	0x3e8faf79	0.28063563
121	0x3db493d0	0.088172555
122	0x3daeafb6	0.08529608
123	0x3e468e50	0.19390225
124	0x3d9b29bb	0.07576319
125	0x3dc8a297	0.097966366
126	0x3e7bb593	0.24580984
127	0x3ea5463a	0.3228014
128	0xbe61c94e	-0.22049448
129	0x3ec6ac60	0.38803387
130	0xbea1daf2	-0.31612355
131	0xbe9b9106	-0.30384082
132	0xbcd09b86	-0.025464784
133	0x3f04b09a	0.5183197
134	0x3ea23aa2	0.31685358
135	0xbe577938	-0.21042335
136	0xbe5f3a6b	-0.21799628
137	0xbeae73a8	-0.34072614
138	0x3e75ff2b	0.2402312
139	0x3ee390b2	0.4444633
140	0xbacd1fd0	-0.001564974
141	0x3de50bca	0.11183889
142	0x3eb75513	0.35807094
143	0xbea879a7	-0.32905313
144	0x3eb2e7e4	0.34942544
145	0x3ee8f5b0	0.45499945
146	0xbe89e2a3	-0.26930723
147	0x3e0eb9f5	0.13938124
148	0x3ed2bca5	0.4115955
149	0xbe9c0044	-0.30468953
150	0x3ec9b1f0	0.39393568
151	0x3ea30d1e	0.31845945
152	0x3eac4184	0.33643734
153	0x3e2f82ea	0.17139784
154	0x3e58c27f	0.21167944
155	0x3e1f19eb	0.1553723
156	0xbcb98ba8	-0.022649601
157	0x3ebd7fc0	0.37011528
158	0x3e848c64	0.2588836
159	0x3ed90213	0.42384395
160	0x3d16dd92	0.0368324
161	0xbd3e980c	-0.046531722
162	0x3d3f4abc	0.04670213
163	0x3d952ad7	0.07283562
164	0x3dc90916	0.09816186
165	0xbdc14bee	-0.094383106
166	0xbe29ae87	-0.16570483
167	0x3db2fa1a	0.08739109
168	0x3e6e70a8	0.23285162
169	0x3d42310e	0.047410063
170	0xbe596730	-0.21230769
171	0xbd32692d	-0.043557335
172	0xbd8faaa3	-0.07014968
173	0xbdb0de4a	-0.08636148
174	0xbbd1a238	-0.006397512
175	0x3e0fc27a	0.1403903
176	0x3d3b24d3	0.045689415
177	0xbe2bfbf1	-0.16795327
178	0x3d8cadfd	0.06869123
179	0x3d8a1d41	0.06743861
180	0xbe4713bc	-0.19441122
181	0x3e2d5966	0.16928634
182	0xbe3866dc	-0.18007988
183	0xbe156872	-0.14590624
184	0xbe591a0b	-0.21201341
185	0x3d89a439	0.06720776
186	0x3bbe8073	0.005813652
187	0xbd3a00fa	-0.045411088
188	0x3d78c331	0.060733024
189	0x3c766ef2	0.0150411
190	0xbdca10c9	-0.09866483
191	0xbe48814b	-0.19580571
192	0xbea05fcd	-0.3132309
193	0x3d202ee0	0.039107203
194	0xbe79b05e	-0.24383685
195	0xbe4ff87d	-0.20309635
196	0x3c4a1824	0.012334857
197	0x3de3ceab	0.11123403
198	0x3e90efb3	0.28307876
199	0xbe291d92	-0.16515186
200	0xbea18713	-0.31548366
201	0xbe703216	-0.23456606
202	0x3c995672	0.018717978
203	0x3db84e75	0.089993395
204	0xbe0bd0d3	-0.13653879
205	0x3e61b785	0.22042663
206	0x3e54c252	0.20777252
207	0xbe6aac58	-0.22917306
208	0x3e4200a2	0.18945554
209	0x3e19aca9	0.15007271
210	0xbe5a355f	-0.21309422
211	0x3e87fcfc	0.265602
212	0x3e8e1a83	0.27754602
213	0xbe90eddf	-0.2830648
214	0x3e734a74	0.2375887
215	0x3e463348	0.193555
216	0x3eab0ef1	0.33409837
217	0x3d673e0b	0.056455653
218	0x3ddb3c4d	0.10704861
219	0xbda5db2d	-0.08098445
220	0xbdb9019a	-0.090335086
221	0x3d98cb39	0.07460637
222	0x3e948f0b	0.29015383
223	0x3e96d43d	0.294588
224	0xbea1e1fd	-0.31617728
225	0x3e46f8e5	0.19430883
226	0xbe4f8673	-0.20266132
227	0xbea78483	-0.32718286
228	0x3ed25ca4	0.41086304
229	0x3ec24119	0.3794029
230	0x3e694cde	0.22783229
231	0xbea400aa	-0.32031757
232	0xbe2dfe6b	-0.16991584
233	0xbe96d8fa	-0.29462415
234	0x3e9939d9	0.29926947
235	0x3e4c0387	0.1992322
236	0xbe5080df	-0.2036166
237	0x3e147efb	0.14501564
238	0x3dcdc9f1	0.10048283
239	0xbe621e3f	-0.2208185
240	0x3e83f789	0.25774792
241	0x3eaf84d3	0.34281024
242	0xbe8f5c2b	-0.28000006
243	0x3ca2ec92	0.019888196
244	0x3ea1e538	0.31620193
245	0xbea27b94	-0.31734908
246	0x3dacdca7	0.084405236
247	0x3e1c2a60	0.1525054
248	0x3e9d582f	0.3073134
249	0xbe40882f	-0.1880195
250	0x3e3ededc	0.18639702
251	0x3c326b6a	0.010889867
252	0xbd6b7fe8	-0.057495028
253	0x3e2ba5f1	0.1676252
254	0x3ec9db62	0.39425188
255	0x3e14d5aa	0.14534631

const_fold_opt__23 f4 [32, 1]
0	0xbe52d6cf	-0.20589755
1	0x3e667d4b	0.22508733
2	0xbe41343e	-0.18867585
3	0xbf01c593	-0.506921
4	0x3f0c145b	0.5471856
5	0x3ee1b348	0.44082093
6	0x3f0523d2	0.5200778
7	0xbe2e6d06	-0.17033777
8	0xbf05da88	-0.5228658
9	0xbe82da79	-0.25557306
10	0x3f09cd7c	0.5382917
11	0x3eabfb3b	0.3359011
12	0x3c0f8b85	0.008761291
13	0x3e8f082f	0.2793593
14	0x3e7bbe50	0.24584317
15	0xbe96d3f6	-0.29458588
16	0x3e8f0109	0.27930477
17	0x3eac82e4	0.33693612
18	0xbeef4ed7	-0.46739838
19	0x3e9e222a	0.3088544
20	0x3ebb8ba3	0.36629972
21	0xbf021f64	-0.5082915
22	0x3e9c6f68	0.30553746
23	0x3eb511ac	0.35365045
24	0x3e8500e5	0.25977245
25	0x3dd20666	0.10255127
26	0x3f038f9b	0.51391
27	0x3e69d2d2	0.22834328
28	0x3e22b698	0.15889966
29	0x3ed2dab1	0.41182473
30	0x3ec3021a	0.3808754
31	0x3e9f2eb2	0.31090313

const_fold_opt__22 f4 [1536, 32]
0	0xbc9b120e	-0.018929508
1	0xbd169657	-0.03676447
2	0xbce55ef7	-0.027999384
3	0xbd3ffb7a	-0.046870686
4	0xbdfe29fe	-0.12410353
5	0xbd3587e0	-0.044319034
6	0xbd74716c	-0.05967848
7	0xbd1731ef	-0.036912855
8	0xbdb2d05f	-0.0873115
9	0xbd97abe4	-0.074058324
10	0xbdc84525	-0.09778813
11	0xbd252b93	-0.04032476
12	0xbd89b715	-0.06724373
13	0xbd866494	-0.065621525
14	0xbcdd42cf	-0.027009396
15	0xbcefba08	-0.029263511
16	0xbd82a4ae	-0.063790664
17	0xbd80ec75	-0.062951006
18	0xbd099226	-0.033586644
19	0xbcf03ca5	-0.029325793
20	0xbd0829a1	-0.033242825
21	0xbdd08ac6	-0.10182719
22	0xbd8b45a3	-0.068003915
23	0xbd2e9450	-0.04262191
24	0xbdd25db6	-0.1027178
25	0xbd923f1a	-0.07140942
26	0xbd36cbac	-0.04462783
27	0xbd0ebef5	-0.03485008
28	0xbd82bea8	-0.06384021
29	0xbd215303	-0.039385807
30	0xbca3e17e	-0.020004984
31	0xbd75f7c0	-0.060050726
32	0x3ce2447f	0.027620552
33	0x3d290251	0.041261975
34	0x3d27f281	0.041002754
35	0x3ddd5255	0.10806719
36	0x3dd144aa	0.10218175
37	0x3d1d182e	0.038353138
38	0x3d88e977	0.06685155
39	0x3da79276	0.08182232
40	0x3dd9d1a9	0.106356926
41	0x3daf822f	0.085697524
42	0x3dddb228	0.10824996
43	0x3d0cf34a	0.034411706
44	0x3da83846	0.08213858
45	0x3d2925d4	0.04129584
46	0x3d572bde	0.05253207
47	0x3d747aa9	0.05968729
48	0x3d6f02e0	0.05835235
49	0x3d2fbe9c	0.04290639
50	0x3d208ec6	0.03919866
51	0x3dbfb9a6	0.093615815
52	0x3d1b18af	0.037865337
53	0x3d983a60	0.07433009
54	0x3c959a72	0.018262122
55	0x3d48752d	0.048939873
56	0x3db589d5	0.0886418
57	0x3d938c25	0.07204465
58	0x3da69d96	0.08135526
59	0x3de5611c	0.11200163
60	0x3d74ab76	0.05973383
61	0x3de4217c	0.11139199
62	0x3d5f5141	0.05452085
63	0x3dd00cb4	0.10158673
64	0x3abb97fb	0.0014312261
65	0x3c9f9b3c	0.019483201
66	0x3cc236f1	0.023707839
67	0xbd1dc6b5	-0.03851958
68	0x39ed09e5	0.00045211535
69	0xbc2a4626	-0.010392701
70	0x3c1988c7	0.009370989
71	0x3d569af7	0.05239388
72	0x3c2b908b	0.010471473
73	0x3c82e271	0.015977116
74	0xbb44fd8b	-0.003005835
75	0x3bc49cbc	0.0060001295
76	0x3cb89afb	0.022534838
77	0x3d9ca811	0.076492436
78	0x3da6b05e	0.08139108
79	0xbc06e897	-0.008234165
80	0x3be6ead4	0.0070470367
81	0x3d5a845a	0.053348877
82	0xbc3666bf	-0.011132895
83	0xbccbae96	-0.024863522
84	0x3bd92fe1	0.006628022
85	0xbcbac071	-0.022796841
86	0xbd36947f	-0.04457521
87	0x3d3023ea	0.043003
88	0x3ccb1226	0.024788927
89	0xbba9f553	-0.0051867156
90	0x3aba191b	0.0014198156
91	0x3d8604a8	0.06543857
92	0x3c2cb892	0.010542052
93	0x3d0d11d0	0.034440815
94	0xbd416a78	-0.047220677
95	0x3c9334d1	0.01796952
96	0x3caf6db5	0.021414617
97	0x3cd7fd7a	0.026365984
98	0x3d4ddc97	0.0502592
99	0xbd927ac3	-0.07152321
100	0xbd8f1fac	-0.06988463
101	0x3cc9f07b	0.024650803
102	0xbdbfb1f3	-0.09360113
103	0xbd763eec	-0.0601186
104	0xbd552be9	-0.05204383
105	0xbc1e2129	-0.009651461
106	0xbd83a62d	-0.0642818
107	0x3c25c694	0.0101181455
108	0xbd9a59b5	-0.075366415
109	0xbd92b57d	-0.071635224
110	0xbd9e8d42	-0.077417865
111	0x3c0b8498	0.0085154995
112	0xbbef08ce	-0.007294751
113	0xbd6fe54f	-0.058568295
114	0x3d002fe2	0.031295665
115	0xbd6ad382	-0.057330616
116	0x3cb968a3	0.022632902
117	0xbdb829b3	-0.089923285
118	0x3b0db4a9	0.0021622574
119	0x3d06320d	0.032762576
120	0xbd94eaaa	-0.07271321
121	0x3c96552b	0.018351158
122	0xbd3d16df	-0.04616439
123	0xbdc78c11	-0.097435124
124	0xbc8671e7	-0.016411735
125	0xbd8712cd	-0.06595383
126	0xbd9254e7	-0.071451
127	0xbd78cab7	-0.0607402
128	0xbd08aa11	-0.033365313
129	0x3ca36be5	0.019948909
130	0x3ccad248	0.024758473
131	0x3d74f953	0.059808087
132	0x3dcbb8cd	0.09947357
133	0x3c503375	0.012707581
134	0x3d097cda	0.033566333
135	0x3d84e295	0.064885296
136	0x3d2e9a51	0.042627636
137	0x3d5678e3	0.05236138
138	0x3d755067	0.05989113
139	0x3c37b3a5	0.011212264
140	0x3dc259e2	0.094898
141	0x3dc71179	0.097201295
142	0x3da60c66	0.081078336
143	0x3d7431ef	0.059617933
144	0x3d03f8f9	0.03221986
145	0x3dbb603b	0.09149214
146	0x3cb5ed9e	0.022208031
147	0x3d51ecee	0.051251344
148	0x3cc09f47	0.02351345
149	0x3d844cd3	0.064599656
150	0x3d267b69	0.040645037
151	0x3cf7896e	0.030216899
152	0x3d9914c9	0.074746676
153	0x3c7d06fb	0.015443559
154	0x3d95fba3	0.073233865
155	0x3df3b991	0.11900628
156	0x3d34655a	0.04404197
157	0x3dbf86fb	0.09351917
158	0x3d117244	0.035509363
159	0x3daa365a	0.08311148
160	0x3d3615ef	0.04445451
161	0x3d991066	0.07473831
162	0x3d66a7e1	0.056312446
163	0x3d8610ed	0.06546197
164	0x3d387abd	0.045038927
165	0x3d88914c	0.06668338
166	0x3d482f56	0.048873268
167	0x3d15f674	0.03661199
168	0x3d60494d	0.054757405
169	0x3d59c92a	0.05317036
170	0x3d71e1e4	0.059053317
171	0x3d733785	0.05937912
172	0x3d5b2db3	0.05351038
173	0x3d676288	0.05649045
174	0x3d93a01e	0.07208274
175	0x3d8b1fc7	0.067931704
176	0x3d7c2155	0.061555225
177	0x3cca3e0d	0.024687791
178	0x3d8b5d62	0.06804921
179	0x3d1019c2	0.035180815
180	0x3d865455	0.06559054
181	0x3db941d4	0.09045759
182	0x3db127c3	0.08650162
183	0x3d86fd3a	0.06591268
184	0x3d53d4c2	0.051716574
185	0x3d52b879	0.051445458
186	0x3d3e5a0d	0.046472598
187	0x3d809cff	0.06279945
188	0x3dc1f25f	0.09470057
189	0x3dcc052a	0.099619225
190	0x3d782722	0.060584195
191	0x3d555a31	0.052087966
192	0x3d9533d6	0.072852775
193	0x3db018b1	0.085984595
194	0x3db5549f	0.08854031
195	0xbc26a201	-0.010170461
196	0x3d1052b8	0.035235137
197	0x3d8897f6	0.06669609
198	0x3c190d48	0.009341545
199	0x3a87fa5b	0.0010374294
200	0x3d0b0fd8	0.033950657
201	0xbd156f2b	-0.03648297
202	0x3d9ca5d5	0.076488174
203	0x3daaa9a7	0.0833314
204	0x3b708da3	0.0036705516
205	0x3b227561	0.0024789202
206	0x3d01bb23	0.031672608
207	0x3ce0205d	0.027359182
208	0x3c12d22e	0.008961244
209	0x3b931dbd	0.004489629
210	0x3da6adcf	0.0813862
211	0xbb994e46	-0.0046785204
212	0x3db2b166	0.08725242
213	0x3dc4bc92	0.096062794
214	0xbc66c5d5	-0.014085253
215	0x3db46016	0.088073894
216	0x3d07a1bf	0.033113237
217	0xbb6d46a6	-0.003620544
218	0xbc8a4f09	-0.01688339
219	0xbbe43304	-0.0069640893
220	0x3d51133d	0.051043738
221	0x3c9a9620	0.018870413
222	0x3d869d69	0.06572992
223	0x3d1cc5a6	0.03827443
224	0x3cb7ca84	0.022435434
225	0x3cfbe203	0.03074742
226	0x3ca6e9ee	0.020375218
227	0xbccc89d8	-0.024968073
228	0xbe13b703	-0.14425282
229	0x3c7962aa	0.015221277
230	0xbc4ed2f7	-0.01262354
231	0xbdaff673	-0.08591928
232	0xbde5d608	-0.11222464
233	0xbce313a9	-0.027719336
234	0xbde5039f	-0.11182331
235	0x3ca882d6	0.0205702
236	0xbd9db5e1	-0.07700706
237	0xbda1e311	-0.079046376
238	0xbd364da9	-0.044507656
239	0xbd8dbfe3	-0.06921365
240	0xbc94fb2a	-0.01818617
241	0xbd84f57d	-0.06492136
242	0x3d3edafe	0.046595566
243	0xbd84640d	-0.06464396
244	0x3be356e9	0.0069378507
245	0xbdff9aaf	-0.124806754
246	0x3dab9f07	0.083799414
247	0x3be649be	0.0070278337
248	0xbdf064cb	-0.11737975
249	0xbb8e13bd	-0.004335849
250	0xbd6300d5	-0.055420715
251	0xbdc14f68	-0.09438974
252	0xbc7fe20c	-0.015617859
253	0xbe141527	-0.14461194
254	0x3c00018e	0.007812871
255	0xbdf4ca8c	-0.11952695
