ok_computer/ok_computer.tflite (tflite, 206380 bytes, 9 tensors)

Const_1 f4 [32]
000000 2a 5d e6 bb 6b 83 a2 3b fa 2d 96 3c 93 4e 71 bc
       -0.007030149 0.004959514 0.01833247 -0.014728206
000010 4b cc 48 3c 7e 2f a6 bb f4 56 0c bc 3f 83 52 bc
       0.0122557385 -0.0050715795 -0.008565653 -0.012848674
000020 a6 d6 6d bc bf d5 66 3c aa 37 8c bc 2c b2 1b 3c
       -0.014516508 0.014089047 -0.017116386 0.009502929
000030 e9 26 82 3b 98 df 6f 3c 10 b6 a9 bc b4 b7 9a 3b
       0.0039719236 0.014640711 -0.020716697 0.004721606
000040 a5 68 17 bb 32 04 70 3c cf a9 9c 3c 11 56 f1 b9
       -0.0023103144 0.014649438 0.01912394 -0.00046031227
000050 64 ef 38 3c f5 2a ba bc 63 06 bc 3c 74 b2 4b bc
       0.011287544 -0.022725562 0.022952264 -0.012432683
000060 70 8e 36 3b 76 ac 19 bb 98 22 99 bb a2 f9 97 bb
       0.0027855895 -0.0023448742 -0.0046733133 -0.004637913
000070 e1 80 c9 3c ab 82 bd 3b 81 fd d8 bc 77 53 be 3c
       0.024597587 0.005783399 -0.026488068 0.023233159

Const_2 f4 [32]
000000 72 76 7e 3f c4 e5 81 3f 5a 09 7f 3f 8c 79 81 3f
       0.99399483 1.0148244 0.99623644 1.0115218
000010 09 f7 81 3f fa 50 7f 3f aa e2 7d 3f 7f 82 72 3f
       1.0153514 0.99732935 0.99173987 0.9473037
000020 8a ab 83 3f 3e cc 7c 3f 45 47 80 3f 8e 31 74 3f
       1.0286725 0.9874915 1.002175 0.95388114
000030 55 b2 76 3f eb 16 7f 3f 85 50 7e 3f 2c aa 7f 3f
       0.96365863 0.99644345 0.99341613 0.99869037
000040 e7 5a 7f 3f d2 be 7f 3f d3 ff 83 3f d7 28 83 3f
       0.9974808 0.99900544 1.0312446 1.0246838
000050 88 52 80 3f b9 a6 81 3f f3 5a 7e 3f 9e e7 85 3f
       1.0025187 1.0129005 0.9935753 1.0461309
000060 d2 45 81 3f 7d 18 79 3f 39 dd 81 3f 4a 26 7d 3f
       1.0099432 0.9730299 1.0145637 0.9888655
000070 a5 7b 81 3f 18 43 80 3f cd 83 7f 3f 3a 82 81 3f
       1.0115858 1.0020475 0.9981049 1.0117867

Const_3 f4 [32]
000000 ec b5 b6 bb 2f e8 50 3c 6f d1 e9 bb 74 ba a2 3c
       -0.005575886 0.012750669 -0.007135562 0.019864298
000010 92 a7 1c 3c e3 32 21 bc 9f 72 a2 bc da 8b 89 bd
       0.009561436 -0.0098387925 -0.019830046 -0.06716128
000020 d8 99 09 3d 38 ee d7 bb 24 7f 40 bb 02 9c 3c bb
       0.033593982 -0.006589677 -0.0029372657 -0.0028779511
000030 fb e3 4b 3b 86 60 ee bb 34 c8 dd bb 6f 74 17 bc
       0.0031111229 -0.00727469 -0.006768251 -0.0092440685
000040 d4 d6 98 bb 4c 68 1f 3c ad 11 50 3c a2 e0 f2 3c
       -0.0046642814 0.009729456 0.012699527 0.029648129
000050 bc a1 88 bb 51 7a 8e 3c 87 86 17 3c 11 d1 94 3c
       -0.004169671 0.01739231 0.009248382 0.018166097
000060 25 a6 03 3c a0 24 19 3c 9a 04 ba 3c 78 12 10 bc
       0.008035217 0.009347111 0.022707272 -0.008793466
000070 ab a7 4b 3b 6e 48 fd 3b ff 5a 2e bc 04 76 25 3d
       0.003107528 0.0077295816 -0.010641812 0.04039575

Const_5 f4 [32]
000000 84 89 44 3e 20 3b 5f bd a4 59 00 3d c1 9b f1 bd
       0.19193083 -0.054499745 0.031335488 -0.11797286
000010 a7 7e bd 3c e6 52 3a 3d 13 19 65 3b 2e ef 71 3d
       0.023131682 0.045489214 0.0034957572 0.05906599
000020 2f 5d b4 3d 9d f5 b2 bd 71 b3 50 3d d8 c6 ec 3d
       0.08806836 -0.08738253 0.05095238 0.11561364
000030 b6 de 00 be b5 25 ae 3b 88 cc 2e be 78 1c 9e 3c
       -0.12584957 0.0053145536 -0.1707021 0.019300684
000040 64 11 3a 3e 9f 32 90 bc b2 cb bb bd 83 1e ee bd
       0.18170696 -0.017602263 -0.09169711 -0.116269134
000050 6f 5a d5 3d ae cf 09 3e 42 b3 41 3e 10 5a 72 3d
       0.104176395 0.1345813 0.18916038 0.05916792
000060 ab 9c fc bd d4 15 24 bd 09 ed dd bd b3 9b 15 3e
       -0.123345695 -0.04005988 -0.108362265 0.14610176
000070 06 23 f1 3d f7 f0 3b 3c 2d ca 8f bd d0 c7 2f be
       0.11774258 0.011471025 -0.07020984 -0.17166066

Const_6 f4 [32]
000000 28 dd 92 3f 0f 3f 8a 3f cb a7 81 3f 02 8f 8a 3f
       1.1473742 1.0800494 1.0129331 1.0824893
000010 25 4a 7d 3f 6d 38 7f 3f b6 bf a6 3f 1f af 73 3f
       0.9894126 0.99695474 1.3027256 0.9518909
000020 31 05 b3 3f bb 88 a6 3f 8e 05 85 3f 61 b4 80 3f
       1.3985959 1.3010477 1.039232 1.0055047
000030 4f 0b 88 3f d3 b2 a1 3f fa 07 9f 3f b8 48 8a 3f
       1.0628451 1.2632698 1.2424309 1.0803442
000040 77 7d 7c 3f 2c 51 9d 3f 22 18 9f 3f 39 03 81 3f
       0.98628944 1.2290397 1.242924 1.0079108
000050 aa cd 80 3f 1b e3 7e 3f 62 f8 77 3f 73 42 80 3f
       1.0062764 0.99565285 0.9686338 1.0020279
000060 51 83 89 3f 25 bf 84 3f e4 da 90 3f 0f e0 87 3f
       1.07432 1.0370833 1.13168 1.0615252
000070 4c a7 80 3f 07 d2 81 3f 3b 2f a1 3f b1 7f 7c 3f
       1.0051055 1.014222 1.2592539 0.9863234

Const_7 f4 [32]
000000 22 0b fc 3d f8 fe 70 3b fa fa 08 3d 53 c5 89 3d
       0.12306811 0.0036773067 0.033442475 0.0672709
000010 a8 b4 3e bc a1 2f 2a bc 4a f0 8a 3e 1b 4f 7a bd
       -0.0116397515 -0.010387332 0.2713645 -0.061110597
000020 e0 72 a2 3e 72 6e 8d 3e f2 f3 53 3d 81 45 a5 3a
       0.31728268 0.27623326 0.051746316 0.0012609215
000030 e8 1b 51 3d 77 32 85 3e 1a 67 85 3e e7 de 4e 3d
       0.051052004 0.26015064 0.26055223 0.050505545
000040 f1 8b 22 bd 27 cc 7e 3e c7 ee 80 3e ed ec 95 3c
       -0.03968424 0.24882565 0.25182173 0.018301452
000050 77 f5 9f 3b f0 3a 50 bc 20 9f 26 bd 7e 4a 1e 3c
       0.0048815566 -0.012709364 -0.040679097 0.009661315
000060 4a 18 3f 3d b7 28 d6 3c 27 df 8e 3d 0a 13 1d 3d
       0.046654023 0.026142461 0.06976157 0.038348235
000070 a6 50 63 bb 2b ea 80 3c 4a fc 82 3e c9 72 ca bc
       -0.0034685521 0.01573666 0.25583106 -0.024712937

MatMul f4 [32, 1536]
000000 95 18 e8 3c 61 6c 25 3c e0 6c 91 3c 69 c9 7f 3c
       0.028332034 0.01009664 0.017752111 0.015611985
000010 be 6b f5 3c 39 8a a6 bc 5d 67 ad bc 4b 52 f3 bc
       0.029958602 -0.020329582 -0.021167452 -0.029702326
000020 77 c8 0b bd 9e 85 84 3c c3 ca de bb 0b f1 e1 bc
       -0.034126725 0.016176995 -0.0067990734 -0.027580759
000030 5a e5 2c 3c d7 b5 ec 3c 45 64 dd bb 25 b7 ce 3c
       0.010552729 0.028895302 -0.006756338 0.025233814
000040 45 2a 50 3c 89 8a 30 bc e3 d7 25 3c db 13 65 3c
       0.01270539 -0.010775217 0.010122272 0.013981785
000050 d4 7e 86 3c 25 90 71 3b c2 a1 97 bc c7 08 b7 bc
       0.016417898 0.0036859598 -0.01850975 -0.022343053
000060 bb 8f 60 bb 2f be c9 3c d8 33 a0 3c 4a 95 05 bd
       -0.0034265358 0.02462682 0.019555971 -0.032613076
000070 4c db 03 3c 61 6d ab 3c 00 40 a9 3b c7 c4 7e 3b
       0.00804789 0.02092618 0.0051651 0.0038874613
000080 44 48 ab bc 26 b3 cf 3c 51 0b 91 bb 7f 18 07 3c
       -0.020908482 0.02535398 -0.004426398 0.008245586
000090 94 fa 9d ba 5a 32 85 bb 77 47 9d 3c 83 c2 2b 3c
       -0.0012052828 -0.0040648403 0.019199116 0.010483387
0000a0 58 2d b4 3a 40 b1 ef bc bf ae 58 bb df cc 97 3b
       0.0013746424 -0.029259324 -0.003306314 0.004632577
0000b0 f6 34 2b b8 68 06 7e 3b 20 29 60 3c 78 f8 5a 3b
       -4.08189e-05 0.0038761143 0.01368168 0.003341226
0000c0 86 39 f0 ba 10 e2 b8 3c e2 5b 7a bc f5 bd b2 bc
       -0.001832769 0.022568733 -0.015280696 -0.021819094
0000d0 68 ab 18 bd b4 1c 20 3c 95 e9 a4 bc 94 b1 2f 3c
       -0.03727284 0.009772468 -0.020130912 0.01072349
0000e0 bf 68 65 3c f7 1b 7b ba 19 98 80 3b d1 86 c1 39
       0.014002024 -0.0009579057 0.0039243815 0.00036912275
0000f0 92 5e f3 3c 6c 44 e6 bc 4f 4e 0c 3c 60 48 d5 37
       0.02970818 -0.028108798 0.008563592 2.5425281e-05
000100 ef 0e be bc fe 64 ab 3c 51 85 ad 3b 8f 3c fa 3b
       -0.02320048 0.02092218 0.0052954336 0.0076366137
000110 98 e1 c3 bc c4 bf f9 bb 2c 32 b5 3c f0 71 4b bc
       -0.023911282 -0.007621737 0.02211865 -0.012417302
000120 c0 36 89 bb 4d d0 cc 3c 74 eb 27 bc 8d f6 f5 3c
       -0.004187435 0.02500167 -0.0102490075 0.030024791
000130 4c 51 a5 3c e9 e6 2d bc d2 81 13 bc 2b e7 7a bc
       0.020180367 -0.010614135 -0.00900312 -0.015313904
000140 8e cf c1 3b 4d 17 8b 3c cb 54 35 3b dc b5 fe bb
       0.005914635 0.016978884 0.0027668949 -0.007773144
000150 c4 8e 19 3b 0b b1 6a bc bb fd 96 3b c4 a4 65 bb
       0.0023431042 -0.014324437 0.0046078837 -0.0035040835
000160 59 3c c6 bc a2 47 c0 bc 58 8c 93 3c 52 96 d2 bc
       -0.024198698 -0.023471657 0.018011257 -0.025706444
000170 09 2f 54 3c 9a 17 bd 3c c4 d4 69 3c f1 cb 20 bc
       0.012950667 0.023082543 0.014271919 -0.009814248
000180 8c fe 4d bc d1 fa 90 bc e4 e5 25 bc 7f be 84 3b
       -0.012572896 -0.017697724 -0.010125611 0.004051029
000190 35 94 62 3b 48 39 7e 3c e6 ee e2 3b 87 26 d0 bc
       0.0034573202 0.015516587 0.0069254516 -0.025408996
0001a0 71 da 46 bd ad 50 83 3b 92 29 81 bc 14 3d b4 3b
       -0.048548166 0.00400742 -0.015766893 0.005500445
0001b0 39 89 9e bc 0d 50 39 bc d2 94 c8 bb 20 52 b4 bc
       -0.019352542 -0.0113105895 -0.0061212564 -0.022011817
0001c0 30 f0 16 3c f0 09 9d 3b e6 80 08 3b 1a e4 be bc
       0.009212539 0.0047924444 0.0020828783 -0.023302127
0001d0 0e 8c 86 bc 41 af d0 3a 45 65 53 bc fb 42 0d 3c
       -0.016424205 0.001592137 -0.0129025625 0.008621926
0001e0 97 2e 04 bc f6 92 85 bc a8 fb 2b 3c 59 54 15 bd
       -0.0080677485 -0.016305428 0.010497011 -0.036457393
0001f0 a6 dc 85 bc a7 6a 3d bc 48 3a 4b 39 4f 8f 4d bc
       -0.016340565 -0.011561072 0.000193813 -0.012546374
000200 be 51 d8 3b ca e6 a8 3a 1c 79 a4 bb 76 d4 1c bb
       0.0066015413 0.0012886163 -0.00501932 -0.0023930348
000210 b9 16 53 3c 24 c9 c1 b9 81 80 b8 bc fa ff d3 bc
       0.0128838355 -0.0003696169 -0.022522213 -0.025878895
000220 47 90 d8 3c 2e 5f 9a bc 26 5b 15 bc 70 68 5f bc
       0.026435984 -0.018844213 -0.00911597 -0.01363574
000230 69 4a 2f 3c ea 1f ab bc 58 aa b1 3c c2 d0 fa bc
       0.010698893 -0.020889241 0.021687672 -0.030617122
000240 b2 36 de bb a7 3b d4 3c df 12 d2 3c 32 87 61 3c
       -0.0067814225 0.02590735 0.025643764 0.013765143
000250 1b 0e 05 bb 5f aa 34 bb 3b 2c 7a 3c ae e9 cc 3c
       -0.0020302597 -0.002756737 0.015269334 0.02501377
000260 01 1a b8 3b 37 17 8a 3c 1e bf ca 3b 5f 2a a0 3c
       0.0056183343 0.016856773 0.0061873337 0.019551454
000270 0a 46 42 3c 9d cd 3a bc 7c bc 8a bb da 43 c3 3b
       0.011857519 -0.011401561 -0.004233895 0.0059590163
000280 7a 7a bd bc 6e d2 8f 3c 65 51 8d 3c 64 7a a1 bc
       -0.02312969 0.017556395 0.017250726 -0.01971168
000290 8c fb 90 bc 51 19 1f 3c 16 ed fc 3c f6 7d 9c bc
       -0.017698072 0.009710626 0.03087477 -0.019103032
0002a0 eb 30 57 bc bc 93 13 bc e3 a0 97 ba 15 f8 38 bb
       -0.013134222 -0.009007391 -0.0011568334 -0.002822404
0002b0 1a d7 ac 3c 0f 75 18 3d db f3 99 3c f8 61 89 b9
       0.021098662 0.03722101 0.018793037 -0.0002620367
0002c0 c2 3e 59 3a fe 05 84 3b 7f 92 6d 3b 2f 81 b6 3a
       0.0008287245 0.0040290346 0.0036250649 0.0013923998
0002d0 39 1c 98 bc 10 36 ad bc 9c fe ad bc bc c5 58 bc
       -0.018568145 -0.021143943 -0.021239571 -0.013230737
0002e0 3d c5 f9 3c c5 aa 5a 3c 19 35 0c 3c f8 ce a8 bc
       0.030489558 0.013346379 0.008557581 -0.020606503
0002f0 d0 b8 72 3c f9 62 a4 bb f5 98 28 ba 22 c2 10 bb
       0.014814571 -0.0050166813 -0.0006431484 -0.0022088368
000300 18 2d 54 3c 9b 0a ad 3c 2b 2a 27 bc 83 14 98 bb
       0.012950204 0.021123221 -0.010202925 -0.004641117
000310 a1 55 44 bc a7 86 94 bc a1 e5 fe bc 1b a5 7e 3b
       -0.011983306 -0.018130613 -0.031115355 0.0038855735
000320 d4 7f 94 bc d5 aa 9b 3c 9a 00 a3 bc 98 3b a8 bc
       -0.01812736 0.019002357 -0.019897748 -0.020536229
000330 f2 c3 5f bc 5d e0 a9 3c fe 61 15 bc dd 34 d0 ba
       -0.013657557 0.020736868 -0.009117601 -0.0015884895
000340 a4 19 d8 3a 2e 57 38 ba e2 73 f0 bc ba 38 ad bc
       0.0016487134 -0.0007032034 -0.029352132 -0.021145213
000350 16 d0 f1 bc 27 f3 5c 3c 91 00 ff bb 1e 70 4f 3c
       -0.029518168 0.013485706 -0.00778205 0.012661008
000360 e9 26 84 bc fc 03 d1 3c 4d 27 b4 3c 19 ae f2 bc
       -0.016131835 0.025514595 0.021991396 -0.029624032
000370 3a eb cf bc 21 91 a1 3b 46 6d a0 3c 5d cf dd bc
       -0.02538072 0.004930631 0.019583356 -0.027076418
000380 6f e7 b3 3c 23 2f b1 3c df 3f 9b bc 3e 43 1d 3c
       0.021960942 0.021628922 -0.018951355 0.009598551
000390 ac 13 7d 3b 28 4a 85 bb 45 df 68 bc 8b 83 a8 3c
       0.0038616462 -0.004067678 -0.014213388 0.020570537
0003a0 83 4b 85 3c b7 3a 2a 3b 84 2a 29 bc 41 dc e4 3c
       0.016271358 0.0025974938 -0.010325078 0.027937056
0003b0 f0 51 dd bc bf 39 54 bc 3e 58 31 bc ae c6 7a 3c
       -0.02701661 -0.012953221 -0.010824261 0.015306158
0003c0 3c f2 fc bb 0c 79 de 3c 78 c2 a0 3c 2f c6 7c bc
       -0.0077193063 0.027157329 0.01962398 -0.01542811
0003d0 cf 61 5f 3b b8 89 e2 bb 4c 3d ab 3b dd 80 05 3d
       0.0034085398 -0.00691339 0.005225813 0.032593597
0003e0 ea 4c 94 bb e7 10 cc bc 1b 11 b0 bc 01 45 84 bb
       -0.0045257704 -0.024910403 -0.021492532 -0.004036546
0003f0 25 c7 c5 bc 39 0f 62 bc af 0a ca bb 60 58 98 3c
       -0.024142811 -0.013797575 -0.0061658244 0.018596828

MatMul_1 f4 [32, 32]
000000 7a 40 18 be a9 1f f4 3d 73 57 0c be 34 98 ae 3d
       -0.14868346 0.11920101 -0.13705234 0.08525124
000010 1e c4 28 3c 5a 8e d1 bd 00 f7 ef bd 54 a7 07 3d
       0.010300664 -0.102322295 -0.117170334 0.03311856
000020 7b d6 fa bd 65 a5 dd bc a8 53 8e bc 5c 10 9f bb
       -0.1224794 -0.027056405 -0.017373875 -0.004854245
000030 e1 4a ee bd a0 f3 e8 bd ee 18 c0 bd 9a 99 92 bd
       -0.11635376 -0.11374593 -0.09379755 -0.071582034
000040 74 a7 8c bd 4d 0e b1 bc cd df c6 3d fd e8 0f be
       -0.06867877 -0.021613264 0.09710655 -0.14053722
000050 51 63 16 3c 6d 3a 0d bd 15 e5 e4 bd 8d a8 45 3e
       0.009178952 -0.034479547 -0.111765064 0.19302578
000060 36 79 5a 3e 85 05 00 be 80 01 9a 3b 75 cd 24 3d
       0.21335301 -0.12502106 0.004699886 0.040235
000070 a8 2f 1b 3e 8e e9 05 be e6 81 90 bd 06 16 ec bd
       0.15154898 -0.13077375 -0.07056026 -0.11527638
000080 39 19 12 3e e8 b0 27 be d8 68 9b 3c 40 08 f4 3c
       0.14267434 -0.16376078 0.018970892 0.02978909
000090 5d ff da bd 30 3e ae 3d 04 59 21 3e 5c 95 2a be
       -0.10693238 0.08507955 0.15756613 -0.16658539
0000a0 20 e2 24 3e 50 53 2e 3e c0 b5 cd bd b1 d1 28 be
       0.16101885 0.17023969 -0.10044432 -0.16486241
0000b0 9a c5 e9 bd c6 20 88 bd 29 e6 65 bc a7 82 1e 3e
       -0.11414643 -0.06646876 -0.014031925 0.15479527
0000c0 c8 38 d8 3d f8 aa ea bd 6e bf 30 be 0a 2b c3 bc
       0.10557705 -0.11458391 -0.17260525 -0.023824234
0000d0 63 c7 18 3e 50 46 b3 bd dc 9a 3c be 60 0b 58 bd
       0.1491981 -0.087536454 -0.18418449 -0.052745223
0000e0 27 88 00 3e bd 96 b7 3d 92 67 d8 bd b2 dc ed 3b
       0.12551938 0.08964298 -0.105666295 0.007258975
0000f0 49 93 1c 3e a4 7b b8 3c 2c 80 19 3e 81 5a ec 3d
       0.1529056 0.022519894 0.149903 0.115407
000100 7f 78 c7 3d 1a 45 d2 3d 0d 0f 29 bd d9 64 c0 bd
       0.0973978 0.10267086 -0.04127412 -0.09394235
000110 df 04 5b 3d 95 9a e4 3c 82 2f 09 3e 59 99 20 3e
       0.053471442 0.027905742 0.13397029 0.15683497
000120 27 db 15 be 2c 5e 6f bd 11 3d f4 3d ba 2f d0 3d
       -0.14634381 -0.05843942 0.1192571 0.10165353
000130 4e c8 f4 bb 3e 92 1b bd 84 95 aa bb b5 8e 17 3e
       -0.0074701672 -0.037981264 -0.005205812 0.14800532
000140 5e 06 0e 3e 6a 81 c7 3d d3 e4 ea bd 50 e9 9a bc
       0.13869616 0.09741481 -0.11469426 -0.01891008
000150 f1 27 22 be c6 86 03 bd 18 0b 03 3e 08 48 5f bd
       -0.15835549 -0.03211095 0.127972 -0.054512054
000160 7b 26 59 3e 2e c3 0a bd 02 35 38 bd bc 3d 4f 3d
       0.21206085 -0.033877544 -0.044972427 0.050595984
000170 08 fa d2 bd a3 95 93 bd 39 fd 0e be fb df 8a bd
       -0.10301596 -0.07206275 -0.13963784 -0.06781002
000180 6a 6e 8f 3d d2 88 45 be b3 a3 03 be 02 94 22 be
       0.07003482 -0.19290474 -0.12855415 -0.15876773
000190 28 b1 20 be 18 67 07 3e d0 0f 80 3d 3a 77 1e be
       -0.1569258 0.13222921 0.06253016 -0.15475169
0001a0 fe eb 35 3e 14 10 e2 bd eb 0e dd bd f8 f1 03 3c
       0.17765805 -0.11038223 -0.10793861 0.008053295
0001b0 a4 60 34 3d 13 b6 12 3e 0b 60 23 be 3d 64 01 3e
       0.044037476 0.14327268 -0.15954606 0.12635894
0001c0 ba 64 14 3e f6 82 b6 bd c5 99 5d bd e7 1a fa bd
       0.14491549 -0.089116976 -0.054101724 -0.122121625
0001d0 13 4b d1 bd db b2 b5 bb 3e 35 2b 3c d9 b4 96 bb
       -0.102193974 -0.005545003 0.010449706 -0.0045991954
0001e0 9e 7c 28 bd a2 f6 e6 3d c6 86 de 3d fe b8 d4 ba
       -0.04113447 0.1127751 0.1086555 -0.0016229448
0001f0 24 7c 32 3e 00 24 10 3d 84 09 20 be 3b 7f 95 bd
       0.17430168 0.035190582 -0.1562863 -0.07299658
000200 34 4f 09 3e d8 57 ff bd 47 4b 0d be 04 75 d6 bd
       0.1340912 -0.12467927 -0.13798247 -0.10471538
000210 03 b7 34 3c 62 23 4d 3d 04 b9 ed bd 80 df 5a bb
       0.0110299615 0.05008257 -0.116075546 -0.0033397377
000220 cb cf 12 3e 35 ac 07 3e d1 8f b8 3b 2c 75 fe bc
       0.14337079 0.13249286 0.0056323786 -0.031061731
000230 4e 20 18 3e ca 10 51 bc 2b 0b 69 bd c7 7f f1 bd
       0.14856073 -0.0127603505 -0.056895416 -0.1179195
000240 78 80 3e 3d 46 9c fc 3d e9 83 24 be 51 75 d6 bc
       0.046509236 0.12334494 -0.16065945 -0.026178988
000250 2c d4 c6 bc eb c4 99 bd fa 90 0f 3d 51 c6 f8 bd
       -0.024271093 -0.07508262 0.03505037 -0.12147201
000260 a1 d3 2a 3d 22 a2 b4 3c dd 2e be bd 1f 3c fd 3d
       0.04170573 0.022049967 -0.09286282 0.12364983
000270 0e 42 32 bd ae 23 2a be 9e 74 8f bd 5d ed 9a bd
       -0.043520026 -0.16615173 -0.07004665 -0.07564805
000280 e1 89 68 bd 85 e4 f5 3c 54 60 05 ba d4 a3 82 bd
       -0.056772117 0.030016193 -0.00050879014 -0.06378904
000290 0e 9e 0a be eb ca be bd d4 f2 0d be af c1 99 bd
       -0.13536856 -0.09316047 -0.13862163 -0.07507645
0002a0 fc 91 c0 bd 40 4f f0 3d ad d3 1d be e7 8a 82 3d
       -0.09402844 0.11733866 -0.15412779 0.0637415
0002b0 94 cf 05 3e e8 b4 eb 3d 0c 35 f8 3d d3 e8 22 3e
       0.13067466 0.115091145 0.12119493 0.15909128
0002c0 dd 16 2a 3e 1e 45 5f 3d 36 23 bd 3d 63 04 9c bd
       0.16610284 0.054509275 0.092352316 -0.07618024
0002d0 e4 a5 04 be 6d 6c 2d bd e8 ba f7 3d 3c f5 c8 bd
       -0.12953907 -0.04233973 0.120961964 -0.098124
0002e0 e6 7e 41 3e 5b 06 98 bd eb d4 1a 3d 59 66 02 3e
       0.18896064 -0.07423087 0.03780071 0.12734355
0002f0 6a 7f 71 bd 3a 83 1a 3d 30 c6 b5 bd 19 33 82 bd
       -0.058959402 0.037722804 -0.08875692 -0.06357402
000300 71 f6 05 3e 8d 7b e6 3d 85 2e ce bd 7e 3e 60 bd
       0.13082291 0.11254034 -0.10067467 -0.054747097
000310 fd 3d e2 bc f8 ab 9a 3d 14 bb fc 3d 12 37 92 3d
       -0.027617449 0.07552332 0.1234037 0.0713941
000320 55 35 a3 3d 2d fb 02 3d 3a e7 65 bd 96 3d c1 bd
       0.07969157 0.03197782 -0.056128718 -0.09435575
000330 72 83 88 bc f6 0f ad bd 22 3b 04 3e a8 8a 20 be
       -0.01666424 -0.0845031 0.12913182 -0.15677893
000340 4b 92 2c 3e 57 48 22 3e 58 03 20 3e a0 e0 6f be
       0.16852681 0.15847908 0.15626276 -0.23425531
000350 43 3c 68 3d 0b c3 d8 3d 56 51 98 bd 19 61 61 3d
       0.056698095 0.105840765 -0.074373886 0.05502424
000360 39 c9 67 bc fb dc 81 bc 20 eb 91 bb d4 37 3a be
       -0.014147096 -0.015852442 -0.004453078 -0.18185359
000370 38 3d 2f 3d e6 c0 d3 3c a2 b0 31 3e c3 79 b5 bd
       0.042782992 0.025848817 0.17352536 -0.08861115
000380 17 63 42 bd 43 59 04 be e6 8a 2e be 98 a6 08 be
       -0.04745778 -0.12924676 -0.17045173 -0.133448
000390 f9 68 9b bc 43 79 05 3e 7c 00 db 3d 0b aa e5 3c
       -0.018970953 0.13034539 0.10693452 0.028035184
0003a0 94 5c f1 bd eb 6f d0 bd 8a 03 a8 bd 69 94 d6 bd
       -0.11785236 -0.10177597 -0.082038 -0.10477526
0003b0 c4 f5 ec 3d a8 02 d4 bd ae e5 db bd a5 6d 13 3d
       0.115703136 -0.10352069 -0.10737167 0.035993237
0003c0 26 c4 9e bd 5b 6c 29 3d 5d 4c 46 bd 66 23 9f 3d
       -0.07752256 0.0413631 -0.04841267 0.077704236
0003d0 0a ab dc bd 9c 7e 0f 3e 2d 98 31 bd 52 f1 dd 3d
       -0.107748106 0.14013141 -0.043358017 0.10837044
0003e0 93 ba 37 bd cf a4 fc bd 3b 62 fe bd a2 cd 11 bd
       -0.044855665 -0.12336122 -0.1242108 -0.035596497
0003f0 e8 e1 af 3d 7c 19 ef 3c aa 6d 5c 3d f2 45 00 3e
       0.0858801 0.029186957 0.05381552 0.12526682

MatMul_2 f4 [1, 32]
000000 fe 4e a2 be 04 6c 79 3e b3 46 b0 bb 22 f7 66 3d
       -0.3170089 0.24357611 -0.0053795218 0.056388028
000010 bc a6 93 bc 3e de 98 3d 11 44 bf be 95 78 0d bd
       -0.018023841 0.07464264 -0.37356618 -0.034538824
000020 04 d4 bc be 8a 4a b5 be 6d f1 44 3d e3 e6 e5 bb
       -0.36880505 -0.3540843 0.048081804 -0.007016049
000030 74 54 0c 3e db 16 b9 be 9c 84 a3 be df 23 51 3d
       0.13704091 -0.3615025 -0.3193711 0.0510596
000040 b8 c9 97 bb ea af b9 be f4 da bb be 79 4a c6 bb
       -0.004632201 -0.36267024 -0.36690485 -0.0060513583
000050 a3 1e e6 3c 00 1e 7c bd e9 1c f1 bc 78 4d 63 bc
       0.02809078 -0.061552048 -0.02943273 -0.01387345
000060 73 b4 29 3e ec 57 7d 3d c9 c7 6d 3e 6b ba 12 3e
       0.16572742 0.061851427 0.23220743 0.14328925
000070 df 7c b8 3d ec 85 3a 3e 7c 5e c1 be aa bb 4e 3d
       0.09008192 0.1821515 -0.37767398 0.05047194
