en/choo_choo_homie/choo_choo_homie.onnx (onnx, 208149 bytes, 9 tensors)

model/tf.math.add_1/Add/y f4 [32]
00000000: 6f2e 283e bdd1 083e 04d1 49bc 8165 b83d
00000010: 12ba 2e3e 4ea3 41be 32e9 9dbd 8fc2 173d
00000020: 5f03 a63c 0820 88bd 1289 a03d f10f c63d
00000030: a2ca bcbd 0de2 493e 8ae8 863d 553f 6dbc
00000040: da75 c8bb 33ec 563e 8796 b3bc c1aa 353d
00000050: 169e 24be 5fae d83d fa21 c23d 9b26 2bbe
00000060: 0753 4dbe 72bd b5bb c3bd 5b3b c595 26bd
00000070: 8a3c 46bc 9fa2 cc3b 9a39 56be 1946 ab3d
0.16423963 0.13361259 -0.0123179 0.09003735 0.17063168 -0.18909952 -0.07710494 0.03705078
0.02026528 -0.066467345 0.07838644 0.09671009 -0.09218337 0.19715138 0.06587322 -0.014480432
-0.0061175646 0.2098854 -0.021922363 0.044352297 -0.1607593 0.10580134 0.09479137 -0.16713946
-0.20051204 -0.0055462653 0.0033529855 -0.040670175 -0.012099395 0.006244972 -0.20920411 0.083629794

model/tf.math.add/Add/y f4 [32]
00000000: a13d 9d3d 00b1 803d e9ea 2fbc 0b4a ec3c
00000010: 16f4 c8bc fe4f 8eba 895a 213d c24e 5dbb
00000020: 86ff ad3c cb29 993d f7cd 923d 2076 d03b
00000030: 20bd 803d f150 bebc f819 863c 07bd 7f3d
00000040: 7276 8e3c 6a34 e8bb 542e 0d3c e727 593c
00000050: c536 5cbb fb6b 223d cadf 28bc f75c 053d
00000060: 1151 2b3c be7c 62bc 1d3e 223d e756 463c
00000070: 6413 e8bc cf9a 35bc 655f ad3d 2d86 d6bc
0.076777704 0.0628376 -0.010737159 0.0288439 -0.024530452 -0.001085758 0.03939298 -0.0033768867
0.021240007 0.074786745 0.07168191 0.006361738 0.06286073 -0.023231955 0.016369805 0.06243613
0.017390464 -0.0070863264 0.0086170025 0.013254142 -0.003360198 0.03965376 -0.010307262 0.03255936
0.010456339 -0.013823686 0.039610017 0.01210568 -0.028329559 -0.0110842725 0.08465461 -0.026187027

model/layer_normalization_1/batchnorm/mul/ReadVariableOp/resource f4 [32]
00000000: ec19 9f3f 1636 993f 54a0 a33f 0998 b63f
00000010: 9820 b33f 596c a43f 71c0 b63f 8259 8c3f
00000020: 7e93 803f 1171 9d3f 3b5d ab3f fbc0 a63f
00000030: 6e31 a63f e1fc 9c3f 89a2 9c3f a5fd a33f
00000040: babc a53f 35c5 af3f 83a6 843f c624 983f
00000050: 544a 823f bb0c 5e3f 2193 643f c330 a93f
00000060: 6cf1 a33f 8e7e 9d3f 815c 8d3f 748b a53f
00000070: 2e15 803f 5da1 8b3f 9d8c ae3f 6f5b a73f
1.2429786 1.1969631 1.2783303 1.4265147 1.3994322 1.2845565 1.4277478 1.0964816
1.0045011 1.230013 1.3387827 1.3027643 1.2983835 1.2264673 1.2237102 1.2811781
1.294822 1.3732058 1.0363315 1.1886222 1.0178933 0.86738175 0.89287 1.3218006
1.2808051 1.2304246 1.1043855 1.2933183 1.0006464 1.0908619 1.3636662 1.3074778

model/layer_normalization_1/batchnorm/ReadVariableOp/resource f4 [32]
00000000: fb18 da3d c0e8 9a3d c46d f53d 5ffa 8d3e
00000010: 788d 753e abb5 1c3e e690 df3d f19f 1c3e
00000020: 7e16 4cbd 1de7 713d e35e 833e e559 0e3e
00000030: 5e6f 883d b27c 683e 868e 423c 27b4 843e
00000040: 54a2 36bb 9352 863e ec9d 333e e939 b33d
00000050: 419e c1bb e03a aebe 99ba 01be a0a9 3d3e
00000060: 9cba 203e b13f 003e 0255 3fbe ff20 083e
00000070: f70a 6f3c ec1d edbd bcff a63d b3b1 b63d
0.10649296 0.07563925 0.11983827 0.2773008 0.23979747 0.15303676 0.10916309 0.15295388
-0.049826138 0.059058297 0.2565833 0.1390148 0.066618666 0.22703817 0.011874801 0.25918695
-0.0027867751 0.26234874 0.17540711 0.0875128 -0.005908758 -0.34029293 -0.12668838 0.18521738
0.15696186 0.12524296 -0.18684772 0.13293837 0.014590017 -0.11577973 0.08154246 0.08920612

model/layer_normalization/batchnorm/mul/ReadVariableOp/resource f4 [32]
00000000: dc94 893f 1f4d 943f 5933 783f 6f10 693f
00000010: 6978 7a3f 9d31 803f 545e 7d3f 8547 863f
00000020: 62e4 883f e46f 743f 5099 983f 9152 893f
00000030: d4e7 8e3f 5313 883f 2408 933f 665d 943f
00000040: 07af 783f e79d 7e3f d53c 5f3f a563 773f
00000050: a2c9 833f 8ea4 9c3f 2a95 853f 1b68 4e3f
00000060: 3160 703f 491a 8b3f 09d2 9c3f 43a9 793f
00000070: 5a1a 8f3f 45ad 8e3f 7458 933f 691d 863f
1.0748553 1.1586035 0.9695335 0.910407 0.9783998 1.0015141 0.9897206 1.0490576
1.0694697 0.9548323 1.1921787 1.0728322 1.1164498 1.0630897 1.1486859 1.1591003
0.9714207 0.9945969 0.872022 0.9663642 1.0295908 1.2237718 1.0436146 0.806276
0.93896776 1.0867397 1.2251598 0.975239 1.1179917 1.1146628 1.1511369 1.0477725

model/layer_normalization/batchnorm/ReadVariableOp/resource f4 [32]
00000000: 4ebd 7d3d c1d5 803d 0b10 5f3d 0193 74bd
00000010: 8bc4 063d 2927 cabc 3d73 0c3d a4ee d0ba
00000020: a37b 3b3c 9ea4 8b3d 1a36 5d3d 4e17 c8bc
00000030: e561 953d 6a24 2ebc d721 cbbc 0926 7e3d
00000040: 7e58 0dbd aeb9 803d f2c9 51bd 5672 913c
00000050: 571e 823d 2f3a 673d b032 463d c755 d9bd
00000060: 9e82 5c3c 0052 bfbb 7ac3 813d f0ff aabc
00000070: fa7d e63c d1a7 c9bb 6fcc 773d 7f9f 49bc
0.061948113 0.0629077 0.05445866 -0.059710506 0.03290228 -0.024676876 0.034289587 -0.0015940261
0.0114430515 0.068185076 0.054006673 -0.024425175 0.072940625 -0.010628799 -0.02479641 0.062047992
-0.03450822 0.062854156 -0.05121798 0.017754715 0.06353443 0.056451973 0.048388183 -0.10612064
0.013458876 -0.0058386326 0.06336112 -0.020873994 0.028136242 -0.0061540385 0.060497697 -0.012306093

const_fold_opt__25 f4 [32, 32]
00000000: e99c 1ebe 05e0 c3bb 0714 87bd b812 4c3d
00000010: 8360 3d3e e765 6cbd d375 7a3d 33a3 0c3c
00000020: 1dfc ce3b fe30 fabd 6525 fa3d 8e6c 57bd
00000030: 5c1e 33be 96f6 043e a27d dfbd afb8 d93d
00000040: ce70 cfbd 08ab 973d 9093 ce3d 658f 2ebe
00000050: 3f86 023e 4f54 3e3d 6797 03bc da9b 2d3d
00000060: 1859 9fbd dc85 8b3d 2eb9 7f3d d851 8cbd
00000070: 3f84 003e f1ed 04be de23 d93d 14e6 68bd
00000080: b521 45be 2254 b33d f290 0abe 5b3a 943e
00000090: 40c5 983e 7c3f 853d 2621 d0bd 85ce 8c3e
000000a0: a15c 783d a3c2 40be 9e42 763e 47d7 d23c
000000b0: dd00 28be 90b3 af3e e756 6ebd b29b 783e
000000c0: aca1 61bd 57f7 a73e 1a83 763e e301 15be
000000d0: d12c 473e 9be7 b83d 28aa 8b3d fbea f3bc
000000e0: b6cb 98bd c09d 94bd c45b 323e f268 7bbd
000000f0: 060d 673e 3988 b8bd 8b7d 5b3d 4543 a1bc
00000100: a9a9 503d 88ae e7bc 9b04 2e3d 5eac af3d
00000110: 0dd2 743b 78f3 a73d b9cd 033e a600 1cbd
00000120: 0b57 e7bc 75df c73d c1fb 693c a520 c83d
00000130: 323a 543e d695 64be 66ef 183c 84d4 0fbe
00000140: 13d5 583d bb4f 44be 172b 0c3d 9f50 813c
00000150: 0e97 603c f8fd 8f3c c5c4 a4bd 0cd9 4b3e
00000160: 4790 473d fbbd 033e 6eb1 a0ba 82d3 cdbb
00000170: bbc2 92bd 7e00 7ebc 5e68 9c3e 0bad 083e
00000180: cc38 273d d384 a2bd 736a 62bc bde0 d63d
00000190: e6b5 5abd 7436 353d f998 c53d b409 a0bd
000001a0: 1a86 85bd 6c8f 4f3e bca3 afbd 99bf 123e
000001b0: 3c8d 9d3d 1341 50bd 8ddf a5bc 89d0 b63d
000001c0: a41e 3c3c b307 a73d 83b0 bfbd de9b d03c
000001d0: ae53 343c 333a 59bd 3033 203d ec97 213e
000001e0: 02a4 a03d a78d 663d a4b5 063d 89e4 4b3e
000001f0: ec55 99bc f3a5 263d 6f8a 1c3c 29a4 743e
00000200: 4484 403e a59e 37be d6ad 193e 9ec0 493d
00000210: 5115 99bd b07c 623e f37f 973e e0ae eebd
00000220: 02fb 01bd 6e5f ce3d 2d47 00be dc69 1f3e
00000230: b8c5 733e cada 2ebe 69df d83d a9c6 2cbe
00000240: 1580 783d 3fa5 72bc e3eb 8ebd 128a 243e
00000250: 681f a33d 417d f63c a105 9bbc 6145 713e
00000260: 5a82 423e 8110 663e 2161 adbd 583a c83d
00000270: d042 b5bc 6a3a 483d b191 8c3e 2705 183e
00000280: 6c18 343e 2e4f 0bbe c1f2 403e c1d7 d5bd
00000290: a88a a3bd 8eb6 0c3e 8bbf 6f3e 7a15 9fbd
000002a0: 8aee 063d 6c49 393e 64ed c83c 3da5 793d
000002b0: 7832 7d3e 036c a83c 32bd 103e cb58 0ebd
000002c0: d7bf 3d3e e411 41be 9b4e 0cbe 5ec9 1f3e
000002d0: df97 433d bc7b f53c 8337 3bbd 7c87 093e
000002e0: 962e 0b3e 2ad4 823e 3a10 7bbd 1892 a13d
000002f0: 1358 56bd 1290 a33d e421 c33e bf23 c43d
00000300: 7dd8 d3bd 4a14 ba3c 947c 3e3e 9a11 583d
00000310: ee4c 55bd 437a f63d 1ebd 0abe ca72 e93d
00000320: b0cf 033d 8fda 223c 48bc bc3d cf03 cebd
00000330: 5e6c 8abd a5cf b73c 74ea 16bc 0e0b 883d
00000340: e7cb c33d 28db 213d 98aa ee3d a0ae 913d
00000350: d3bc 183d 644f 253d 694b 4dbd da47 f7bd
00000360: 3f93 d13d 308f 52bd c7f3 08bd 389b 2dbd
00000370: aa27 d43d 27b4 cd3d 57f2 b13d e909 47be
00000380: ae00 123e 7d9c 94bd f078 1d3e e47a 9bbd
00000390: f4ca 2cbe 7e23 523e 5b88 dc3d 18ca 95bb
000003a0: 2f91 9fbd 200d 853e 8fc0 33be d032 bb3d
000003b0: 38a3 4b3e eef6 b6bd 284e 9b3d c793 7bbe
000003c0: 079d 593e ca85 49be f59b 91be a43f 693d
000003d0: 0bf2 48bd ee6b 57bd 664e dd3c 8682 003e
000003e0: 26d6 623e d3a7 623e cf00 98bd 2d2e 263e
000003f0: f578 8c3c 5220 623d beb9 4f3e ebce 0d3a
-0.15489544 -0.005977633 -0.06595617 0.04982254 0.18493848 -0.05771437 0.061147522 0.008583832
0.0063166753 -0.12216376 0.12214164 -0.05259376 -0.1749205 0.1298469 -0.109126344 0.10630929
-0.10128938 0.074056685 0.10086739 -0.17046888 0.12746523 0.04646712 -0.008031703 0.04238496
-0.07780665 0.06812641 0.06243246 -0.06851548 0.12550448 -0.12981392 0.10602544 -0.056860045
-0.1925114 0.087562814 -0.13531855 0.28950772 0.2983799 0.06506249 -0.101625726 0.27501312
0.060635213 -0.18824248 0.2404885 0.025737418 -0.1640658 0.34316683 -0.058188345 0.24278143
-0.055085823 0.32805893 0.24073449 -0.14551501 0.1945069 0.0902855 0.06819564 -0.029775133
-0.0746073 -0.07256651 0.17417818 -0.06137938 0.22563562 -0.090103574 0.053586524 -0.019685397
0.05094305 -0.028281465 0.04248486 0.08577798 0.0037356645 0.08200735 0.12871446 -0.038086556
-0.028239748 0.09759418 0.014281214 0.097718515 0.20725325 -0.22322783 0.009334421 -0.14045912
0.05293758 -0.1917104 0.03422078 0.015785513 0.013707889 0.017577156 -0.08045343 0.19907016
0.048721578 0.1286544 -0.0012259909 -0.006281317 -0.07166048 -0.015503047 0.30548376 0.1334726
0.04082565 -0.079354905 -0.013819325 0.10492084 -0.053396128 0.044241384 0.09648318 -0.07814351
-0.065197185 0.20269555 -0.08576152 0.14330901 0.07692954 -0.05084331 -0.020248199 0.08926494
0.011481915 0.081557654 -0.09359839 0.025464948 0.011006279 -0.05303402 0.039111316 0.1578061
0.07843782 0.056287434 0.03288807 0.19911398 -0.018717729 0.040685605 0.0095544895 0.23890747
0.18800455 -0.17931612 0.1500772 0.04925596 -0.07474769 0.22117877 0.29589805 -0.116544485
-0.03173352 0.100767955 -0.12527151 0.15567726 0.23805892 -0.17075649 0.10589487 -0.16872658
0.060669024 -0.014809906 -0.069785856 0.16068295 0.07964975 0.030089023 -0.018923583 0.23561622
0.18995038 0.22467233 -0.084657915 0.09776753 -0.022126585 0.048883833 0.27454904 0.14845715
0.17587441 -0.13604423 0.18842603 -0.104415424 -0.07985431 0.13741514 0.23412912 -0.07767768
0.032942332 0.18094414 0.02452726 0.0609486 0.24726284 0.020559317 0.14134672 -0.03475265
0.18530212 -0.18854481 -0.1370186 0.15604159 0.047752257 0.029966228 -0.045707237 0.1343059
0.1359199 0.25552493 -0.06129477 0.07889193 -0.052330088 0.079864636 0.38111794 0.095771305
-0.10344026 0.022714753 0.1860221 0.05275116 -0.05207532 0.12035038 -0.13548705 0.113988474
0.032180488 0.009939804 0.09215599 -0.1005932 -0.06758951 0.02243788 -0.009211171 0.066427335
0.09560376 0.039515644 0.11653632 0.07113385 0.03728945 0.040358916 -0.050120745 -0.120742515
0.10233163 -0.051406085 -0.03343561 -0.042384356 0.10359128 0.10044127 0.08688801 -0.19437374
0.14258072 -0.0725641 0.15378165 -0.07591799 -0.16874295 0.20521352 0.10768195 -0.0045712106
-0.077913634 0.25986576 -0.17553924 0.09140551 0.19886482 -0.08933817 0.075832665 -0.24568091
0.21251307 -0.19679943 -0.28439298 0.056945458 -0.049058955 -0.052593164 0.027014922 0.1254979
0.22152004 0.22134332 -0.07422029 0.16228552 0.01714752 0.055206604 0.20285699 0.00054095563

const_fold_opt__23 f4 [32, 1]
00000000: 0c8c 823e 9d87 a9be 1c95 a03e 7e79 0dbf
00000010: 906a 06bf d31a 823e 6f9c d73e c994 82be
00000020: 60af a93d 724a ae3e e2d7 e7be d6cf 823e
00000030: 97c8 e33e 049e bbbe b757 553e 2cd7 a7be
00000040: 1675 af3e 4b20 02bf 9925 4dbe b5da 523e
00000050: 2373 113e cf06 9ebe 7bee 573d 72d1 943e
00000060: 7f90 d73e 273b 943e 0505 8fbe 49eb 873e
00000070: d325 013e fa76 683e 1887 f63e a85c 9f3e
0.25497472 -0.33111277 0.3136376 -0.5526351 -0.5250635 0.2541109 0.42111537 -0.2550414
0.08285403 0.34041172 -0.45281893 0.2554919 0.44488975 -0.36643994 0.20834242 -0.3278135
0.34269017 -0.50830525 -0.20033874 0.20591243 0.14204077 -0.3086457 0.052717667 0.29066044
0.4210243 0.2895138 -0.27933517 0.26546696 0.12612085 0.22701636 0.48149943 0.3112538

const_fold_opt__22 f4 [1536, 32]
00000000: 9ff1 aa3a 3517 043d 370e bf3c 58de 943c
00000010: 96db 6abd 4003 acbd 11c8 e03c e5e7 b1bd
00000020: 32b0 f23c 5d7d 253d 09e0 093e fd12 b93c
00000030: 82a2 87bc 71c7 563d 0ff0 483e 5db6 363c
00000040: 68e7 62bd 65c0 f03c 793e 8dbc f262 2c3c
00000050: 260c efbc c05d 85bc 9d00 fcbc 80e3 1a3c
00000060: 3962 b3bd 9338 f83b 6755 4cbd 67f2 62bc
00000070: 9aa5 a5bd d4e9 edbd bc18 353d 8448 20bd
00000080: 00a1 8c3c f353 3bbc bc56 243c b404 fa3c
00000090: b30e fd3c 77be 9b3d 565b c03c d346 223d
000000a0: a297 ad3a ffa4 b2bb e29a 933c 8c7a 793c
000000b0: ac67 2dbc 39fe bc3c d310 9e3c e631 813d
000000c0: d44f f83c cc45 293d fad4 7d3b 3af4 783d
000000d0: f962 1f3d 6fc7 1e3c 2543 2f3d 2594 f23c
000000e0: 3694 103d 6ce0 bdbb 9a2a 0d3d 91b7 463d
000000f0: 313c b13d 163a c0ba 9ca3 003d 77f6 0a3d
00000100: b295 2abc 9327 343d 20f9 843d 895a ba3c
00000110: 95b9 653d 4adf bd3d d96b eebd 3366 fa3d
00000120: 098f 433c 17f7 b2bd a212 cdbd 8944 1c3d
00000130: 5bb1 103d 5766 973d f646 43be 634b 23be
00000140: f5e7 713d c23d 243c 1dd1 5e3c 1abe 4b3c
00000150: d82f 3fbb 2524 39bd bee5 783d e714 40ba
00000160: b14d 793c 1fd6 a4bc ca62 4fbc c24e ddbb
00000170: 29f1 063e 6f0e 903d bf08 bcbb e528 b4bb
00000180: 9445 17bc 7148 82bd ca25 50bd b732 443c
00000190: cb1f 0b3d 90a2 23be ba4c 9c3c ae0f 71bd
000001a0: d6c4 cabb f371 3cbd a240 4b3c bd60 08be
000001b0: 82c2 083b d818 8ebd 56ac 843c 78ed 173a
000001c0: aa8b 19bd 5b14 a2bd 2f5c 89bd efca 4cbd
000001d0: 8778 6ebd 80bf 393d fdcd 33bd 41e5 77bd
000001e0: a25a 91bd 69cd ed3c 469e 2e3d 8848 563c
000001f0: 06b3 b1bd 0924 113a 95a7 853d 2c20 f1bd
00000200: e144 5dbc 0f9b 9bbc 639f 983c 074f cbbb
00000210: b736 f9bb e323 9d3b 379f 3c3d 5db3 7e3d
00000220: 6e46 4d3d a5c2 1b3d c3b4 973d 3d4a 2a3d
00000230: cd6e da3b 638a 493d 89a9 6d3d bf8e 5a3d
00000240: f807 d03c 54aa 7e3d f8dc e43b 9880 993d
00000250: 1ce3 413d 2240 d9bb 1d37 8d3c 2d94 f93c
00000260: deab 953c 1e5c 323d 8234 3b3c 9faf f63c
00000270: 8819 703d 42ef 2b3c 80a0 e63c 4dcb 653d
00000280: 56ff ae3d 9602 393d 1c0f e73b 0a87 93bb
00000290: cc3f 843c 6cab 23bd 55cd 793d a7d3 813c
000002a0: 7f19 df3c e14f 913d b8be 9b3d be07 703c
000002b0: 5e63 643d 31a3 d1bb a7fe 6c3c 9f4a 953d
000002c0: 503f 153c aff8 adbb 5398 4bbb eca7 d0bc
000002d0: 2df3 47bb 3028 7b3d 9e77 86bc 26ef 953c
000002e0: 75e3 43bc 1be4 0d3d 53ef 2c3d c552 523c
000002f0: 7047 60bd c48e 24bc b2cd 733d 7cc5 983c
00000300: 7e23 1ebc d2c4 92bc 215b 163d 95a0 363d
00000310: d777 d93c ec36 a73d 3b70 583d 7e4e 053d
00000320: ebd2 063d 974c 90bb e317 883b 225f 1e3d
00000330: f497 55bc 29ac 0f3c 2eaf bb3d 4b5f f23c
00000340: 445a 533d c9b1 2b3d 1b6d 1b3d 2730 003d
00000350: 49df 243d fbc9 11bd e142 923d 6c9f e83c
00000360: 9758 1e3d 2f3e 143d 5520 643c 9d50 a53d
00000370: 9dcb 453d 73c0 593d 2bfd d23b 4deb 473d
00000380: a6b8 f3bc 6b21 8f3d 745e b9bc 38a5 763c
00000390: 0b7c 4bbb 3e5e edbd 6ec3 1c3d 1769 5ebd
000003a0: 8a40 b73d 4661 2f3c 4e03 87bd 037d 0f3c
000003b0: 7272 643d 63c1 513c 9e26 0a3d e196 aabd
000003c0: b284 8bbd 0891 c3bc abf9 313c 216d 8bbb
000003d0: 06d2 46bd f9d3 88bd 48e8 a6bd 12f3 d4ba
000003e0: 42da 1abd 6420 e5bc bddb 27bd 28fb 20bc
000003f0: 873a 00be 86cc ad3b 69c2 15bd 1ea7 89bd
0.0013041979 0.032248694 0.023322208 0.018172428 -0.05733832 -0.083990574 0.02743915 -0.086868085
0.029625032 0.04040276 0.13464369 0.022592062 -0.016556982 0.052436296 0.19622825 0.011151877
-0.055396467 0.029388616 -0.017241703 0.010521637 -0.029180598 -0.016280055 -0.030762011 0.009453654
-0.08758969 0.0075751035 -0.049886134 -0.013851739 -0.080882266 -0.11616865 0.04421304 -0.039131656
0.017166615 -0.011433589 0.010030445 0.03051982 0.030890798 0.07604688 0.023481052 0.039618324
0.0013244043 -0.005451798 0.01801819 0.015226971 -0.010583799 0.023070442 0.019295132 0.063083455
0.030311503 0.04132633 0.003873168 0.060779788 0.038912747 0.009691103 0.042788643 0.029611656
0.035297595 -0.0057945754 0.034464456 0.048514906 0.08654059 -0.0014665748 0.03140603 0.033926453
-0.010411667 0.043983053 0.06492829 0.022748249 0.056085188 0.09271105 -0.11641664 0.12226524
0.011935958 -0.08738535 -0.100133196 0.038151298 0.03532539 0.07392567 -0.19070038 -0.15946727
0.059059102 0.01002449 0.013599661 0.01243546 -0.0029172804 -0.045200486 0.060765974 -0.00073273334
0.015216277 -0.020121632 -0.0126578305 -0.0067537734 0.13177933 0.07034003 -0.0057383473 -0.005498039
-0.009232897 -0.06361473 -0.05081729 0.011974982 0.033965867 -0.15979981 0.019079555 -0.058852844
-0.0061880155 -0.046007108 0.012405546 -0.13318153 0.0020867889 -0.06938332 0.016195457 0.00057955785
-0.03748671 -0.07914039 -0.06707036 -0.04999822 -0.058220413 0.045348644 -0.043897618 -0.060521368
-0.07097365 0.029028611 0.04263141 0.013078816 -0.08676724 0.00055366807 0.06526104 -0.117737144
-0.013505192 -0.018994836 0.018630689 -0.006204489 -0.0076053995 0.004795538 0.046050277 0.062182773
0.050115995 0.038027424 0.074075244 0.041574705 0.0066660405 0.04920424 0.05802301 0.05335879
0.025394425 0.062174156 0.0069843493 0.074952304 0.04733573 -0.0066299597 0.017238194 0.030466164
0.01827043 0.04354488 0.011426093 0.03011304 0.0586181 0.010494055 0.028152704 0.056102086
0.08544795 0.04516848 0.0070513617 -0.004502182 0.016143702 -0.039958403 0.060986836 0.015847994
0.027233837 0.07095314 0.07604736 0.014650283 0.055758826 -0.0063976278 0.014465011 0.072896235
0.009109333 -0.0053091864 -0.0031066134 -0.025470696 -0.0030509934 0.061317623 -0.01641446 0.018302511
-0.011956085 0.034641366 0.042220425 0.012837117 -0.054755628 -0.010043804 0.05952234 0.018648855
-0.009652017 -0.017916117 0.036708 0.044586737 0.026546402 0.081647724 0.052841406 0.03254556
0.03291599 -0.0044036615 0.004153238 0.038664944 -0.013036717 0.0087690735 0.09164272 0.029586455
0.051599756 0.041917596 0.037945848 0.03129592 0.040252004 -0.035593014 0.071416624 0.02839633
0.038658705 0.036192115 0.013923724 0.080720164 0.048289884 0.05316205 0.0064388714 0.048808385
-0.029751133 0.06988796 -0.022628047 0.01505404 -0.0031049277 -0.11590241 0.038272314 -0.05429944
0.08947857 0.010704344 -0.06592427 0.008757832 0.055773206 0.012802455 0.033728234 -0.08329559
-0.06812419 -0.023872867 0.010862748 -0.0042549525 -0.048540138 -0.066810556 -0.08149773 -0.0016246757
-0.037805803 -0.027969547 -0.040981043 -0.009825505 -0.12522326 0.005303922 -0.036562357 -0.06721328
