en/bartolo/Bartolo.onnx (onnx, 205647 bytes, 9 tensors)

const_fold_opt__23 f4 [32, 1]
0	0xbeb18af8	-0.34676337
1	0x3e3c0790	0.1836226
2	0xbe9cac7e	-0.3060035
3	0x3c7d1118	0.01544597
4	0x3e5545ec	0.20827454
5	0xbc8830ee	-0.016624894
6	0x3e0b9177	0.13629709
7	0xbc74ec40	-0.0149489045
8	0x3e18282a	0.14859071
9	0xbdbba7f9	-0.091628976
10	0x3dd63dea	0.10461028
11	0xbe9af1a7	-0.3026249
12	0x3d216ce5	0.03941049
13	0x3c94d038	0.018165693
14	0x3e548b22	0.207562
15	0xbe9eeb97	-0.31039116
16	0xbd81e4b1	-0.063424475
17	0x3e12ad8f	0.1432402
18	0xbeb70d7d	-0.35752478
19	0x3b496059	0.0030727594
20	0x3e02b0e8	0.12762797
21	0xbc5c78b5	-0.013456513
22	0x3e56d142	0.20978263
23	0x3e2f7dc3	0.17137818
24	0xbebaba79	-0.36470392
25	0xbdf3def5	-0.1190776
26	0xbca15671	-0.019694539
27	0x3e0a0abc	0.13480657
28	0x3e1ce221	0.15320636
29	0xbe9ba436	-0.3039872
30	0xbeadbe88	-0.33934426
31	0x3cd75795	0.02628688

const_fold_opt__22 f4 [32, 32]
0	0xbd554924	-0.052071705
1	0xbd81b40e	-0.06333171
2	0x3e0d046c	0.13771218
3	0x3da6102f	0.081085555
4	0x3cbf7ecc	0.023375891
5	0xbe16029c	-0.14649433
6	0xbd965218	-0.07339877
7	0x3c064563	0.008195254
8	0xbded1d54	-0.115778595
9	0x3dd4c304	0.10388759
10	0x3e0ea831	0.13931347
11	0xbe03842b	-0.12843387
12	0xbdba45bf	-0.09095334
13	0x3daf68dd	0.08564923
14	0x3d2dc420	0.042423368
15	0x3db59a4b	0.0886732
16	0xbe02d0f8	-0.12775028
17	0x3e04bd7c	0.12962908
18	0xbd9e3de9	-0.07726652
19	0x3d8a4b74	0.06752673
20	0x3e06ee00	0.13176727
21	0xbe2ebff1	-0.17065407
22	0x3e44cc40	0.1921854
23	0xbd91c36c	-0.07117352
24	0x3e53f1fb	0.20697777
25	0x3d30117f	0.042985436
26	0xbb45f71e	-0.0030207108
27	0x3da62693	0.08112826
28	0x3dc83149	0.097750254
29	0x3deb7766	0.11497383
30	0x3d9dab96	0.07698743
31	0xbcea40eb	-0.028595408
32	0x3d9f39fc	0.077747315
33	0x3e2a969e	0.16659018
34	0x3e0c3289	0.13691153
35	0xbdb97d9f	-0.090571634
36	0xbd8b37f3	-0.06797781
37	0x3cb04300	0.021516323
38	0xbdbb7765	-0.09153632
39	0xbe252ed8	-0.1613115
40	0xbe144fa5	-0.14483507
41	0x3d4a93f1	0.049457494
42	0x3dd123da	0.10211916
43	0xbe172d71	-0.14763428
44	0x3cb9c883	0.02267862
45	0x3e2df6c0	0.16988659
46	0xbdeb9565	-0.11503104
47	0xbe15fe58	-0.14647806
48	0xbdc28e7f	-0.09499835
49	0x3deb388f	0.11485397
50	0x3d5d52c2	0.054034002
51	0x3d01b289	0.031664405
52	0xbe2da0dc	-0.16955894
53	0xbc34921c	-0.011021163
54	0xbe00a621	-0.12563373
55	0x3d732729	0.059363518
56	0xbdee755a	-0.11643477
57	0x3e0ba988	0.1363889
58	0x3d7d0104	0.061768547
59	0x3e254535	0.16139682
60	0xbdc0bcc6	-0.09411006
61	0xbe205ae4	-0.15659672
62	0x3e2947ce	0.16531298
63	0x3df181ff	0.11792373
64	0x3c2d6492	0.01058306
65	0xba375e67	-0.0006994963
66	0x3d8621fe	0.06549452
67	0x3dde4d70	0.10854614
68	0x3df301ec	0.11865601
69	0x3c7f1f05	0.0155713605
70	0x3db80533	0.08985367
71	0x3db1c63f	0.086803906
72	0x3cec9638	0.028880224
73	0xbe1de3af	-0.15418886
74	0xbe0b4237	-0.13599478
75	0x3cd11c04	0.025526054
76	0x3cb2aecc	0.021811865
77	0xbd774a7e	-0.060373776
78	0x3e4e5046	0.2014781
79	0x3df566e3	0.11982515
80	0xbd2f562e	-0.042806797
81	0x3e15cc4c	0.14628714
82	0x3d0eb0e9	0.034836683
83	0xbd413bd1	-0.047176186
84	0x3de3f5b2	0.11130847
85	0x3e12debe	0.14342782
86	0x3e4b7acd	0.19871064
87	0xbdeacc60	-0.11464763
88	0xbe5325b1	-0.20619847
89	0xbd8b3a4c	-0.067982286
90	0xbd9e56c7	-0.07731395
91	0xbd197659	-0.03746638
92	0x3db7eaae	0.089803085
93	0xbe2d5356	-0.16926321
94	0xbd7352d2	-0.059405155
95	0xbdc4c112	-0.09607138
96	0x3e18f631	0.14937665
97	0xbd2a91a9	-0.04164282
98	0xbd943e72	-0.07238473
99	0x3e0c4f70	0.13702178
100	0xbcd68e96	-0.026191037
101	0x3ce11db3	0.027479982
102	0x3dac2a19	0.08406467
103	0xbd5f0975	-0.05445238
104	0xbd2f68bb	-0.042824488
105	0xbe180595	-0.1484588
106	0xbe15a894	-0.14615089
107	0xbe2b2d98	-0.16716611
108	0xbdfbfbd8	-0.12303895
109	0xbe0f0480	-0.1396656
110	0xbe2b713f	-0.16742419
111	0x3d4acb90	0.04951054
112	0x3d1c96a6	0.038229607
113	0xbe265bf7	-0.1624602
114	0xbd9569f2	-0.07295598
115	0xbc88ea9d	-0.016713435
116	0x3e1f478e	0.1555464
117	0xbd69812a	-0.057007946
118	0xbdbd290d	-0.092363454
119	0xbd0af0f3	-0.033921193
120	0xbc5a90af	-0.013340159
121	0x3dcef068	0.101044476
122	0xbe1c79e9	-0.1528088
123	0x3de030b9	0.10946793
124	0xbdf647bb	-0.120254
125	0xbe183744	-0.14864832
126	0xbd83aaeb	-0.064290844
127	0xbdb686d2	-0.08912434
128	0x3e01b405	0.12666328
129	0x3a007978	0.0004900913
130	0xbe1f000e	-0.15527365
131	0x3d31129e	0.043230645
132	0xbd5dd54a	-0.054158486
133	0xbb8b904c	-0.004259145
134	0x3e1c5c78	0.15269649
135	0x3d1e126f	0.0385918
136	0x3deae972	0.114703074
137	0xbdd85328	-0.10562736
138	0xbe1e5cab	-0.15465038
139	0xbdc453a8	-0.09586269
140	0x3df79c48	0.12090355
141	0xbd7c6f74	-0.061629727
142	0xbd7ead54	-0.062177017
143	0xbe0c6446	-0.13710126
144	0x3d96f861	0.07371593
145	0x3ded9f40	0.1160264
146	0xbe2b2567	-0.16713487
147	0xbdf382c0	-0.11890173
148	0x3e212226	0.15735683
149	0x3e2c410f	0.16821693
150	0xbd3421b8	-0.04397747
151	0x3e1c09ee	0.15238163
152	0x3d095498	0.03352794
153	0xbdee5467	-0.11637192
154	0x3e2360be	0.15954873
155	0xbe33ec19	-0.17570533
156	0xbdc28aae	-0.09499107
157	0xbcbdbf7e	-0.0231626
158	0x3d91d964	0.07121542
159	0xbde12178	-0.10992712
160	0x3d8e1c38	0.06938976
161	0x3d8d77d9	0.06907625
162	0x3e4a2c48	0.19743454
163	0xbca64f49	-0.020301478
164	0xbd7cdae2	-0.06173218
165	0xbd390896	-0.045174204
166	0xbdb4962d	-0.08817706
167	0x3d5b3353	0.053515743
168	0xbd27f0ef	-0.041001257
169	0xbdffc8f7	-0.12489503
170	0xbc2c723b	-0.010525282
171	0x3d0bec50	0.034160912
172	0x3d1ff241	0.03904939
173	0x3c30e0b4	0.010795761
174	0x3d533fff	0.051574703
175	0x3e389440	0.18025303
176	0xba6da4f1	-0.00090654107
177	0xbcbaaeac	-0.022788368
178	0x3db687e4	0.08912638
179	0xbdda906c	-0.106720775
180	0x3d5f08a8	0.054451615
181	0x3e0ae61b	0.13564341
182	0xbe13849b	-0.14406054
183	0xbd0f824c	-0.03503637
184	0x3dbb34e1	0.09140945
185	0x3e3260b8	0.17419708
186	0xbd9b2d08	-0.075769484
187	0x3d109dde	0.035306804
188	0x3d20dd3e	0.039273493
189	0x3dbf48b0	0.09340036
190	0x3e04561a	0.1292347
191	0x3de0619d	0.10956118
192	0x3d147a19	0.036249254
193	0xbdecaa91	-0.115559705
194	0xbe384cd6	-0.1799806
195	0x3e03c34a	0.12867466
196	0xbd479e79	-0.048735116
197	0x3e28d327	0.16486798
198	0x3c9fbb18	0.019498393
199	0x3c17cdd8	0.009265386
200	0x3de15bdc	0.11003849
201	0xbe1fdee9	-0.15612377
202	0x3dfe2e1e	0.1241114
203	0x3d8082cf	0.0627495
204	0x3e3b8ec3	0.18316178
205	0x3d9b02f9	0.07568926
206	0x3d283da2	0.041074403
207	0xbdd85047	-0.10562187
208	0xbcad78e1	-0.021175804
209	0x3d987205	0.074436225
210	0xbd9fc697	-0.0780155
211	0xbc08697d	-0.008325932
212	0xbd201855	-0.039085705
213	0x3da6e808	0.08149725
214	0x3def21be	0.11676358
215	0x3d5ec66a	0.05438844
216	0xbdecff09	-0.115720816
217	0x3d51b8b3	0.051201534
218	0x3ca0a91d	0.01961189
219	0xbdf9d91d	-0.12199614
220	0x3c096c41	0.008387626
221	0x3cbbca44	0.022923596
222	0x3dc2de1b	0.095150195
223	0xbdb676e9	-0.08909399
224	0x3d9db45d	0.07700417
225	0xbe2dcf56	-0.16973624
226	0xbd1a980d	-0.037742663
227	0x3d2bb2f2	0.041918702
228	0x3e0079a1	0.12546398
229	0x3da5fbee	0.081046924
230	0xbe16fa85	-0.14744003
231	0xbce58205	-0.0280161
232	0xbe099bfd	-0.13438411
233	0x3da70087	0.081543975
234	0x3d84c8b8	0.064835966
235	0x3b6a44e5	0.003574663
236	0xbd8d4f7f	-0.06899928
237	0xbda7590d	-0.08171282
238	0x3dd156c9	0.10221631
239	0xbdf32b98	-0.11873549
240	0x3e15c9e8	0.14627802
241	0x3dcf1491	0.101113446
242	0xbe0541af	-0.13013338
243	0x3e019c07	0.12657176
244	0xbd3f46dd	-0.04669844
245	0x3c157f0c	0.009124529
246	0xbd59e169	-0.053193484
247	0x3cb07608	0.021540657
248	0x3e021d2d	0.12706442
249	0x3d6d9403	0.058002483
250	0xbc8fda41	-0.017560126
251	0xbe2049be	-0.1565313
252	0xbccfd5cc	-0.025370501
253	0x3dd23e43	0.10265782
254	0x3e198bdd	0.1499476
255	0xbd81bae9	-0.063344784

const_fold_opt__20 f4 [1536, 32]
0	0xb91d5432	-0.00015004052
1	0xbc4f68f3	-0.012659299
2	0x3be3b84b	0.0069494597
3	0x3ca1c940	0.019749284
4	0x3b8e641d	0.0043454305
5	0x3c7c05a2	0.015382202
6	0x3cc7f7e6	0.0244102
7	0x3c726dde	0.014796702
8	0xbc76b968	-0.015058853
9	0x3c9cd4da	0.019144464
10	0x3b855e32	0.004070067
11	0x3c938691	0.018008502
12	0xbc729be5	-0.014807676
13	0x3c95f3c8	0.01830472
14	0xbc1fc0a7	-0.009750522
15	0xbb4b568b	-0.0031026925
16	0x3a23ec79	0.0006253194
17	0xbb96facb	-0.0046075336
18	0xbb2d204d	-0.0026416958
19	0xbc41595f	-0.011801093
20	0x3ca28b11	0.019841703
21	0x3c5b41ea	0.013382414
22	0x3c5d7e56	0.01351889
23	0x3b3ee70b	0.0029129412
24	0x3a28c9df	0.00064387725
25	0x3caf9665	0.021434018
26	0xbc446aec	-0.011988383
27	0x3c1b2954	0.009470303
28	0xba888c12	-0.0010417721
29	0x3c8e93e7	0.01740451
30	0x3c2052b1	0.00978534
31	0xbc05073a	-0.008119399
32	0x3c0db6e3	0.008649561
33	0xbb9c431f	-0.0047687436
34	0xbc6f44ee	-0.014603836
35	0xbc13685a	-0.008997047
36	0xbc775bd6	-0.015097579
37	0x3cb092fd	0.021554464
38	0xbbec37b6	-0.0072087897
39	0x3af01e02	0.001831949
40	0xba230b6a	-0.00062196574
41	0x3c97fe27	0.018553806
42	0x3b892587	0.004185382
43	0x3ca1745a	0.019708801
44	0x3b97c911	0.0046321233
45	0xbc9950d3	-0.018715298
46	0x3c719211	0.014744298
47	0x3c592656	0.013253769
48	0xbb21338e	-0.002459738
49	0xbc5cb8a8	-0.01347176
50	0xbc62a8f9	-0.0138342315
51	0xbbbd32fa	-0.005773899
52	0x3c93b4fa	0.018030632
53	0xbc8c1d18	-0.017103717
54	0x3cc421ec	0.023941956
55	0x3ba7741f	0.0051102783
56	0x3cac3f95	0.021026412
57	0x3ca0a8ea	0.019611795
58	0x3bee1b6e	0.0072664535
59	0xbbc3eb31	-0.0059789647
60	0x3be04af7	0.006844874
61	0x3bb1ec9d	0.005429818
62	0x3aa9e114	0.0012960755
63	0x3c57ce41	0.013171733
64	0x3ce4273a	0.027850736
65	0x3d488f62	0.048964866
66	0x3d0b8008	0.034057647
67	0x3bd54346	0.0065082638
68	0x3d16e95c	0.036843643
69	0xbd1c6f79	-0.038192246
70	0x3bc7f0d9	0.0061017093
71	0x3ce551cd	0.027993107
72	0xbc9a31bf	-0.018822549
73	0x3b6b7419	0.0035927354
74	0xbc8dc7c4	-0.01730717
75	0x3bb10015	0.005401621
76	0x3c6487e7	0.013948417
77	0x3b6d3d6a	0.0036199936
78	0x3c91dcb6	0.017805438
79	0x3cbe3678	0.023219332
80	0x3a7553b1	0.00093584793
81	0x3ccd83b8	0.025087222
82	0x3bb332f3	0.00546872
83	0x3d0c59e6	0.03426542
84	0x3c9c20eb	0.019058665
85	0x3d236026	0.039886616
86	0x3be010dd	0.0068379478
87	0xbccbc7e0	-0.024875581
88	0x3d093e1e	0.033506505
89	0x38815d5c	6.168589e-05
90	0x3d1b681f	0.037941094
91	0x3d51a939	0.051186774
92	0xbc0442a7	-0.008072532
93	0x3d15fccf	0.03661805
94	0x3c7db0a0	0.015484005
95	0xbce592cd	-0.028024102
96	0x3d08bfea	0.03338615
97	0xbc8380ba	-0.016052593
98	0xbce5c600	-0.028048515
99	0x3c57ae76	0.013164153
100	0xbb275cd0	-0.0025537498
101	0x3bdf6dfe	0.006818532
102	0xbd0ab8c1	-0.0338676
103	0xbd0b185d	-0.03395878
104	0xbaa25c09	-0.0012387048
105	0x3c482f25	0.012218271
106	0x3c32e635	0.010919143
107	0xbb0fdd1f	-0.0021951867
108	0xbb84ddab	-0.004054745
109	0xbca7f8fb	-0.020504465
110	0xbbececb9	-0.007230368
111	0xbc0b2d07	-0.008494622
112	0x3c0d6a23	0.008631262
113	0xbbeecc57	-0.007287543
114	0xbaed0aaa	-0.0018084843
115	0x3d109dea	0.03530685
116	0xbc849966	-0.016186427
117	0xbcda3e56	-0.026641052
118	0xbccf85ca	-0.02533235
119	0xbac6b7f0	-0.0015161019
120	0xba2492c3	-0.0006277973
121	0x3bac4ab3	0.0052579283
122	0xbcde56b1	-0.027140947
123	0xbc570b21	-0.013125212
124	0x3c2cd74d	0.010549379
125	0x3a2fa5ac	0.0006700407
126	0x3bec2ab0	0.007207237
127	0xbc90ce7a	-0.01767658
128	0xbbc78112	-0.0060883844
129	0x3c9e0230	0.019288152
130	0x3c19a8ea	0.009378651
131	0x3c1bfca3	0.0095206825
132	0x3cd8dacd	0.02647152
133	0x3bc78353	0.006088653
134	0xbb884391	-0.004158445
135	0xba9e5381	-0.001207933
136	0xbb7dff19	-0.0038756786
137	0x3ca30896	0.019901555
138	0xbc29c594	-0.010362048
139	0xbc44db00	-0.012015104
140	0xbc298834	-0.010347415
141	0x3c8d0fce	0.01721945
142	0x3cdc464b	0.026888987
143	0x3b1da389	0.0024053773
144	0x3b66b687	0.003520401
145	0xbc580d1a	-0.013186717
146	0x3cbcf2c4	0.023064978
147	0x3c9f10a3	0.019417113
148	0x3b80fed5	0.0039366283
149	0xbb7d5c38	-0.0038659703
150	0xbc661b6b	-0.014044623
151	0xba792a27	-0.00095048774
152	0x3cbe6fea	0.023246724
153	0x3bf4cf5a	0.0074710073
154	0xbb724d35	-0.0036972289
155	0x3b8d9501	0.004320741
156	0xbc8108c4	-0.01575125
157	0x3c8bef77	0.01708196
158	0x3c87eaf6	0.01659153
159	0xbba00e02	-0.0048844824
160	0xbac1eb5f	-0.0014794877
161	0x3a9f6d60	0.0012163334
162	0xbcd273d3	-0.025689995
163	0x3c8a1b4a	0.016858716
164	0x3bb85f75	0.0056266137
165	0x3cf9c274	0.03048823
166	0x3c0a5ef1	0.008445487
167	0x3c017442	0.007901253
168	0x3cae4329	0.021272259
169	0xbcb5f711	-0.022212537
170	0xbc8492d9	-0.016183304
171	0x3c319c86	0.010840541
172	0xbc9205ce	-0.017825034
173	0x3c55182d	0.013006252
174	0xbbffa70d	-0.0078018964
175	0xbc48f378	-0.012265079
176	0xbc46d8db	-0.012136663
177	0x3c0561d7	0.008141003
178	0x3bd31417	0.006441604
179	0xbbda0a80	-0.0066540837
180	0xbce76ac6	-0.028249156
181	0x3c3612de	0.011112897
182	0xbba2502e	-0.004953406
183	0x3c37425f	0.011185258
184	0xbc81c85d	-0.015842611
185	0x3b0c9185	0.002144904
186	0xbbcf52aa	-0.006326993
187	0xbcc7b3cb	-0.024377724
188	0x3b70f67a	0.0036768005
189	0xbb802ca7	-0.003911573
190	0xbcac54f5	-0.021036604
191	0xbb9ed620	-0.004847303
192	0xbb3a20bc	-0.002840086
193	0x3c73353c	0.014844235
194	0x3ca52b9b	0.020162394
195	0x3c7f4cc0	0.0155822635
196	0xbc2668c7	-0.010156817
197	0xbcecd014	-0.028907813
198	0x3c254b5e	0.01008877
199	0x3cd36ec5	0.025809655
200	0xbbb1f409	-0.0054307026
201	0xbc48c117	-0.012253067
202	0xbcee958e	-0.029124048
203	0x3a94df22	0.0011358003
204	0xbc238f96	-0.009982964
205	0x3ce44996	0.02786712
206	0xbc6852ae	-0.014179869
207	0x3d0dafd4	0.03459151
208	0xbc057704	-0.008146051
209	0x3ccd513a	0.025063146
210	0xbbdc38ca	-0.006720637
211	0x3c5f4f1e	0.013629703
212	0x3b1bc759	0.0023769944
213	0x3ce2d905	0.027691374
214	0xbb28949a	-0.002572334
215	0xbbe5cf33	-0.0070132255
216	0x3c26e550	0.010186508
217	0x3be31344	0.006929787
218	0x3babfb2e	0.005248449
219	0xbba03421	-0.0048890267
220	0xbd1acdf9	-0.037794087
221	0x3cca634c	0.024705552
222	0x3ca3c0b6	0.019989353
223	0x3b5c261e	0.0033592056
224	0xbcaa9e14	-0.02082733
225	0xbd0b5043	-0.03401209
226	0xbc33a65c	-0.010964956
227	0x3c2aec2e	0.010432286
228	0x3bb91da6	0.0056492863
229	0x3b1b68d1	0.0023713598
230	0xbb294a88	-0.0025831778
231	0x3c90beae	0.017669048
232	0x3c1a1dd8	0.009406529
233	0xbd1d23a1	-0.038364056
234	0x3ca2ae21	0.019858422
235	0x3ad14d2f	0.0015968437
236	0xbd05bf6d	-0.03265326
237	0xbb676af5	-0.0035311554
238	0x39a59ca5	0.00031587962
239	0xbd13298b	-0.03592829
240	0xbc081a24	-0.008307014
241	0xbbc3018f	-0.0059511135
242	0xbce4ab58	-0.027913734
243	0xbc6945c1	-0.014237822
244	0xbc4c611e	-0.012474326
245	0xbc657621	-0.014005215
246	0xbcbb63ad	-0.022874678
247	0x39982645	0.00029020212
248	0xbce6eafc	-0.028188221
249	0x3cd1440e	0.025545146
250	0xbd1fdd36	-0.039029323
251	0xbd33f857	-0.043938007
252	0xbbdbe319	-0.0067104218
253	0xbc394dc4	-0.011310045
254	0x3ac98eeb	0.0015377676
255	0x3c0e810d	0.00869776

Const_7 f4 [32]
0	0x3e761982	0.24033168
1	0x3ca5d5f7	0.020243628
2	0x3e8cd713	0.2750784
3	0x3d227cfc	0.039669976
4	0x3cee6dbb	0.029105058
5	0x3c2ab7a3	0.010419759
6	0x3d0fba67	0.035089877
7	0xbc17c615	-0.009263535
8	0x3d210415	0.039310534
9	0xbd141333	-0.036151122
10	0x3d5c3fb9	0.05377171
11	0x3eacc0c2	0.33740813
12	0x3d2c5cb7	0.042080607
13	0x3ca9bdf7	0.020720465
14	0x3d8bb10d	0.06820879
15	0x3e8e615a	0.27808648
16	0xba307d7c	-0.0006732566
17	0x3c353ab6	0.011061361
18	0x3e802283	0.2502633
19	0xbb1e8ac0	-0.0024191588
20	0x3c851aa7	0.01624806
21	0x3d0f186f	0.03493541
22	0x3d528083	0.05139209
23	0x3cbb7982	0.022885088
24	0x3ebc2e40	0.36754036
25	0x3a0d8cef	0.0005399724
26	0x3cbad429	0.022806244
27	0x3d2054be	0.039143316
28	0x3d6aefcf	0.057357606
29	0x3e8e1e73	0.27757606
30	0x3ea8afd1	0.32946637
31	0x3c6e0b6c	0.01452909

Const_6 f4 [32]
0	0x3f99ae91	1.2006398
1	0x3f86b230	1.0523129
2	0x3fa3bf65	1.2792784
3	0x3f84d860	1.0378532
4	0x3f85e6a1	1.0461007
5	0x3f7ffb4a	0.9999281
6	0x3f85a616	1.044131
7	0x3f79b2f1	0.9753867
8	0x3f872ee0	1.056118
9	0x3f779fd3	0.9672825
10	0x3f8a365f	1.0797843
11	0x3fb3faf3	1.4060959
12	0x3f869d72	1.0516798
13	0x3f836e8f	1.0268115
14	0x3f88d326	1.0689437
15	0x3fa4863a	1.2853463
16	0x3f8004a8	1.0001421
17	0x3f815c61	1.0106317
18	0x3f9df9d4	1.2341866
19	0x3f802bd0	1.001337
20	0x3f83f4ba	1.030906
21	0x3f81b215	1.0132471
22	0x3f8c8346	1.0977561
23	0x3f832a4d	1.0247284
24	0x3fbc04ec	1.4689002
25	0x3f801342	1.0005877
26	0x3f81345b	1.0094103
27	0x3f859fe4	1.043942
28	0x3f920cb3	1.1410125
29	0x3fa408f4	1.2815232
30	0x3fb2ecf4	1.3978562
31	0x3f82639f	1.0186652

Const_5 f4 [32]
0	0x3dd1844f	0.10230314
1	0x3ddf5052	0.10903992
2	0x39b5ee5b	0.000347006
3	0xbe24038c	-0.16016978
4	0x3dde51c7	0.108554415
5	0xbd9f824f	-0.07788526
6	0xbdb990c4	-0.09060815
7	0xbca881ac	-0.020569645
8	0xbd163e99	-0.03668079
9	0xbcc2af42	-0.02376521
10	0x39b89fe3	0.0003521434
11	0x3def22be	0.116765484
12	0x3e4487bd	0.19192405
13	0x3d8bb505	0.06821636
14	0xbd53eefd	-0.05174159
15	0xbd5d8b0b	-0.05408768
16	0xbb1db263	-0.0024062626
17	0x3cc84abc	0.024449699
18	0x3db57d45	0.08861784
19	0x3cd9459d	0.026522452
20	0x3b1979b3	0.0023418486
21	0x3ded4f87	0.11587434
22	0xbd77c2eb	-0.060488623
23	0xbd1175f2	-0.035512872
24	0x3bb190d1	0.005418875
25	0xbdd041e9	-0.10168821
26	0xbe0fa7a9	-0.14028801
27	0x3e1d7460	0.15376425
28	0xbcbe36fc	-0.023219578
29	0xbe19b2ed	-0.15009661
30	0x3d4c1b4c	0.04983072
31	0x3e1fd083	0.15606885

Const_3 f4 [32]
0	0x3d3ffc0a	0.046871223
1	0xbc690c3f	-0.014224111
2	0xbbc9de15	-0.0061605074
3	0xbca9970f	-0.020701913
4	0xbc9f2d10	-0.019430667
5	0x3b7d3c01	0.0038640501
6	0xbad370ae	-0.0016131604
7	0xbc1d8a12	-0.009615438
8	0x3c95f3c0	0.018304706
9	0xbc1d7676	-0.009610763
10	0x3ce9a77d	0.028522247
11	0xbc14c54f	-0.009080245
12	0xbbfc9ec4	-0.007709356
13	0x3c22ea02	0.009943487
14	0xbbedde5a	-0.0072591724
15	0x3bfe2c4d	0.007756746
16	0xbc32e0b3	-0.01091783
17	0xbc75b825	-0.014997517
18	0xbc003dde	-0.00782725
19	0x3cf29d4f	0.029616026
20	0x3bc760ae	0.006084523
21	0xbd1b1606	-0.0378628
22	0x3a22c960	0.0006209817
23	0x3c7297d8	0.01480671
24	0x3bfe2074	0.0077553336
25	0x3afaa2c0	0.001912199
26	0x3b08ec45	0.002089278
27	0xbbb585f2	-0.005539649
28	0x3c02fbc7	0.007994599
29	0xbbe39af3	-0.0069459616
30	0xbc480ec1	-0.012210549
31	0xb9581f75	-0.00020611084

Const_2 f4 [32]
0	0x3f8043a0	1.0020638
1	0x3f7d403e	0.9892615
2	0x3f7fcbca	0.9992033
3	0x3f74dc9c	0.95649123
4	0x3f7ef8a6	0.9959816
5	0x3f827176	1.0190876
6	0x3f806e41	1.0033647
7	0x3f7d3a02	0.9891664
8	0x3f86a91e	1.052036
9	0x3f7a637c	0.9780805
10	0x3f8b49dd	1.0881916
11	0x3f7e23a4	0.99273133
12	0x3f7f07b1	0.9962111
13	0x3f81468e	1.0099657
14	0x3f7b3644	0.9812968
15	0x3f81b3d0	1.0133
16	0x3f7f48fe	0.9972075
17	0x3f7ca993	0.9869625
18	0x3f791d25	0.97310096
19	0x3f834496	1.0255306
20	0x3f828363	1.0196346
21	0x3f791060	0.9729061
22	0x3f80f822	1.0075724
23	0x3f7eb4d0	0.9949465
24	0x3f821ad2	1.0164435
25	0x3f7f0b99	0.9962707
26	0x3f7f1c44	0.99652505
27	0x3f7fd4cb	0.9993407
28	0x3f817dc1	1.0116502
29	0x3f7743e5	0.96587974
30	0x3f7ea472	0.99469674
31	0x3f7d3706	0.98912084

Const_1 f4 [32]
0	0x3c5e1f3d	0.0135572525
1	0xbc5f540e	-0.01363088
2	0x3baa81cc	0.0052034613
3	0xbbf0bbba	-0.0073465975
4	0xbc978440	-0.018495679
5	0x3bb3454d	0.005470908
6	0xbc15359a	-0.009107018
7	0xbc9659ec	-0.018353425
8	0xbb98519c	-0.0046484005
9	0x3cc0bfa1	0.023528876
10	0x3bd951db	0.0066320724
11	0xbc3f8e3c	-0.011691626
12	0x3cbb38c9	0.022854226
13	0xbc607083	-0.0136987
14	0xbbaa3106	-0.0051938323
15	0xbcbd7131	-0.023125263
16	0x3ba0e44a	0.0049100267
17	0x3cad39ff	0.021145819
18	0xbb32d739	-0.0027288927
19	0xba22107e	-0.0006182267
20	0xbca25633	-0.019816494
21	0xbc9660b6	-0.018356662
22	0xbc500082	-0.012695434
23	0xbc15d522	-0.009145053
24	0xbcdd3481	-0.027002575
25	0x3c8f474e	0.017490055
26	0x3cba27ac	0.022723995
27	0x3cb07bf7	0.021543486
28	0xbc58bd83	-0.013228777
29	0xbbb815be	-0.0056178262
30	0x3c82f9ae	0.015988197
31	0x3cfafeda	0.0306391
