en/hey_GERTY/hey_GERTY.tflite (tflite, 206748 bytes, 9 tensors)

Const_1 f4 [32]
000000 a0 0a 2b 3b 22 17 b7 bb 69 f0 a3 3b f6 68 79 3c
       0.0026098862 -0.0055874744 0.0050030244 0.015222779
000010 9e 6b 2b 3c 23 0d bc 3c 72 d2 45 bc dc be a4 3c
       0.01046267 0.022955483 -0.0120741 0.02011054
000020 93 fa 3b bc a2 b6 28 bc 45 fe d4 ba bc 49 93 3c
       -0.011473316 -0.010297449 -0.0016250095 0.017979495
000030 2b 37 41 bc 2b ac 5d 3c 0c 7e 8e bc c3 be 21 3c
       -0.011792938 0.013529818 -0.017394088 0.009872141
000040 06 0e 2a bc e5 d7 e1 3c 62 07 43 3b 3a f7 be 3b
       -0.01037932 0.027568767 0.002975904 0.0058278115
000050 5f 34 45 3c e5 b0 9f bc b3 7a 62 bb 0e db d5 ba
       0.012036412 -0.01949353 -0.0034557998 -0.0016315894
000060 04 d4 03 3d ef 3d fe bb d5 07 4a bb aa 9d 4b bc
       0.032184616 -0.007758848 -0.0030827422 -0.012427727
000070 be ca 14 bc 5f 7e ae ba 9c eb d2 bc f2 d8 5c bc
       -0.009081541 -0.0013312808 -0.025747113 -0.013479458

Const_2 f4 [32]
000000 08 6d 81 3f 38 a3 80 3f 4e f3 7e 3f 32 ae 80 3f
       1.0111399 1.004981 0.99590003 1.005316
000010 46 a1 82 3f cd 38 72 3f 9c 12 89 3f 24 9b 7e 3f
       1.0205467 0.9461792 1.0708804 0.99455476
000020 19 c3 7e 3f 52 5c 83 3f 12 a8 7e 3f a1 18 84 3f
       0.99516445 1.0262549 0.99475205 1.0320016
000030 de 0c 83 3f 46 e0 7f 3f 5e 0d 81 3f d8 63 78 3f
       1.0238302 0.9995159 1.0082204 0.9702735
000040 46 39 80 3f 1e 21 7f 3f 06 02 7d 3f b5 5d 80 3f
       1.0017478 0.9965991 0.9883121 1.0028597
000050 2c 26 80 3f f7 10 7e 3f 75 8d 7b 3f 6c 21 7b 3f
       1.0011649 0.99244636 0.9826272 0.9809787
000060 7a 57 78 3f 70 e4 7d 3f 2d 05 7f 3f 8d 46 80 3f
       0.9700848 0.9917669 0.9961727 1.002153
000070 e2 26 7b 3f 90 6b 82 3f f3 a1 83 3f 9d 44 7e 3f
       0.98106205 1.0189075 1.0283798 0.99323446

Const_3 f4 [32]
000000 36 cf ef 3b aa 86 71 bc 77 2b 69 bc 09 53 97 3b
       0.0073184026 -0.014741579 -0.014231554 0.004618053
000010 d1 ad 88 3c 5c b6 00 3c 56 93 9d 3c 8c f6 94 bc
       0.016684445 0.007855978 0.019235294 -0.018183969
000020 6e 7f 6c bc e0 11 88 ba 89 cc 9f bb 26 49 70 38
       -0.0144346785 -0.0010381304 -0.0048766774 5.7288584e-05
000030 59 ce a0 bb 4a e2 2a bc 27 d1 09 3d f4 5d 46 bc
       -0.004907411 -0.010429928 0.03364673 -0.012107361
000040 ea a4 74 bb a6 61 5b 3a 24 63 97 bc ab 9b 96 3c
       -0.0037329742 0.0008368738 -0.018479891 0.018384775
000050 75 70 14 bc a6 0d 17 bc d5 35 75 bc fb 4c 49 bc
       -0.009060015 -0.009219563 -0.014966448 -0.01228642
000060 c1 54 80 3c de 8a 35 bc 9c d2 ff bb f6 59 4b bb
       0.015665414 -0.011080472 -0.007807089 -0.0031028963
000070 44 c3 ab bc 8e a5 a2 3b 92 06 b8 bb 69 19 c6 bc
       -0.020967133 0.0049635833 -0.0056160176 -0.024182038

Const_5 f4 [32]
000000 19 97 1a 3e 77 26 23 3d 79 39 2c be 22 8a 68 bd
       0.15096702 0.039831605 -0.16818799 -0.05677236
000010 2c a4 e3 3d 22 f5 26 3e ff 2c c0 3a b8 c9 be bd
       0.11115298 0.16304448 0.0014661847 -0.093158185
000020 06 ca 5c bc eb 0f 2e 3e be af c5 bd 19 00 1e be
       -0.0134759005 0.1699826 -0.09652661 -0.15429725
000030 22 b3 e5 ba b3 8d dd bd 20 a0 37 bd ba 32 9d 3d
       -0.0017524699 -0.108180426 -0.04483044 0.07675691
000040 07 c3 82 3d f8 4d db bd fd 31 90 bd 5c 24 f6 3c
       0.06384855 -0.10708231 -0.070407845 0.030046634
000050 2a f3 16 be de 7f 04 be 52 a3 40 3d 81 ab 1e be
       -0.14741197 -0.12939402 0.047030754 -0.15495111
000060 e5 13 15 be 62 8f b0 bc 2d 24 20 bd 19 3e e7 bb
       -0.1455837 -0.021552745 -0.039097 -0.007056963
000070 94 85 ae 3d e6 ac 3b bd 1e 67 66 bd 6b c4 17 3c
       0.08521572 -0.045819186 -0.056250684 0.009263138

Const_6 f4 [32]
000000 d3 c6 8b 3f 5e 6a a1 3f d6 29 86 3f df 47 80 3f
       1.0920051 1.2610586 1.0481517 1.0021933
000010 db f7 7f 3f 6a 3a 82 3f 59 9d b4 3f 87 2f 7f 3f
       0.9998757 1.0174077 1.4110519 0.99681896
000020 4b 14 81 3f ad e2 b2 3f 4e e9 8b 3f eb 2b 88 3f
       1.0084318 1.3975426 1.0930574 1.0638403
000030 72 c0 7f 3f df fa 8e 3f c0 f8 a6 3f ce 80 82 3f
       0.99903023 1.117031 1.3044662 1.0195558
000040 5d 43 83 3f 7a 16 84 3f b4 6d 8b 3f 5d a6 78 3f
       1.0254933 1.0319359 1.0892854 0.9712885
000050 4c 24 87 3f 01 57 a4 3f 83 c8 84 3f e8 9b 88 3f
       1.0557952 1.2839051 1.0373691 1.0672579
000060 ab b4 9c 3f c4 c0 80 3f 97 ae 75 3f 4f a6 97 3f
       1.2242635 1.0058827 0.9596953 1.1847628
000070 38 54 a2 3f 30 b7 84 3f 69 28 83 3f f3 08 9a 3f
       1.2681952 1.0368404 1.0246707 1.2033981

Const_7 f4 [32]
000000 5c f6 71 3d a3 c1 87 3e f3 20 15 3c 05 e0 c7 b9
       0.059072837 0.2651492 0.009102094 -0.00038123145
000010 20 57 5f bb c5 9f c0 3b 8f e4 aa 3e 83 17 a8 bb
       -0.003407903 0.005878421 0.333775 -0.005129756
000020 0b cd 3c 39 14 75 a1 3e 42 98 85 3d cf a8 ab 3c
       0.00018005462 0.31534636 0.065231815 0.020954518
000030 0f 99 c6 bb a7 a0 9c 3d 62 04 8d 3e 93 c6 d7 3b
       -0.0060607265 0.076478295 0.27542406 0.006584951
000040 7a 98 2a 3c 80 c3 21 3d 02 d1 69 3d ca 0f ab bc
       0.01041233 0.039493084 0.05708409 -0.020881552
000050 34 67 0f 3d 32 4d 90 3e 9c d9 ef 3c b2 2b 87 3d
       0.03501053 0.28183895 0.029278569 0.06600131
000060 f3 d5 7c 3e a9 28 48 3c f1 35 0b bd 37 9a 69 3e
       0.2469099 0.012216725 -0.03398699 0.22812735
000070 6a 01 8a 3e 90 23 62 3c 97 de d7 3b 3c ea 72 3e
       0.26954204 0.013802424 0.006587814 0.23722166

MatMul f4 [32, 1536]
000000 0d ed aa 3b 1e e7 e0 3c 85 80 cd 3c f2 c7 10 bc
       0.005216247 0.027453955 0.025085697 -0.008836733
000010 8b 54 8a bc 9e 2e 8f 3c d5 75 db bb 0a 10 a9 3c
       -0.016886016 0.017478283 -0.0066973963 0.02063753
000020 e1 db fe 3c 58 d3 03 3d 77 6c 24 3c 11 3d 96 bb
       0.031110706 0.032183975 0.010035626 -0.0045849164
000030 f7 7d cf 3c 66 f9 3a bc d6 2a b3 bc 98 b8 f6 3c
       0.02532862 -0.011412 -0.021871012 0.030117318
000040 1b cd 6b bb 4d 30 9e bc 9d 15 63 3c 3d e1 c5 bc
       -0.0035980407 -0.019310141 0.0138601335 -0.024155254
000050 af 00 87 bb bf e4 17 bc d6 2a 78 3c 53 38 cd 3c
       -0.0041199545 -0.009270846 0.015146932 0.025051272
000060 ef be ec 39 ce 3b 88 bc 54 3d bc bc 42 30 97 3b
       0.00045155684 -0.01663008 -0.022978462 0.004613907
000070 af 47 be 3a 26 02 47 b9 1a 1a 4f bb 88 31 18 bc
       0.0014517213 -0.00018978919 -0.003160125 -0.009289153
000080 ad 48 1f 3c 6d ef a6 bb f4 76 81 bb 85 88 56 3c
       0.009721917 -0.0050944597 -0.003950948 0.013094072
000090 78 84 1f 3b ac 14 14 3c 08 a5 d3 bc a6 dc 6d bb
       0.0024340432 0.009038132 -0.025835529 -0.0036294847
0000a0 56 a0 1b b6 58 da 25 bc 44 00 37 3b 76 ab 2c bc
       -2.3190128e-06 -0.010122858 0.0027923742 -0.010538926
0000b0 03 6d 47 bc 5a 76 e1 3c 02 40 b7 bc 95 ee 4b bb
       -0.0121719865 0.027522255 -0.022369388 -0.0031117548
0000c0 2c 50 06 3c 8f a4 be bc 6c 95 bb 3c a5 f3 6a bc
       0.008197825 -0.023271827 0.022898398 -0.014340316
0000d0 d5 6a aa 3c c7 23 2f 3c fa 13 d0 3b 22 f2 03 3c
       0.020802895 0.010689682 0.0063500376 0.008053334
0000e0 92 3f 56 bb 88 8a ee 3c 2d d2 f9 bc ba b9 86 3c
       -0.00326917 0.029118791 -0.030495727 0.016445983
0000f0 c5 5d 63 bc 42 b2 b2 3c d6 68 ef bb e7 50 28 bc
       -0.013877337 0.021813516 -0.0073061986 -0.010273195
000100 fb a8 ad bb 3a cc 59 bd 48 4b ff bc 9f 1e 17 bc
       -0.005299685 -0.05317328 -0.031163827 -0.009223609
000110 76 cc 08 bb 0d a5 cf bb 31 88 80 3b ca e3 82 bc
       -0.0020873821 -0.0063368143 0.0039224853 -0.015977759
000120 ef c1 85 bc ea 1a 39 bc 70 ab 2e bb e2 33 a9 bc
       -0.016327826 -0.011297921 -0.0026652478 -0.020654622
000130 5b b8 d8 3b 87 94 cb 3c 5d 25 85 3c 6f e2 20 3b
       0.0066137738 0.024851097 0.016253168 0.0024549027
000140 a1 19 bb 3b 16 a7 0a 3c 57 b1 80 bc 1a 35 5d bb
       0.0057098423 0.008462688 -0.015709562 -0.0033753575
000150 73 5b 9e 3c 69 1a 19 3d 06 a3 5b 3c 7e d6 20 3d
       0.019330716 0.037378702 0.013405567 0.039267056
000160 2b 8b 9a 3c 01 74 d7 3b a7 2f 1b ba 5c f3 e1 3b
       0.018865189 0.006575108 -0.00059198815 0.006895466
000170 6d 5d 53 bc f6 35 5d 3c bc 86 bb bc a3 4c 3f b9
       -0.012900692 0.013501635 -0.022891395 -0.00018243729
000180 ab 97 2c 3b 9b ee f3 3b 52 56 b4 3c 98 4e 88 bc
       0.0026335518 0.0074442155 0.022013817 -0.016639039
000190 00 bc 8d 3c ca 08 c8 3a 2a 65 a1 3c ee 4b 15 bc
       0.01730156 0.0015261408 0.01970156 -0.009112341
0001a0 48 dd ea 3b df b2 f6 ba e8 ba 81 3b d1 85 94 bc
       0.007167492 -0.0018821618 0.0039590485 -0.018130215
0001b0 70 aa 69 3c 8b d4 25 3b d0 ae 15 bc b1 7e b6 3b
       0.014261827 0.0025303687 -0.009135917 0.005569302
0001c0 a8 3c c2 bc fe 44 8c 3b 8a 49 59 3c 2a 43 b6 3b
       -0.023710564 0.0042806854 0.013262162 0.005562206
0001d0 9a c0 2e bd 66 f6 04 3c 59 df 56 bc 68 bb d1 3c
       -0.042664148 0.008115387 -0.013114774 0.025602058
0001e0 5a c4 ad 3b 2b 08 11 bc 45 3b 44 bb e2 20 89 bb
       0.005302948 -0.008852045 -0.0029942554 -0.004184828
0001f0 05 f3 7b bb d7 fd 11 3c 50 12 d7 bc 4d 8a 9e 3c
       -0.0038444411 0.008910618 -0.02625385 0.019353056
000200 43 07 44 bb f0 b4 a4 3b 13 be 03 3a c5 e9 54 3b
       -0.0029911555 0.0050264522 0.00050255767 0.003248797
000210 ff 83 d9 3b 13 3b cb 3c 68 fe 05 bd a3 e0 76 bc
       0.0066380496 0.024808442 -0.032713324 -0.015068206
000220 7c 34 48 3c ad 7a ee 3b 93 aa 9b 3c e8 d2 7a 3c
       0.0122195445 0.0072778077 0.019002235 0.015309073
000230 cd b1 9e bc a9 f5 bc 3b 5c 55 9b 3b a9 0a 63 3c
       -0.019371891 0.0057665897 0.0047404002 0.013857522
000240 cc cf 94 3b 8a 95 7b bc 61 04 a1 3c 31 30 8b 3c
       0.004541373 -0.015355477 0.019655408 0.016990753
000250 8b 02 be bc 3b 30 1b bd b7 67 8a bc c5 c7 bb 3b
       -0.023194572 -0.037887793 -0.016895158 0.0057306015
000260 d5 b1 67 bc 05 86 46 bc ab db 84 3c a2 64 93 3c
       -0.01414152 -0.012116914 0.016218027 0.017992321
000270 30 2a da bc ce cf 9f 3b 38 69 32 bd 83 26 b1 bb
       -0.026631445 0.004877067 -0.043557376 -0.0054062023
000280 d4 0d 05 3c d1 50 58 bb ad 99 ca 3b b1 8b 86 bc
       0.008120973 -0.0033007155 0.0061828704 -0.016424032
000290 53 c3 5e 3b fb 74 ae bc f0 12 1b bd 40 2b 49 3c
       0.0033990934 -0.021296015 -0.037859857 0.012278378
0002a0 49 46 5c bd 00 de 85 bc bf d7 e9 bb 9d 23 18 bd
       -0.053777967 -0.01634121 -0.0071363146 -0.03714334
0002b0 de f8 f0 3b 7d bc c5 bc 9b 17 bf bc bf 82 3e bc
       0.007353886 -0.02413773 -0.023326686 -0.011627852
0002c0 74 46 9b 3c c7 47 03 bc b8 03 dc bb f4 f7 8d bc
       0.018954493 -0.0080127185 -0.0067143105 -0.017330147
0002d0 5e 77 bc 3c f6 1f 2f 3c 7b 7a 79 bb bc da ea ba
       0.023006137 0.010688772 -0.0038067389 -0.0017917971
0002e0 c8 22 05 3d 3a 24 80 bc 03 45 c1 3a c8 3c 0f 3c
       0.032503873 -0.015642274 0.0014745299 0.008742519
0002f0 cc fe 43 bc 40 ad 9a bc c7 2d bc bc 0f 47 9b 3c
       -0.011962604 -0.01888144 -0.022971047 0.018954782
000300 3c 9a 10 bc 85 ed 8c b9 08 82 2b 3a 26 f1 0a bc
       -0.008825835 -0.00026879847 0.00065425085 -0.008480346
000310 d8 72 08 3c ea 05 92 3c b5 71 79 3c d3 bc 82 3b
       0.008328162 0.017825086 0.015224864 0.0039897948
000320 42 e9 3d 3c 61 df 7c 3c 63 c4 e4 ba 44 b8 a9 bc
       0.0115912575 0.015434117 -0.0017453547 -0.020717748
000330 01 21 83 3c 4b 62 e4 bc 22 b7 d2 bb 54 be 0d 3d
       0.016006948 -0.027878901 -0.0064305225 0.03460534
000340 b2 41 33 3b ed 24 fd b9 da 5b 8f 3b c0 8d 90 bc
       0.002735239 -0.00048283432 0.004374963 -0.017645717
000350 9a 77 3f bd 15 dc 4d 3c 6c 34 95 bc a5 78 e5 bc
       -0.04674492 0.012564679 -0.018213473 -0.02801163
000360 8c 3d 37 bb a4 fa 27 bc 95 1b 9f bc 66 23 ee 3c
       -0.0027960269 -0.0102526285 -0.019422332 0.029069614
000370 99 e2 b8 3b 50 c0 0b 3d c6 26 f1 bc ca 6d 5c bc
       0.005642247 0.03411895 -0.029437434 -0.01345391
000380 ce de 8d bc 7b f9 36 bc 32 4d 87 3c 90 3d 22 3c
       -0.017318156 -0.011167879 0.016516302 0.009902373
000390 d2 7e 43 3c bc 6d 5a b9 10 23 71 3c 6b 1c ad 3c
       0.011932092 -0.0002083098 0.014717832 0.021131715
0003a0 67 4f 3c bc 13 9b d0 3b c2 52 de 3c 64 36 cc ba
       -0.01149354 0.0063661425 0.027139071 -0.0015580175
0003b0 aa 84 e2 bc 2f 96 b3 3a c5 6d bd bb 3e 5f 20 3d
       -0.02765115 0.0013701374 -0.005780908 0.03915333
0003c0 e7 fb a7 3c d4 6f ea bc e6 34 9c 3b a7 b5 bc bb
       0.020505859 -0.028617777 0.004767048 -0.0057589593
0003d0 11 7e 7b 3c 40 1d 15 bc d8 6c 84 bc 37 d8 73 3c
       0.015349881 -0.009101212 -0.016165182 0.014883093
0003e0 a2 81 7c bb 4c 09 7f 3b f9 84 c5 bc 2a 91 5d bc
       -0.0038529416 0.0038915453 -0.024111258 -0.013523379
0003f0 e4 27 19 3c 51 50 0c 3c 69 38 0f bc 00 f9 b1 b9
       0.00934789 0.008564071 -0.008741477 -0.0003394559

MatMul_1 f4 [32, 32]
000000 c6 24 63 bc c0 b9 e7 bb 4e 3b f1 bd a3 14 20 be
       -0.013863748 -0.0070717037 -0.117788896 -0.15632872
000010 c7 56 1e be 27 45 1f be ba 89 01 be 13 e1 93 bd
       -0.1546279 -0.15553723 -0.12650195 -0.07220664
000020 a4 b2 b1 bd 2b e4 30 bc 4e 18 86 bd f4 05 3e 3e
       -0.08676651 -0.010796587 -0.065476045 0.18556958
000030 e1 98 e6 3d 19 c4 8f bc 06 1f 02 3e 63 d1 87 bd
       0.11259628 -0.017549561 0.12707147 -0.06631734
000040 9c d7 96 3d a9 0f 63 bc db cf 5b bd d3 8e 21 3e
       0.07365343 -0.013858714 -0.053665023 0.1577714
000050 72 5e 8a 3c ab 36 2c be e1 02 d6 bd f3 4a 30 3e
       0.016890738 -0.16817729 -0.10449768 0.17216091
000060 7c 13 90 bd c1 f1 b2 3d 47 96 1e be b3 6b 59 bc
       -0.07034966 0.08737517 -0.15487014 -0.013270306
000070 18 22 d2 3d 81 1c eb 3d d5 39 ea 3d f3 5c 11 3e
       0.10260409 0.11480046 0.11436812 0.14195614
000080 7c 67 2b be db ac 09 be b5 8e 08 be ee 5f f1 3c
       -0.16738695 -0.13444845 -0.13335688 0.029464688
000090 1b aa 07 be cc 60 23 3e df 59 14 3e ed 37 1b 3e
       -0.13248484 0.15954894 0.14487408 0.15158053
0000a0 99 cd 11 bd 9a 8f d9 bd 7a 84 15 3e 5b f2 b7 bb
       -0.035596464 -0.10623093 0.14601317 -0.005613608
0000b0 da db f2 bd 14 04 5e bd 28 a7 88 bd 8d e3 a1 3d
       -0.118583396 -0.054203108 -0.066725075 0.0790473
0000c0 75 ca 19 3c c5 86 25 3e a3 9e 0c 3e 22 97 da 3d
       0.009386648 0.16164692 0.1373239 0.106733575
0000d0 c4 22 9c bd d0 b2 a1 3d b0 c3 92 3d 40 df 2d 3e
       -0.076238185 0.07895434 0.07166231 0.16979694
0000e0 cc 65 09 3d 16 59 46 3a e8 1b 2f be 4c 76 da bd
       0.033544347 0.00075663754 -0.17100489 -0.106670946
0000f0 74 31 d4 3d eb f6 91 bc 03 70 a6 3d 7c 94 76 bd
       0.10360995 -0.017817935 0.08126833 -0.0602002
000100 09 06 db bd d5 60 28 3e 80 50 18 3e af 22 09 3e
       -0.106945105 0.16443188 0.14874458 0.13392137
000110 11 a2 a7 bd 3b 21 d3 bc 8e 7f 39 3d d1 9a bd bd
       -0.081852086 -0.025772681 0.04528766 -0.092580445
000120 51 dd 2a 3e 22 f4 bc 3d a1 a1 20 be a3 54 c5 3d
       0.16685988 0.09226252 -0.15686657 0.09635284
000130 55 5d ec bd b0 0a 45 3c 91 26 86 3d a5 6c 74 3d
       -0.11541239 0.012026474 0.06550325 0.059673924
000140 82 3f 2f bc 1f 67 a5 bd 6c 81 9a bd c4 f6 1a be
       -0.010696294 -0.080763094 -0.075442165 -0.15133196
000150 47 2d ce 3d aa fa 80 3c 8f 46 2b be 70 04 25 be
       0.1006723 0.015744526 -0.16726135 -0.16114974
000160 7e f5 38 3c 2a 22 9f 3d b4 e5 0e 3e dd fa be 3d
       0.011288999 0.07770188 0.13954812 0.09325192
000170 f3 05 21 3e 54 df 80 bd 30 e1 01 3e c2 67 e2 bc
       0.15724926 -0.062925965 0.12683558 -0.027637366
000180 28 21 a9 3d 54 45 11 3e 95 8e f2 bd e6 7b 43 bc
       0.08258277 0.14186603 -0.118436016 -0.011931395
000190 93 66 13 3e ba 53 fb bc 57 bc 6a 3d 09 28 2c 3e
       0.14394598 -0.030679572 0.05730852 0.16812147
0001a0 7f d6 0d 3e 83 0a 2c 3d b7 c8 10 3c c4 58 f4 3d
       0.13851355 0.042002212 0.008836917 0.11930993
0001b0 e2 aa 4e 3d 0b 85 69 3d fd e0 21 bd ac 37 b6 3d
       0.050455935 0.057011645 -0.039521206 0.08897337
0001c0 dd ea 77 3d e1 0f 08 be a9 5f 33 3d f1 78 2d be
       0.060526717 -0.13287307 0.0437924 -0.16940667
0001d0 e8 6a 23 bc 2a 33 c6 bd 0a 08 a5 3c 30 eb 11 3e
       -0.009974219 -0.096777275 0.020145435 0.14249873
0001e0 89 d6 2f be 53 cd 3b 3e dc 31 90 bc 0b c2 af 3d
       -0.17171682 0.18340044 -0.0176019 0.08581933
0001f0 b1 2f 4c bd d8 31 c4 bd 24 ca 1c be 38 09 45 ba
       -0.04985017 -0.095798194 -0.15311486 -0.00075163273
000200 7d d4 cf bd af 2d f9 3d 4f 26 1d bd 8f 48 b1 3d
       -0.10147951 0.121669166 -0.038366612 0.086564176
000210 0a 55 46 be 77 28 27 be 51 22 89 3c a7 4a 2d 3e
       -0.19368377 -0.1632403 0.016739996 0.16923009
000220 5a 1c b2 bd e8 fa f3 bd 4b d2 b9 bd 62 5d 79 bd
       -0.08696814 -0.11913091 -0.09073313 -0.060880072
000230 a1 2c 00 3e 1a 82 15 3e 68 2c 89 bc 9c c1 92 bd
       0.12517025 0.14600411 -0.016744807 -0.07165834
000240 c0 ee 18 3e 05 6d b7 3d 09 1f 67 3d a3 09 59 bd
       0.14934826 0.08956341 0.05642608 -0.052987706
000250 22 11 38 3b 75 78 33 be 34 39 cd 3d c2 77 fd 3b
       0.0028086384 -0.1752642 0.10020676 0.0077352235
000260 85 99 ae bd 3d ba 08 3e eb 5f 16 3b 65 db 1b bd
       -0.08525375 0.13352294 0.0022945355 -0.038051028
000270 74 8b 83 bd a9 7c 73 bb fe 4d 02 3e 7f f8 4e 3d
       -0.06423083 -0.003715316 0.12725064 0.050529953
000280 3b a1 a8 3d 04 4a 00 be ec 1d 1d 3e d2 a0 5e bd
       0.08233877 -0.12528235 0.15343446 -0.05435259
000290 60 0f ba 3d 65 15 e0 bd 57 81 42 be 90 f5 07 be
       0.09084964 -0.10941581 -0.18994652 -0.13277268
0002a0 56 87 14 3e 61 41 22 3c d7 92 15 3e 18 af 07 3e
       0.14504752 0.009903283 0.14606796 0.13250387
0002b0 f5 f5 d9 3d b6 55 37 3d 22 ef f5 bc c9 7d 79 bc
       0.10642616 0.044759475 -0.030021254 -0.015227743
0002c0 fe 55 a2 3c f7 63 3b be 5b 36 f3 3d c3 cd ac 3d
       0.019816395 -0.18299852 0.11875602 0.084376834
0002d0 ac 8d 4b 3e 45 a2 31 be 05 08 16 bd 23 12 38 be
       0.19878262 -0.17347057 -0.03662874 -0.17975669
0002e0 ac 6f 1e 3e b0 45 7c 3d cf fb e6 3d a4 b5 81 bd
       0.15472287 0.061589897 0.112784974 -0.06333473
0002f0 2f 0f 8a bb 6e e6 d1 3d 73 d7 ec 3d fa 2b 15 3e
       -0.004213236 0.10249029 0.11564531 0.14567557
000300 fc c3 0d bd ea b5 d9 3d 9f f0 1b be 21 1a 87 bd
       -0.034610733 0.106304005 -0.15228508 -0.065967806
000310 d4 c3 34 3e a6 90 c4 bc 12 ea a6 3d 08 ba e5 bd
       0.17652828 -0.023994755 0.08150114 -0.11217123
000320 2c 68 b2 3c 09 b8 fd 3d c4 18 ec bd d5 6b 58 bd
       0.021778189 0.123886175 -0.11528161 -0.05283721
000330 06 e1 0e bd 68 9d 9c bc cb 82 28 3e 75 55 26 3e
       -0.034882568 -0.019118026 0.16456144 0.16243537
000340 44 cc 32 be e6 fb f6 3c d8 b4 5e 3d 98 17 db 3d
       -0.17460734 0.030149411 0.054371685 0.106978595
000350 91 3c aa 3c 2f 60 3c bd 1d 6a 20 be 20 4d 29 3e
       0.020780833 -0.045990165 -0.15665479 0.16533327
000360 40 7b a2 3d 38 f0 19 be f6 64 f6 3d df df 05 be
       0.07933664 -0.15033042 0.120309755 -0.13073681
000370 4f 46 41 bd e8 00 00 be 7d a5 48 be 7b fe 43 3d
       -0.047186192 -0.12500346 -0.19594379 0.047850113
000380 26 12 42 bd 20 e0 9f 3d 13 eb 32 3d 81 43 09 3e
       -0.04738059 0.0780642 0.043681215 0.13404657
000390 1a 29 22 be 5c 2c dd 3d 39 f8 b4 3d 58 14 23 be
       -0.15835992 0.107994765 0.08836407 -0.1592573
0003a0 d7 f4 45 3d e9 09 d1 3c 69 77 01 3e 5f a9 a6 3d
       0.0483292 0.02551742 0.12643208 0.08137774
0003b0 35 90 da 3d 92 d7 c4 3d b7 7d 41 bd a2 2b 80 3c
       0.106720366 0.09611429 -0.04723903 0.015645806
0003c0 b9 a2 97 3c 42 f8 19 be f5 ca cd bd 14 0a b2 3d
       0.01851021 -0.15036109 -0.100484766 0.086933285
0003d0 17 5a e3 bd 90 d5 13 3e f0 87 ef bd ca 79 17 bd
       -0.11101168 0.14436936 -0.1169585 -0.03698138
0003e0 92 14 b2 bd 74 e2 74 bd 35 c9 af bd a6 7c 3d 3e
       -0.0869533 -0.059786275 -0.08583299 0.18504581
0003f0 d2 00 1e bd 40 bd 60 3d ba 90 ae 3d b0 75 88 3d
       -0.038575 0.054867983 0.08523698 0.06663072

MatMul_2 f4 [1, 32]
000000 56 62 82 3e 06 46 93 be 32 a7 a1 3d 2e 9a 1b 3e
       0.2546565 -0.2876436 0.07893218 0.15195534
000010 f1 7d c1 3d 4f a1 00 3e a0 54 c1 be a7 a2 07 3e
       0.094478495 0.12561534 -0.37759876 0.1324564
000020 42 83 a8 3d 04 f1 aa be 72 f8 ca 3d 08 f4 3b 3e
       0.082281604 -0.33387005 0.099106684 0.1835481
000030 01 c0 a7 3d 0f 45 3c 3e c3 e6 d1 be 56 aa 71 3d
       0.08190919 0.18385719 -0.4099637 0.059000336
000040 2e 71 04 3e 60 e3 a1 3d 5a f5 4d 3e 23 0a 42 bd
       0.129338 0.079046965 0.20113125 -0.04737295
000050 50 c8 44 3d 0a 18 c7 be 08 ce dc 3d a8 61 9c 3d
       0.048042595 -0.38885528 0.10781485 0.07635814
000060 ab e3 a0 be b2 23 47 3d f4 09 f9 bc d6 71 ad be
       -0.31423697 0.048618026 -0.030400254 -0.33875912
000070 e0 13 92 be 3f c2 c5 3d 50 7c 2e 3e 0e 53 a4 be
       -0.28530788 0.0965619 0.17039609 -0.32094616
