en/hey_kratos/Hey_Kreitos.onnx (onnx, 205654 bytes, 9 tensors)

const_fold_opt__23 f4 [32, 1]
0.08601339 0.11319907 -0.35370827 -0.34401342 -0.110503465 0.17761983 0.13909414 0.11028964
-0.025725665 0.14325657 -0.032622337 0.21012785 0.111257404 -0.049298078 -0.3454477 0.24387717
-0.31179082 0.17082068 -0.3448024 0.051459968 -0.33086082 0.06284931 0.15624109 -0.32657936
-0.32146 -0.09576366 -0.042259432 -0.0033918326 0.15490584 -0.31518176 -0.32678762 0.030576935
00000000: ca27 b03d ead4 e73d 4019 b5be 8722 b0be
00000010: a44f e2bd f9e1 353e b26e 0e3e 89df e13d
00000020: a1be d2bc dab1 123e 009f 05bd c12b 573e
00000030: ecda e33d c8ec 49bd 85de b0be f0ba 793e
00000040: 0ca3 9fbe 9eeb 2e3e f189 b0be b0c7 523d
00000050: 9766 a9be 24b7 803d aafd 1f3e 6935 a7be
00000060: 6896 a4be bd1f c4bd 3a18 2dbd 8249 5ebb
00000070: a39f 1e3e 815f a1be b550 a7be 7b7c fa3c

const_fold_opt__22 f4 [32, 32]
0.09766656 0.07473486 0.16229884 0.024970666 0.061345506 0.08206941 -0.1065991 0.05953368
0.06936128 0.065915406 -0.12027267 -0.14336285 0.03729016 -0.13694774 0.06350474 0.04375834
0.15749812 0.052232385 0.04209819 -0.072680734 0.08591283 -0.13150561 -0.13656549 -0.11633717
0.13350235 0.025360541 0.041211467 -0.011336694 0.16339257 -0.06732489 0.033352 0.12783737
0.013945301 0.049580332 -0.10226586 0.042102855 0.03950614 -0.062742054 -0.14283825 0.042674094
0.085396655 0.12003459 -0.16275623 0.034484804 0.05593433 0.06623619 -0.0521812 -0.10076219
-0.092034794 0.15280643 -0.13523129 -0.112472735 -0.05672752 -0.123924136 0.12952921 0.16538724
-0.01107318 0.052027766 -0.03609737 0.077212326 0.12335249 0.082595184 -0.12775232 -0.08205678
-0.08722271 0.1309504 0.041279376 -0.13794419 0.01736246 0.003375035 0.07141303 0.13012584
-0.13914077 0.18883815 0.07331453 0.0760263 -0.05496557 -0.10877752 -0.04958966 0.16881986
-0.110736616 0.1688932 0.11457208 0.0634959 -0.10072705 0.09110826 0.18635836 -0.11272289
0.10917539 -0.115091205 0.10805414 -0.016161405 -0.17053819 -0.10365865 -0.08809676 -0.07943103
-0.03455399 -0.005851711 0.083703466 -0.06441487 -0.022056524 0.014803509 0.04338293 0.13804235
-0.09847578 0.049641106 0.034201983 0.0096928105 -0.02688961 0.18363504 -0.10765094 0.05514635
-0.04030488 0.08953322 -0.1765656 0.028236069 -0.006984134 0.12896153 -0.08078307 -0.056051802
-0.18097295 -0.07511535 -0.03909045 0.10156267 0.08886283 -0.0016286336 -0.010551743 0.065815516
0.08188885 -0.03489105 -0.08138685 -0.13100448 0.0048403316 -0.018633228 0.055642985 0.018648872
0.0024670907 0.034771986 -0.1403271 -0.051299386 0.0015330514 0.063915916 -0.10027831 -0.15443987
-0.009438165 -0.052523237 0.094556354 -0.16152179 -0.04543855 0.11027215 -0.12959625 0.07647322
0.16504048 -0.08379674 -0.09316626 -0.04276738 -0.03961074 0.17124078 -0.13518956 -0.037836827
-0.01236655 -0.08900832 -0.10642566 0.12249915 -0.060995236 -0.07510235 -0.0016692964 -0.16403715
-0.03871668 -0.042300534 -0.023780609 -0.006958835 0.04155641 0.1515779 0.10249939 -0.04753433
0.08847493 0.12280875 -0.014907031 -0.14578706 0.09088139 -0.025065105 0.05989884 0.14071627
0.050060607 -0.12482315 0.119789824 0.12618183 0.00011180935 -0.11439838 0.15966605 -0.13062014
-0.05956096 -0.115491234 0.12327741 0.08571866 -0.13728361 -0.007073433 -0.05434375 -0.13964188
-0.17020689 0.008470414 0.057196025 0.035432827 0.16249417 -0.087509535 -0.10916673 0.019811714
0.08371683 -0.05464883 0.15305278 0.12365853 0.06378779 0.108689405 -0.00036374704 -0.09156513
-0.033916198 -0.023487745 0.11719487 -0.09714437 0.01978091 -0.13559087 0.016492967 -0.015868755
0.028970532 0.1431202 -0.08871413 -0.117955156 -0.016046096 -0.116870925 -0.08498684 -0.07758563
-0.061348565 0.17066823 -0.0267168 -0.012668579 0.115872785 0.023389518 0.12332546 0.043368064
-0.13412043 0.055789262 -0.14728287 0.012370533 -0.10053693 -0.06679738 0.037018728 0.02701764
-0.0397123 0.012750843 0.11858895 -0.08185806 -0.04410577 0.05382089 -0.049126714 -0.06271562
00000000: 6805 c83d 970e 993d ab31 263e 488f cc3c
00000010: 6d45 7b3d 0214 a83d a150 dabd 97d9 733d
00000020: 490d 8e3d a8fe 863d 8551 f6bd b6cd 12be
00000030: 91bd 183d 073c 0cbe c60e 823d f23b 333d
00000040: 3047 213e a0f1 553d 276f 2c3d a3d9 94bd
00000050: 11f3 af3d 68a9 06be d3d7 0bbe 2f42 eebd
00000060: d7b4 083e e9c0 cf3c 5bcd 283d 8abd 39bc
00000070: 6250 273e a2e1 89bd 1b9c 083d cde7 023e
00000080: d57a 643c bf14 4b3d c370 d1bd 0b74 2c3d
00000090: 31d1 213d e87e 80bd 3144 12be 08cb 2e3d
000000a0: 71e4 ae3d b2d4 f53d 92a9 26be f03f 0d3d
000000b0: 651b 653d d7a6 873d f4bb 55bd 685c cebd
000000c0: bd7c bcbd 4a79 1c3e 127a 0abe 1b58 e6bd
000000d0: 1e5b 68bd f0cb fdbd 4ea3 043e 465b 293e
000000e0: 486c 35bc 111b 553d d6da 13bd 7f21 9e3d
000000f0: 3ba0 fc3d aa27 a93d 81d1 02be 630d a8bd
00000100: d2a1 b2bd dd17 063e 9014 293d 3e41 0dbe
00000110: b83b 8e3c b12f 5d3b ff40 923d b53f 053e
00000120: eb7a 0ebe ca5e 413e ee25 963d adb3 9b3d
00000130: 9423 61bd c0c6 debd 871e 4bbd 1ddf 2c3e
00000140: e1c9 e2bd 57f2 2c3e c4a4 ea3d 230a 823d
00000150: fc49 cebd f896 ba3d bad4 3e3e 42db e6bd
00000160: 5997 df3d f0b4 ebbd 7d4b dd3d ec64 84bc
00000170: 90a1 2ebe fc4a d4bd 136c b4bd bcac a2bd
00000180: 7c88 0dbd b6bf bfbb b96c ab3d f2eb 83bd
00000190: e2af b4bc 6b8a 723c 4db2 313d f95a 0d3e
000001a0: abad c9bd 7954 4b3d 6117 0c3d 98ce 1e3c
000001b0: 9947 dcbc d30a 3c3e 1978 dcbd 24e1 613d
000001c0: bb16 25bd 315d b73d 9dcd 34be 544f e73c
000001d0: 2adb e4bb 7e0e 043e 9871 a5bd 9396 65bd
000001e0: f950 39be 14d6 99bd 4f1d 20bd 1700 d03d
000001f0: b7fd b53d e077 d5ba 38e1 2cbc 49ca 863d
00000200: 57b5 a73d ebe9 0ebd 26ae a6bd 0a26 06be
00000210: a59b 9e3b b6a4 98bc e6e9 633d 85c5 983c
00000220: eaae 213b 126d 0e3d e8b1 0fbe 4e1f 52bd
00000230: abf0 c83a 59e6 823d b75e cdbd 7c25 1ebe
00000240: 89a2 1abc 9b22 57bd c3a6 c13d f865 25be
00000250: c61d 3abd 5dd6 e13d e1b4 04be fe9d 9c3d
00000260: 5f00 293e a09d abbd f4cd bebd d92c 2fbd
00000270: df3e 22bd be59 2f3e 226f 0abe cafa 1abd
00000280: 129d 4abc fe49 b6bd b2f5 d9bd d6e0 fa3d
00000290: 24d6 79bd 43cf 99bd 4bcc daba 5bf9 27be
000002a0: 6295 1ebd 5343 2dbd 8dcf c2bc f006 e4bb
000002b0: 0e37 2a3d 3d37 1b3e 33eb d13d 5cb3 42bd
000002c0: 5832 b53d 2783 fb3d 9f3c 74bc 3449 15be
000002d0: 0620 ba3d 5655 cdbc 7c58 753d ed17 103e
000002e0: 5a0c 4d3d 48a3 ffbd 5e54 f53d cf35 013e
000002f0: 307b ea38 b349 eabd 7f7f 233e 49c1 05be
00000300: 31f6 73bd ab86 ecbd de78 fc3d 448d af3d
00000310: 1394 0cbe 42c8 e7bb 8d97 5ebd 48fe 0ebe
00000320: b74a 2ebe 7ec7 0a3c 6146 6a3d 0322 113d
00000330: df64 263e 3338 b3bd ce92 dfbd 2d4c a23c
00000340: bb73 ab3d 74d7 5fbd deb9 1c3e af40 fd3d
00000350: 2ca3 823d 8d98 de3d 4db5 beb9 8086 bbbd
00000360: b6eb 0abd 5f69 c0bc dd03 f03d a1f3 c6bd
00000370: 930b a23c 55d8 0abe 421c 873c 31ff 81bc
00000380: 9c53 ed3c 1a8e 123e c1af b5bd 7992 f1bd
00000390: 1a73 83bc 065a efbd 950d aebd 37e5 9ebd
000003a0: a248 7bbd a7c3 2e3e 31dd dabc df8f 4fbc
000003b0: b64e ed3d 609b bf3c 0f92 fc3d b6a2 313d
000003c0: de56 09be 4883 643d 52d1 16be c7ad 4a3c
000003d0: 4ee6 cdbd 11cd 88bd f3a0 173d 1954 dd3c
000003e0: 5da9 22bd e9e8 503c c3de f23d 33a5 a7bd
000003f0: 40a8 34bd 4b73 5c3d 1839 49bd 0c71 80bd

const_fold_opt__20 f4 [1536, 32]
0.0190427 0.0026594838 0.0545024 0.04711441 0.005294213 -0.007358707 -0.020058876 0.018332485
-0.005885331 -0.028222153 -0.020980498 0.021273006 0.010566595 -0.017489176 -0.039392333 0.0016314634
0.029528042 -0.0018472683 0.01921077 0.024531255 0.02143161 0.028906384 -0.013215003 0.016725622
0.017082628 -0.046492144 0.018990971 -0.007915497 0.024029912 -0.012877924 0.04046192 0.024389775
0.0006155743 0.015869092 -0.021578703 0.003080979 -0.017299585 -0.019643582 -0.014544793 0.006712625
0.010256417 0.0008649172 0.0009828679 0.01699293 0.01914805 -0.010800648 0.032682877 -0.010375035
0.00984968 0.0054720007 -0.011244258 0.013370614 -0.02466144 -0.020237196 -0.019653765 0.020042298
0.0027453243 0.029629102 -0.01890602 -0.0079908185 -0.011841939 0.013526574 -0.027249455 0.005326145
0.0034190028 0.0134318685 -0.01109267 -0.037178062 -0.040580995 -0.015753997 -0.028561387 -0.005897713
-0.010699674 0.00327162 0.021971712 -0.017117448 0.0027993226 -0.018445306 0.039474923 -0.01729066
-0.00032232614 -0.016384648 0.020653313 -0.021251317 -0.036344 -0.005503137 0.00378864 0.011541231
-0.0043697977 0.0035769136 -0.002657573 0.028759133 -0.005623788 0.02511807 -0.0059358114 -0.027263263
-0.001864728 -0.007873652 -0.0021463702 0.011869223 0.0018390627 -0.008154146 0.023758268 -0.02180495
-0.021774199 0.012057886 -2.3228511e-05 0.0046057673 0.04796446 -0.018573398 -0.02004103 -0.029144796
0.02522203 0.014198213 -0.034440354 0.028928533 -0.006841845 0.0012636035 -0.010277209 -0.008044615
-0.022217188 0.010057854 -0.0058668368 -0.0027418858 -0.009955256 0.000777936 0.003730556 -0.0021897883
0.016935667 0.0057983375 0.01679646 0.024708971 0.0068530017 -0.008023385 0.007629215 -0.01741844
-0.021192124 -0.023065 -0.014947822 -0.00010749424 -0.00936076 0.025602838 -0.009242333 0.015010147
-0.0029854227 0.0142030725 -0.009453782 -0.0122180395 -0.007269731 0.0072251493 0.01981177 0.015902031
0.025310457 -0.0039133304 -0.009097972 0.01805289 0.0011159786 -0.007947732 0.015592171 -0.01686518
-0.012419661 0.008465082 0.0029177621 -0.013254231 -0.0054288865 -0.004334863 -0.008677036 0.0019964154
0.004670596 0.0028827966 0.017647259 -0.015438279 0.017190317 -0.020563615 0.007396251 0.023195505
-0.013506177 0.0063541 0.004546188 0.014382421 0.013098236 0.013175971 -0.00046257256 -0.018513216
-0.0032058563 0.016011246 0.005323476 0.011768929 -0.012152729 0.010888754 -0.0053514717 -0.02380008
-0.027019357 -0.0044325264 0.019647405 0.03511146 -0.017245214 0.0065248543 0.030606303 0.01879929
0.0028179956 -0.023044938 -0.015340044 0.0029978117 0.008373651 -0.0028452089 -0.017069243 0.017032662
-0.010979412 0.016375456 0.024072485 0.0036181307 0.013665762 -0.0049499352 0.008874933 0.0015132996
0.012000276 0.0023745105 0.01616938 -0.006307744 0.013006964 -0.008206766 0.009909056 -0.009359097
-0.0053707515 -0.040058695 -0.023744015 -0.05567584 -0.022315554 0.004977644 0.0014174379 -0.024597203
0.017898323 0.03462614 -0.00399181 0.0056885793 -0.026526002 -0.018958295 0.006173958 -0.03161874
-0.003985827 0.009824643 0.022379652 -0.0139175495 -0.028592302 -0.017844833 0.037912782 0.000301895
-0.007356808 0.0020053661 -0.030122796 -0.0013772164 -0.037826963 0.014637477 -0.022135347 -0.0063104182
00000000: 70ff 9b3c bc4a 2e3b e93d 5f3d 0afb 403d
00000010: 147b ad3b 4f21 f1bb 8352 a4bc 022e 963c
00000020: bcd9 c0bb 2532 e7bc 4bdf abbc ba44 ae3c
00000030: 831f 2d3c 7645 8fbc db59 21bd d4d6 d53a
00000040: cbe4 f13c 0a20 f2ba e85f 9d3c c5f5 c83c
00000050: 5891 af3c 15cd ec3c bd83 58bc 2c04 893c
00000060: def0 8b3c 8c6e 3ebd f492 9b3c 00b0 01bc
00000070: 61da c43c eefd 52bc 66bb 253d 11cd c73c
00000080: 7e5e 213a e6ff 813c d2c5 b0bc 40ea 493b
00000090: dcb7 8dbc 94eb a0bc 494d 6ebc 94f5 db3b
000000a0: 880a 283c 9cbb 623a 93d3 803a c234 8b3c
000000b0: 5fdc 9c3c 33f5 30bc 7bde 053d 0dfc 29bc
000000c0: 8d60 213c 784e b33b d639 38bc 6b10 5b3c
000000d0: ca06 cabc 7ac8 a5bc ef00 a1bc bf2f a43c
000000e0: e6ea 333b bbb8 f23c cce0 9abc eceb 02bc
000000f0: b104 42bc 909e 5d3c 403a dfbc f186 ae3b
00000100: 5911 603b 5711 5c3c 08be 35bc 0648 18bd
00000110: 4238 26bd 870e 81bc 92f9 e9bc 9a41 c1bb
00000120: af4d 2fbc ad68 563b 05fe b33c e439 8cbc
00000130: d774 373b 9c1a 97bc 75b0 213d 24a5 8dbc
00000140: e2fd a8b9 1939 86bc 2331 a93c 3e17 aebc
00000150: 72dd 14bd a953 b4bb d54a 783b 6e17 3d3c
00000160: 8530 8fbb a76a 6a3b ad2a 2ebb 4698 eb3c
00000170: c147 b8bb 69c4 cd3c 3281 c2bb 3557 dfbc
00000180: e469 f4ba 7d00 01bc 1eaa 0cbb 2177 423c
00000190: b40c f13a f898 05bc b3a0 c23c 4ba0 b2bc
000001a0: ce5f b2bc 718e 453c d9da c2b7 faeb 963b
000001b0: 6276 443d 3d27 98bc 162d a4bc 11c1 eebc
000001c0: 6e9e ce3c 9f9f 683c 5411 0dbd 88fb ec3c
000001d0: 8e31 e0bb 7f9f a53a bd61 28bc 90cd 03bc
000001e0: d200 b6bc b2c9 243c 983e c0bb 36b1 33bb
000001f0: 5f1b 23bc 67ee 4b3a 587c 743b 8d82 0fbb
00000200: abbc 8a3c fbff bd3b bb98 893c 786a ca3c
00000210: 258f e03b 8474 03bc 7efe f93b 1eb1 8ebc
00000220: 1b9b adbc d0f2 bcbc b6e7 74bc 886e e1b8
00000230: e05d 19bc 0bbd d13c 276d 17bc 1fed 753c
00000240: 15a7 43bb 01b4 683c 09e4 1abc 2c2e 48bc
00000250: ec36 eebb f2c0 ec3b 4b4c a23c fa44 823c
00000260: e057 cf3c 653b 80bb a90f 15bc a8e3 933c
00000270: 0746 923a 3437 02bc 4e76 7f3c d928 8abc
00000280: d57b 4bbc 21b1 0a3c ed37 3f3b 4628 59bc
00000290: cde4 b1bb 770b 8ebb 202a 0ebc 4bd6 023b
000002a0: cd0b 993b 4ded 3c3b fc90 903c d6f0 7cbc
000002b0: b5d2 8c3c 0775 a8bc 405c f23b 8004 be3c
000002c0: 0349 5dbc 0e36 d03b 30f8 943b 3fa4 6b3c
000002d0: fc99 563c 07e0 573c 7085 f2b9 07a9 97bc
000002e0: 5819 52bb 042a 833c 8e70 ae3b 77d2 403c
000002f0: 3d1c 47bc bf66 323c 665b afbb 63f8 c2bc
00000300: b357 ddbc ba3e 91bb 98f3 a03c 09d1 0f3d
00000310: d645 8dbc 72ce d53b 12ba fa3c f800 9a3c
00000320: 1fae 383b bdc8 bcbc cf54 7bbc ef76 443b
00000330: a331 093c af76 3abb ccd4 8bbc 1588 8b3c
00000340: fee2 33bc d225 863c a933 c53c 291e 6d3b
00000350: 5ce6 5f3c 1133 a2bb 2b68 113c e959 c63a
00000360: ce9c 443c ad9d 1b3b a675 843c 31b1 cebb
00000370: 291b 553c ac75 06bc 9859 223c e656 19bc
00000380: 21fd afbb 9614 24bd cf82 c2bc 590c 64bd
00000390: 1ccf b6bc 811b a33b 53c9 b93a 1380 c9bc
000003a0: 819f 923c 24d4 0d3d bbcd 82bb 4367 ba3b
000003b0: 0f4d d9bc 6d4e 9bbc ea4e ca3b a782 01bd
000003c0: 8a9b 82bb 8af7 203c 8855 b73c 6f06 64bc
000003d0: 673a eabc 542f 92bc 6f4a 1b3d a947 9e39
000003e0: 6111 f1bb 766c 033b 15c4 f6bc b783 b4ba
000003f0: 72f0 1abd 07d2 6f3c 3055 b5bc a0c7 cebb

Const_7 f4 [32]
0.040172044 0.024957746 0.21249259 0.2130978 -0.025864495 0.026438195 0.042316906 0.050680835
-0.005288303 0.086448565 -0.022953141 0.05344999 0.030807924 0.0059216977 0.215805 0.035569515
0.2305978 0.05018535 0.21916158 0.04607964 0.21296346 0.02198072 0.066585995 0.27025753
0.2618607 0.041748952 -0.01862948 -0.030524533 0.009944868 0.25661907 0.29896536 0.0010005081
00000000: 718b 243d 3074 cc3c a897 593e 4f36 5a3e
00000010: c7e1 d3bc ea94 d83c 7e54 2d3d b596 4f3d
00000020: 8049 adbb f20b b13d 3a08 bcbc 60ee 5a3d
00000030: e660 fc3c cd0a c23b fcfb 5c3e 57b1 113d
00000040: d421 6c3e 278f 4d3d e56b 603e 01be 3c3d
00000050: 1813 5a3e e910 b43c 3d5e 883d 325f 8a3e
00000060: 9b12 863e f300 2b3d da9c 98bc 960e fabc
00000070: cdef 223c 9363 833e fd11 993e 7b23 833a

Const_6 f4 [32]
1.0278767 1.0367411 1.2014655 1.2014692 0.97184736 1.0140574 1.0725693 1.0920339
0.9949808 1.1098628 0.97608393 1.0453792 1.0422295 1.0018542 1.2109087 1.0733638
1.2426744 1.1058077 1.2120081 1.0834032 1.1903807 1.0418612 1.1183331 1.3441945
1.3150522 1.0313777 0.9708091 0.9644928 1.0060209 1.2942855 1.4017789 1.0020609
00000000: 7791 833f efb3 843f 9fc9 993f bec9 993f
00000010: fdca 783f a2cc 813f f349 893f c4c7 8b3f
00000020: 10b7 7e3f fc0f 8e3f a3e0 793f fcce 853f
00000030: c767 853f c23c 803f 0eff 9a3f fc63 893f
00000040: f40f 9f3f 1b8b 8d3f 1523 9b3f f5ac 8a3f
00000050: 655e 983f b55b 853f 8a25 8f3f 910e ac3f
00000060: a153 a83f 2f04 843f f286 783f 00e9 763f
00000070: 4bc5 803f 26ab a53f 7e6d b33f 8843 803f

Const_5 f4 [32]
-0.030411592 0.061350588 -0.03434642 -0.035149284 -0.10957968 0.15275066 -0.04708799 -0.027547996
-0.06063016 -0.072092116 0.109858766 0.02193522 0.038481012 0.119574286 -0.052739635 0.163663
0.14443907 -0.044806436 -0.10374029 0.14871721 -0.15613215 0.069926664 -0.01790394 0.072978415
-0.08156946 -0.05277797 -0.11496893 -0.060873482 0.07451908 0.15309621 0.030466802 -0.09589154
00000000: bb21 f9bc c14a 7b3d d5ae 0cbd b2f8 0fbd
00000010: 506b e0bd ab6a 1c3e 56df 40bd 56ac e1bc
00000020: 5557 78bd 08a5 93bd a2fd e03d 7eb1 b33c
00000030: 449e 1d3d 5de3 f43d 8405 58bd 4697 273e
00000040: d6e7 133e f486 37bd ca75 d4bd 5349 183e
00000050: 1be1 1fbe b635 8f3d 49ab 92bc b575 953d
00000060: e40d a7bd b62d 58bd d574 ebbd 7956 79bd
00000070: 769d 983d 41c5 1c3e 8495 f93c c962 c4bd

Const_3 f4 [32]
-0.007854013 -0.012458155 0.010395272 0.007853055 -0.022649026 -0.013015649 -0.015230649 -0.016776122
0.0028766505 -0.008515272 -0.011054602 0.00027770034 0.01657041 -0.020488005 0.009472946 -0.016576344
0.01696108 -0.011543441 -0.009683869 0.0045393067 -0.00958998 -0.018647097 0.0024573363 -0.014681808
-0.008739561 0.0037486332 -0.011164718 -0.001256288 -0.0106400745 0.004083096 0.0057572275 -0.014124444
00000000: 1eae 00bc 4a1d 4cbc ee50 2a3c 1aaa 003c
00000010: 738a b9bc 973f 55bc f989 79bc 146e 89bc
00000020: 3086 3c3b a483 0bbc 5d1e 35bc 4f98 9139
00000030: abbe 873c 76d6 a7bc 6a34 1b3c 1dcb 87bc
00000040: f6f1 8a3c b320 3dbc 17a9 1ebc 77be 943b
00000050: 4b1f 1dbc ccc1 98bc 430b 213b f78b 70bc
00000060: 6030 0fbc a1ab 753b 39ec 36bc 08aa a4ba
00000070: b553 2ebc 7ecb 853b 20a7 bc3b 366a 67bc

Const_2 f4 [32]
0.9401623 0.9919149 1.0325333 1.0132254 0.9817504 0.9874416 0.9613693 0.9972089
1.0038474 1.000277 1.0112752 1.0134772 0.9877351 0.98392457 1.0447824 0.99313766
0.97423923 0.9847967 0.9702967 1.0329461 0.98172617 0.98435307 0.9707164 0.98507047
0.9943735 1.016397 0.9709722 1.0083661 0.98497164 1.0042304 1.0180937 1.0025738
00000000: 7aae 703f 23ee 7d3f 0d2a 843f 5fb1 813f
00000010: ff53 7b3f f9c8 7c3f 4c1c 763f 1549 7f3f
00000020: 127e 803f 1409 803f 7771 813f 9fb9 813f
00000030: 35dc 7c3f 7be2 7b3f 6ebb 853f 453e 7e3f
00000040: be67 793f a31b 7c3f 5d65 783f 9437 843f
00000050: 6852 7b3f 90fe 7b3f df80 783f 942d 7c3f
00000060: 438f 7e3f 4c19 823f a291 783f 2412 813f
00000070: 1a27 7c3f 9f8a 803f e550 823f 5754 803f

Const_1 f4 [32]
-0.007190401 -0.02217679 0.01035035 -0.014964163 -0.011522695 -0.011824696 0.020805024 -0.0127880545
0.00021286732 0.0039758896 -0.017872224 -0.016262522 -0.0015658166 0.02037097 0.024883032 -0.020745918
0.017985797 0.022940455 -0.019247202 -0.015247038 -0.006259195 0.0114025 0.025374092 -0.02484844
0.0010936456 0.013720613 0.025194235 0.0026912407 -0.020551722 0.021880496 0.00014326943 -0.018621098
00000000: 759d ebbb 19ac b5bc 8494 293c 402c 75bc
00000010: b0c9 3cbc 5fbc 41bc 4c6f aa3c fd84 51bc
00000020: 2335 5f39 2e48 823b c568 92bc fb38 85bc
00000030: 163c cdba 05e1 a63c 80d7 cb3c 58f3 a9bc
00000040: f356 933c 9fed bb3c 4fac 9dbc b6ce 79bc
00000050: ef19 cdbb 8dd1 3a3c 54dd cf3c f58e cbbc
00000060: a858 8f3a 6ccc 603c 2464 ce3c 875f 303b
00000070: 165c a8bc ba3e b33c 983a 1639 468b 98bc
