en/terminator/Terminator.onnx (onnx, 205653 bytes, 9 tensors)

const_fold_opt__23 f4 [32, 1]
00000000: 343f 72bd ed5a 39bd 0ac6 28bd a78b b8be
00000010: 27c9 8abd e9b1 453e 0dd4 e63c 3790 b5be
00000020: ef9f 293e 7c37 a93d ed83 313d 2973 533d
00000030: d3d4 a0bc 1347 553e 954a b5be c6c0 a1bd
00000040: 9c43 b7be ba70 273e 15b4 a0be 3f72 963d
00000050: fdfc 2f3e 0ba1 753d 2540 d1be 757c dc3d
00000060: 1475 c33d 4fae 423e b25c 713d 1892 263e
00000070: 634e bcbe 0d68 afbe e081 6dbd 1ef1 103e
-0.059142306 -0.04525273 -0.04120449 -0.36044046 -0.06776648 0.19306149 0.028177286 -0.3546159
0.16564916 0.08262536 0.043338705 0.051623497 -0.019632732 0.20827894 -0.35408464 -0.07898097
-0.3579377 0.16351596 -0.31387392 0.073460095 0.17186351 0.059968036 -0.4086925 0.10765926
0.09543815 0.19011806 0.05892629 0.16266668 -0.36778554 -0.34259072 -0.057985187 0.14154479

const_fold_opt__22 f4 [32, 32]
00000000: 6937 653d 21ce 25be 14ae 7cbd bde1 303e
00000010: b47f cebd d47b cabd dc1e d6bd cb24 123e
00000020: 3ada 48be 0537 e4bd 5407 0dbe 4230 39be
00000030: 26f2 f73d d575 05bd e999 5bbb e18a d83d
00000040: 4072 5a3e b89e 483b 45f5 193e 8525 a83d
00000050: 009f d83d 8f91 01be 2985 4ebd 7e89 a93d
00000060: 6d23 edbd 4fc7 17be 9aa4 38be 73a7 f73d
00000070: 35d8 0d3c 12f1 093d 684c 2c3e c2d5 01be
00000080: c0af e53d 0c4f 323e 22cb a13d 117c 873d
00000090: 0249 733d 4dbd 1f3d bda8 a83d 262d 0cbe
000000a0: e042 f2bd a0d7 2c3e 1ad5 87bd 23c8 ba3d
000000b0: 0f99 84bd 15eb b8bb 4252 edbd d281 f4bd
000000c0: 6c64 e5bd 6658 0dbe 1015 113e 0531 e1bd
000000d0: db24 9a3d 9c64 39bc f2f5 db3d 8cf6 613d
000000e0: 4f04 343e ece9 19be 5669 f6bc 26de f53d
000000f0: 340f ce3d 65bd ab3d ebde cbbd b3d3 25be
00000100: 1873 0ebe 7ea1 b6bc 849c 08be c955 b3bd
00000110: 58f8 1bbe cdc4 933d bcf5 e13d d4a1 b83c
00000120: b1cc 5e3d 1f74 65bc 90a7 39bd 171b 6bbd
00000130: 7739 e43d 67b9 a4bd 39d8 28be 5844 9dbd
00000140: 34b1 303e b54e 41bd b79c 063e 6744 b53c
00000150: 15b6 7b3d 5d82 a03d ee91 9abc fa8e 93bb
00000160: 4353 053e 2e90 02be 11e0 9cbd 2a01 6cbd
00000170: 856d 3dbd 55a8 3fbd dcab 0cbd 9d2a 893d
00000180: 18cc 963d be80 f7bd 0114 47bd e8ff be3d
00000190: fdb0 d93d 7aca 06be 237f 9d3d 4ee0 3f3e
000001a0: 4dbe e5bd 605c a2bd 88e7 f63d 5e3e 46bd
000001b0: 4b82 d3bd eb74 0cbe ea05 473e 5404 87ba
000001c0: 00ca 243e 3052 f3bd 4086 003e 6c08 873d
000001d0: 2932 fe3d cd2c b73d 6fbb 043e 4b4d c03d
000001e0: 7861 f03d e5d2 abbc 20f6 07be 2a03 bc3c
000001f0: f5db 743d d351 333e 4860 07bd 2890 f0bd
00000200: 4df7 083d c39c a63d ac54 a9bc 8a45 3a3d
00000210: ae7e a5bd 4f55 94bd f651 ce3d e632 873d
00000220: 15a0 2a3e 5930 9cbd 0505 2b3e 375c 643d
00000230: 1b8f 9bbd 3263 9fbc 0cf4 01be e826 1c3d
00000240: 3992 f93c 5b26 8ebd 45be bbbc 9198 32be
00000250: cbf8 e3bd b8dd 363d 9e7b 0b3e 4d15 c13d
00000260: 15a0 ea3c 915e aabc 3694 9b3d f176 66bd
00000270: 0965 2d3d 1985 d9bd 2279 f5bc aa19 1bbe
00000280: f880 45bd e30c 0fbe a745 2cbe e439 0f3e
00000290: 4604 a93d 425d d8bd 7231 da3d 0389 6ebc
000002a0: d826 b7bd 8a50 e8bd ca10 573d 51cb 053c
000002b0: 3b49 323e 336d d9bd 9688 6e3c 6eff 133e
000002c0: 3ac5 0b3e ba04 303e 2377 c83d db12 723d
000002d0: 7324 a43d 8cf6 d3bd 9315 06bd f705 7abd
000002e0: e560 04be 2601 a4bb 86ad d4bc a9d4 063e
000002f0: a896 d63d 9bbc 783d cebf 1e3e d22d d93d
00000300: 617f bfbd 022b e9bd 07dd 133e 3b8d 6fbc
00000310: 5a71 e23d 2a6a 63bd 9eff d13c 7a5a 9bbd
00000320: 0a39 06bd 1026 023e fb85 8d3d d8f1 b2bd
00000330: e863 db3d 6c1a d3bc f45b d03d 6735 323e
00000340: dcc4 9bbd 1e15 3a3c 67bd f4bc 5810 db3d
00000350: 1278 263d 4ccd fcbd 0e0e 4ebd a248 34be
00000360: a672 adbd 8c14 3e3d b263 663d 494c f63d
00000370: 38ed 153e 0420 283e 86f1 fa3d bc57 b7bd
00000380: bbeb 0a3e 5e82 dc3d 5b27 0a3e f19c ccbd
00000390: e104 77bc dd2a e03d 7e3e b73d 7cc1 0cbe
000003a0: 2b62 f4bd 8a60 83bc e83e 1e3e aa16 e4bd
000003b0: 9a3e 46bd af5c 923d 633e 09be e7cb e63d
000003c0: 832f 66bc f875 203e 8588 9e3d b3c2 233e
000003d0: b797 e83c ef3f d2bc 7804 f8bd aeb3 bdbd
000003e0: b150 c63d 13cd b43c 0f9f 8fbd dac3 093e
000003f0: 4499 af3d c663 cabd dc79 eb3d 76c8 0e3e
0.055961046 -0.16191913 -0.06168945 0.17273612 -0.10082951 -0.098868996 -0.10455105 0.14271848
-0.19614497 -0.11143307 -0.13772327 -0.18084815 0.12106733 -0.032583077 -0.0033508486 0.10573364
0.21332645 0.0030612182 0.15034969 0.08210281 0.10577202 -0.12653182 -0.05041996 0.08278178
-0.115790226 -0.14822124 -0.1803154 0.12092485 0.008657505 0.03367717 0.16826022 -0.12679198
0.11215162 0.17412966 0.07900073 0.06615461 0.059395798 0.03899889 0.08235309 -0.13689098
-0.11829162 0.1687913 -0.06632443 0.09120204 -0.06474506 -0.0056432583 -0.11587955 -0.11938824
-0.112007946 -0.13803253 0.14168191 -0.10995678 0.07526561 -0.011315491 0.1074027 0.055166766
0.17579769 -0.1503064 -0.030079525 0.12005262 0.100614935 0.083857335 -0.099546276 -0.16194038
-0.13911092 -0.022293802 -0.13340956 -0.087565966 -0.15231454 0.07215271 0.11033198 0.022538103
0.054394428 -0.014004736 -0.045325816 -0.05739888 0.11143773 -0.08043175 -0.16488732 -0.07679051
0.17255098 -0.0471942 0.1314572 0.022127343 0.061452944 0.07837365 -0.018868413 -0.004503128
0.13020043 -0.12750313 -0.07659925 -0.057618298 -0.046247024 -0.046791393 -0.034343585 0.06697581
0.073631465 -0.120851025 -0.04860306 0.09326154 0.10629461 -0.13163176 0.07690265 0.18737909
-0.112179376 -0.079277754 0.1205588 -0.04839932 -0.10327586 -0.13716476 0.1943585 -0.0010300972
0.16092682 -0.118809104 0.12551212 0.06593403 0.12411911 0.08944092 0.12962125 0.093897425
0.11737341 -0.020974586 -0.13277483 0.022950727 0.05978008 0.17511682 -0.033050805 -0.117462456
0.03343897 0.08135369 -0.020670258 0.045476474 -0.08080803 -0.07242834 0.100742266 0.06601505
0.16662629 -0.07626409 0.16701134 0.055752005 -0.075956546 -0.01945648 -0.12690753 0.03812304
0.030465232 -0.069409095 -0.022917876 -0.17441012 -0.11131438 0.04464504 0.13621375 0.09427891
0.028640786 -0.020797046 0.07596628 -0.056265775 0.042332683 -0.106210895 -0.029964987 -0.15146509
-0.048218697 -0.1396976 -0.16823445 0.13986927 0.08252768 -0.105646625 0.10653962 -0.014559033
-0.08942956 -0.113434866 0.052506246 0.00816615 0.17410748 -0.10616531 0.014558932 0.14452907
0.13649455 0.17189303 0.097883485 0.059100013 0.08014765 -0.103497595 -0.03273542 -0.061040845
-0.12927587 -0.0050050197 -0.025961649 0.13167061 0.10477954 0.060726743 0.15502855 0.10604443
-0.093504675 -0.11385156 0.14439784 -0.014621074 0.11056776 -0.055521168 0.025634583 -0.075856164
-0.03276924 0.12709832 0.0691032 -0.08737534 0.10712415 -0.025769435 0.10173789 0.17403184
-0.07605907 0.011357574 -0.02987547 0.10696477 0.04064185 -0.12343845 -0.050306372 -0.17605832
-0.08469133 0.046406314 0.05624742 0.12026269 0.14641273 0.16418463 0.12253098 -0.08952281
0.13566487 0.10767053 0.13491575 -0.09990872 -0.015076847 0.109456755 0.08947466 -0.13745683
-0.119327866 -0.016037244 0.15453684 -0.11137135 -0.048399545 0.07146584 -0.13402705 0.1126936
-0.014049414 0.15670002 0.07740883 0.1599224 0.028392656 -0.025665252 -0.12110227 -0.09262787
0.096833594 0.022070443 -0.0701276 0.13453618 0.08574155 -0.098823115 0.11497852 0.13943657

const_fold_opt__20 f4 [1536, 32]
00000000: 3e14 60bc 74cb d9bb b8cc f03c 3966 adbc
00000010: b51f c839 9607 6cbb a475 213c 2f00 293d
00000020: 73cd e83c 8801 6ebc 4ecb 96bc 7658 043d
00000030: af33 3e3d 47a6 adbc 398d 3e3a 6cf4 0cbc
00000040: f261 e73c f93e 113c 950a 213b f54d abbc
00000050: 2d39 9b3b eb4d 1d3c da6b 92bc be3f f13b
00000060: d0a0 a73b 386f a03c 7bb4 dc3c 2446 333c
00000070: dd2f e03b 4232 213d 1c7f 7abb 1fdc 04bc
00000080: 03b1 6bbb f57e 133c b6cf 55bc dd09 91bb
00000090: 0519 5c3c c46b 13bc daed e7ba 9e69 eeba
000000a0: b538 09bc 0d28 ce3c 480b 18bc 9f1d bcbb
000000b0: 6346 9c3c 1476 fbbb 7def f33b 15c6 bfbb
000000c0: 0aff d6bc bfd8 a93c 7e94 57bc eeec 823c
000000d0: bfe4 a438 17fd 6fbb 2a71 ee3b 4624 ac3c
000000e0: 0fa5 50bc 4f6c 7b3c fc5f 953c af69 273c
000000f0: 9b63 4a3c 17f4 a7bc b254 473c 48e6 38bc
00000100: 51d1 d63c 120e e5bc 09f5 163c c130 9b3c
00000110: 1331 4bbc 91fe 96bb 9568 7f3c e47c 8ebb
00000120: dba0 4f3c 9dca a43b 0ff9 7cbc 3f8a 1cbc
00000130: b5d7 40bd 33a1 d33b 7341 e23b 0e67 71bc
00000140: f3ab 7bbd 3ddc 2bbb 999f 19bc 0a6f d33c
00000150: 5d5a 16bd e0d4 68bc 4cd7 973b e389 2dbd
00000160: 4323 c4bc 4284 61ba 099e f6bc dbca bebc
00000170: e57b 92bc 0df2 9ebd 1d6d 9a3c ad34 50bb
00000180: 2c3a 8bbc e63e 82bc 2ddc 6bbc 00c4 85bc
00000190: f053 1f39 24f8 923b 9c6e 7c3c 0078 84ba
000001a0: c058 8e3c b304 0abb 7897 933b c053 7b3c
000001b0: cb55 543c c891 55bb 89b4 5a3b d5a5 e3bc
000001c0: 386c 7d3c 9bd5 5f3c 7850 8fbc 97cb 89bc
000001d0: e6c3 c33c d474 26bd aa23 613c 7a2e eb3c
000001e0: fb0e ae3c 0d69 59bc 8df9 ec3c db8c d7bb
000001f0: a806 843c 5480 253b ef6a 33bb cf7e 04bd
00000200: 537e c53b 4905 a7bc 56f8 c13c cf6c 71bc
00000210: 1902 1dbb e38e bd3b c8fb c83b 42b0 4bbc
00000220: 66e2 6b3b a6ee f6bb af49 573c 312c aa3c
00000230: edc8 c33c f991 99bb e5b8 603b 510d 9b3b
00000240: fe65 d13c 4e0b 4cbc c9ce a23c e6ae 29bc
00000250: 7e39 063b 3c4f cc3c e29e 5d3c a67e 003d
00000260: 9433 eb3c 72b6 e23c a960 9cbc bb66 0f3c
00000270: 671d 993c a43c b53c e3bc 4f3a 9e8a 8cbc
00000280: b70d 743c c2d7 2d3c a102 463c 4fa0 52bb
00000290: 84e6 f1bb e1ce 1cbb 9e5a cbbb 486d 0bbb
000002a0: 6cfe a43c 66fc 3dbc 258f 0eba 2505 d7bc
000002b0: 1581 39bb 343e 813c 3c89 75bc 639d 64bc
000002c0: cfc4 a73c 847d d9bb 5bda aabc 7d1e 8b3c
000002d0: cea8 c6bc a2ff 8ebc 6d3d debc 01d3 5cbc
000002e0: dab0 0a3c e4cb 85bc 25fa d1bc 7c71 933c
000002f0: b86d b23c 8929 1cbc 9309 3e3c 7026 983c
00000300: d8f4 c53c 2ac0 26bc 3f23 a8bc 9b1c fc3b
00000310: ba0e 233c b56d 263c c6e2 b33c 1671 f6bb
00000320: e81d 423c b681 35bc 6eef 91bc 63b1 9f3c
00000330: 6748 7abb 015c 2e3c 6949 723c a5e3 43bc
00000340: 0183 2cbc 3d2d 95bb 4902 3dbc 48e9 813c
00000350: 9777 89bb 88d2 8d3c 05a6 dfbc 6d23 96ba
00000360: d41a 873b 024f 40bb ba79 8d3c e33b 99bb
00000370: df6e 15bc beca fa3a 8e3a 803c 8268 353b
00000380: 94cc 2c3b 1908 8fbc 8b45 533c 308a 82bc
00000390: 008c c2ba 6d96 b939 ee96 11bc e36e 753c
000003a0: 7da7 b9bc 0d7a a2bc f80e e43b aff2 343b
000003b0: 1b39 91bc 46c2 243c 6934 203c 12ee 57bb
000003c0: 0d8a 8ebc 90cf 4e3c 96e2 b73b 7bd5 30bc
000003d0: ba09 b23b d945 a0bc b908 0cbc 1743 0bbd
000003e0: 459c 11bd bfff 813c e0c3 c7bc 9a87 4dbc
000003f0: 1784 c538 9970 afbc b608 7abc 214b 16bc
-0.013676701 -0.006646568 0.029394493 -0.021166908 0.00038170596 -0.0036015264 0.009854708 0.04125994
0.028418278 -0.014526732 -0.01840749 0.032310925 0.046436008 -0.021197451 0.00072689686 -0.008603197
0.028244946 0.0088651115 0.0024572958 -0.020911196 0.0047370405 0.009601097 -0.017873693 0.007362335
0.005115606 0.019584283 0.026941529 0.010942016 0.0068416432 0.03935457 -0.0038222736 -0.008109122
-0.0035963662 0.009002437 -0.01305001 -0.0044262246 0.0134336995 -0.008997861 -0.0017694787 -0.0018189435
-0.008375336 0.025165582 -0.009280033 -0.005740836 0.019076532 -0.007673988 0.0074443207 -0.0058524706
-0.026244659 0.020733235 -0.013157962 0.015982118 7.862737e-05 -0.003661936 0.007276674 0.02101339
-0.012734666 0.015345647 0.018234245 0.010218068 0.012352849 -0.020502133 0.012166189 -0.011285372
0.026222857 -0.02796081 0.009213694 0.018944146 -0.012401837 -0.0046079834 0.015588899 -0.004348384
0.012672628 0.005029036 -0.01544024 -0.009554445 -0.047080714 0.0064584254 0.006904775 -0.014734043
-0.06144328 -0.0026223802 -0.00937643 0.025809783 -0.03670727 -0.01421091 0.0046338197 -0.042367827
-0.023942595 -0.0008602777 -0.030104654 -0.023290088 -0.017881343 -0.07761011 0.018850857 -0.0031769678
-0.016995512 -0.015899133 -0.014395756 -0.016328812 0.00015194691 0.004485147 0.015407231 -0.0010106564
0.017376304 -0.002105993 0.0045041405 0.015339792 0.012959908 -0.0032588113 0.0033371767 -0.027789036
0.015467696 0.013661767 -0.017494425 -0.016820712 0.023897123 -0.04063876 0.013741413 0.028708685
0.021247378 -0.013269675 0.028927589 -0.0065780706 0.016116455 0.0025253491 -0.002737697 -0.032347497
0.006027022 -0.020388262 0.023677986 -0.014735415 -0.002395755 0.0057848557 0.0061335303 -0.01243216
0.0035993098 -0.0075357733 0.013140126 0.020773025 0.02389952 -0.0046865907 0.0034289893 0.004731812
0.025561329 -0.012453867 0.019873993 -0.01035664 0.0020481045 0.024940126 0.01352665 0.03137078
0.028711118 0.027674887 -0.01908906 0.00875252 0.018690778 0.022123642 0.00079245697 -0.017155942
0.014895848 0.010610523 0.012085588 -0.0032139008 -0.007382216 -0.002392702 -0.006205871 -0.0021274853
0.020140849 -0.011595821 -0.00054382003 -0.02624757 -0.0028305699 0.015776731 -0.0149863325 -0.01395354
0.020479588 -0.006637277 -0.020856073 0.016982311 -0.024250414 -0.01745588 -0.0271289 -0.013478042
0.008465016 -0.016332574 -0.025631974 0.01799845 0.021780834 -0.009531387 0.011598962 0.018573016
0.024164602 -0.010177651 -0.02052462 0.0076938397 0.009952242 0.010157992 0.02195872 -0.007520805
0.0118479505 -0.011078289 -0.017814364 0.019493764 -0.0038190128 0.010642053 0.01478801 -0.01195613
-0.010529281 -0.004552512 -0.011536189 0.015858307 -0.0041951644 0.017312303 -0.027300844 -0.001145465
0.004123071 -0.0029343967 0.017269958 -0.0046763285 -0.009120672 0.0019133908 0.015652921 0.00276807
0.0026367055 -0.017459916 0.012894998 -0.015935034 -0.0014842749 0.00035398026 -0.008886082 0.014980051
-0.022662872 -0.019833589 0.006959792 0.002761047 -0.017727425 0.010056084 0.009778121 -0.0032948297
-0.017399812 0.012622729 0.005611728 -0.010793085 0.0054332884 -0.019564556 -0.0085470015 -0.03399953
-0.03554942 0.01586902 -0.024385393 -0.012544537 9.418296e-05 -0.021415995 -0.015260866 -0.009173186

Const_7 f4 [32]
00000000: 3b4c 8eba 99e8 62bb f7d5 3fbc 53c5 8b3e
00000010: c731 0abd 34c2 753c e326 34bc 9155 8d3e
00000020: 4859 a43c f179 5f3c f403 93bc a58b 2abb
00000030: 0c4d 9c3c 2a48 003d 1a97 963e 6841 0ebc
00000040: 0b01 893e 4653 3cbb 23b6 893e 7081 7f3b
00000050: 90fd 16bc fa01 533d 523d 863e 25cb 25bc
00000060: 37be e13c 115a 2f3d 9497 fa3b 8f82 8fbb
00000070: 953c 893e 7af2 9c3e 7760 e539 2659 543c
-0.0010856459 -0.0034623502 -0.011708728 0.27298984 -0.033738878 0.014999915 -0.010995599 0.27604344
0.020062104 0.013639913 -0.017946221 -0.0026023176 0.019079708 0.03131882 0.29412156 -0.008682586
0.26758608 -0.0028736158 0.26896772 0.0038987063 -0.009215727 0.051515557 0.2621866 -0.010119234
0.027556522 0.042810503 0.007647464 -0.0043795775 0.26804033 0.30653745 0.00043750156 0.012960708

Const_6 f4 [32]
00000000: f1eb 783f 75cf 7e3f b794 793f 6c08 a43f
00000010: f65a 723f 1a7f 833f aeb9 7e3f 196d a43f
00000020: 07ee 823f df6a 833f 4d37 803f 8489 813f
00000030: 3168 813f c7b8 853f 9e9c a93f b428 7c3f
00000040: 2fed a13f df1f 803f d728 9f3f ad3b 803f
00000050: 6350 803f 24a2 883f ee22 a23f 3edc 7e3f
00000060: 09d6 833f 703c 8d3f 2c66 883f 5d4c 7f3f
00000070: c496 a23f e4fa ac3f 43f7 7f3f 7b0b 823f
0.9723502 0.99535304 0.97492546 1.281507 0.94670045 1.0273163 0.99502075 1.2845794
1.022889 1.026699 1.0016876 1.0120091 1.0109922 1.0447015 1.3250921 0.9849961
1.2650508 1.0009726 1.2434338 1.0018212 1.0024532 1.0674481 1.266691 0.9955481
1.0299693 1.1034069 1.065618 0.99725896 1.270226 1.3514066 0.99986666 1.0159754

Const_5 f4 [32]
00000000: c491 15bd c08a de3d 4609 d83b 4890 dc3a
00000010: 7ca3 0f3e 8f6b 28bd 747a b2bd ed0c 25be
00000020: 217d a33d 34cb d63d f6da 04be be7e ff3d
00000030: 9c35 e93d ba46 ba3d cf80 82bc 85dc 36be
00000040: 7e76 1ebd 9ff4 ac3c 3bfb fbbd 010e c83d
00000050: 7372 a83d f2f3 dbbd de0d 42bd 26c8 bf3d
00000060: 4f82 053d a59d f53c 9182 b43c 48d4 443e
00000070: 8298 04be a830 dcbd e84c c0bd b154 b53d
-0.036515966 0.10866308 0.0065929024 0.0016827667 0.14027208 -0.0411182 -0.08714762 -0.16118212
0.07982851 0.10487977 -0.12974152 0.12475346 0.11387178 0.09095521 -0.015930561 -0.17857559
-0.03868722 0.021112738 -0.12303778 0.09768296 0.082249545 -0.10739888 -0.047376506 0.09364347
0.032594975 0.029982397 0.022034915 0.19221604 -0.12948802 -0.10751468 -0.09389669 0.08854044

Const_3 f4 [32]
00000000: 8f63 843c b61d 96bb 0db2 97b9 5e85 213c
00000010: 40b0 743c 87df 32bb a70d 1ebb 602d e33a
00000020: a98f 3cba bdb1 403c 50d6 cd3c 0fef 08bb
00000030: 72b7 79bc 1908 8c3c 2955 9d3c 3b6c 873b
00000040: 6872 aa3b 0173 0bbb 9571 1fbb 3bb7 923c
00000050: 55d9 913a cdb0 733b cbc8 21bc 0b13 123c
00000060: e542 eebb 9781 9e3b d3ef 803b a3a3 17bc
00000070: 594c 963c 16ca f43a b9b0 7b3c 1d6d 11bc
0.016160754 -0.0045811785 -0.00028933623 0.009858457 0.014934599 -0.0027293877 -0.0024117024 0.0017332248
-0.0007193038 0.011761126 0.025126606 -0.0020894443 -0.015241491 0.017093705 0.019205647 0.004132775
0.0052016266 -0.0021278264 -0.0024329175 0.017909637 0.0011127392 0.003718424 -0.009874533 0.008915673
-0.007271158 0.0048372257 0.0039348393 -0.009255323 0.018346952 0.0018675949 0.015361958 -0.008876112

Const_2 f4 [32]
00000000: ce68 873f 54bc 7f3f f2ff 7d3f 0889 813f
00000010: bc6c 7c3f 23d9 7f3f cdf0 7f3f a649 7d3f
00000020: 16ed 7f3f 460d 7c3f 3957 813f 99fa 7e3f
00000030: fcb2 7d3f a019 723f e1c3 813f e878 803f
00000040: 776a 813f 11c2 7f3f c787 7f3f feb5 883f
00000050: a440 7f3f ce18 7c3f 0c99 7f3f f3b5 823f
00000060: 99d6 7d3f 8dae 803f d90d 803f 2d71 7f3f
00000070: 778f 713f da4e 813f 79c7 803f ea81 7f3f
1.0578859 0.9989674 0.99218667 1.0119944 0.98603415 0.999407 0.9997681 0.98940504
0.9997114 0.98457754 1.0104743 0.9960113 0.99101233 0.9457035 1.0137902 1.0036898
1.0110615 0.99905497 0.99816555 1.068054 0.9970801 0.9847535 0.99842906 1.0211776
0.99155575 1.0053269 1.0004226 0.9978207 0.94359535 1.0102189 1.0060874 0.9980761

Const_1 f4 [32]
00000000: 16ff a0bb 13a3 c6bc c5a9 3bbc 209d 0c3c
00000010: 1a1e 0c3c 952e 49ba 7663 3f3c 460a 9a3b
00000020: 5179 573c d1d7 6d3c 8d53 bc3c 0f91 9e3c
00000030: 1d84 733c 884f 8dbc f2a7 f03b a120 983c
00000040: 53ca 6c3c c8ac 193c e6b2 acbc 25f9 f3ba
00000050: 8f54 903c 7bb6 bb3b 069f 6b3c a851 87bc
00000060: b16d 903c 9dc8 a1bc 05bb cb3b 5d50 013b
00000070: 4ed5 aa3c 0850 513b f66d 38bc 2e53 adbc
-0.004913221 -0.024247682 -0.01145405 0.008582383 0.008552099 -0.0007674483 0.011681428 0.0047009317
0.013151483 0.014516787 0.022989059 0.019356279 0.014863041 -0.017249838 0.0073442394 0.018570246
0.014452535 0.009379573 -0.0210814 -0.001861368 0.017618446 0.0057285405 0.014381176 -0.016518429
0.01763043 -0.01974898 0.006217363 0.0019731738 0.020853665 0.0031938571 -0.0112566855 -0.021157827
