en/hey_home_free/hey_home_free.onnx (onnx, 205659 bytes, 9 tensors)

const_fold_opt__23 f4 [32, 1]
0.07233301 -0.03034684 0.061806735 0.15964696 0.13716832 0.07364239 0.18100765 0.088556916
-0.2907854 -0.00054445193 0.18624544 -0.31203553 -0.362257 0.23048632 -0.3432057 0.2596372
0.08372213 -0.38070518 0.06645685 -0.32862827 -0.06512983 0.0052605486 0.05045168 0.1462748
-0.32347646 -0.07285404 0.0041912473 0.1313223 -0.31499904 -0.3210475 -0.32587498 0.11293786
00000000: 5423 943d f099 f8bc 0f29 7d3d 7e7a 233e
00000010: da75 0c3e d2d1 963d 125a 393e 545d b53d
00000020: d3e1 94be 8db9 0eba 20b7 3e3e 1fc3 9fbe
00000030: c079 b9be 9b04 6c3e a8b8 afbe 2bef 843e
00000040: 8276 ab3d caeb c2be 871a 883d f741 a8be
00000050: ca62 85bd ae60 ac3b 6ca6 4e3d 10c9 153e
00000060: b59e a5be 8034 95bd bb56 893b 5a79 063e
00000070: 8e47 a1be 5760 a4be 16d9 a6be f74b e73d

const_fold_opt__22 f4 [32, 32]
0.03216744 0.071914196 -0.1050016 0.030307185 -0.08738153 0.08384031 0.026894515 0.1667258
0.047592696 -0.06630931 0.08802608 -0.09730947 0.107638374 -0.02685119 0.01620998 0.19889015
0.08967905 -0.2049812 0.1412161 0.038951926 0.19673677 0.10386166 -0.017792935 -0.031506237
0.03862232 -0.10969027 0.04705049 0.13943642 -0.19424142 -0.17622255 0.10740358 -0.10473304
0.113973975 -0.15544823 0.09404002 -0.037615184 -0.060013987 0.05140789 0.1576365 -0.05270629
-0.12358253 -0.03009614 -0.10471447 0.049180944 0.023432232 0.02170068 0.12317819 0.11909142
-0.08503668 0.00058768457 0.083557926 -0.017531106 0.12737131 0.044082604 -0.032659713 -0.14812653
0.10841478 -0.16101275 -0.10867418 -0.13959245 -0.07108463 -0.07236323 0.16810916 -0.08646548
-0.06814856 0.091670625 -0.11413407 0.1242223 0.15334225 0.015998498 0.007986567 -0.119390935
0.06774223 -0.058117192 -0.11253584 0.08476907 0.105533145 -0.06868455 0.10848678 0.04503378
-0.1596715 0.12834015 -0.07850865 0.009344995 -0.06348519 -0.12966475 -0.20437874 -0.15200333
0.108921416 -0.07893717 -0.103706084 0.0065719252 0.081773795 0.04903272 0.10635122 0.050225403
-0.10766699 0.097325 0.08715746 -0.13152328 0.10558179 -0.055184107 0.011233525 0.036887087
-0.20305689 -0.12618186 -0.10609942 0.042599104 -0.12439612 0.001026641 -0.08142377 0.1550993
-0.057825983 -0.057794794 -0.11984868 0.08759508 0.028325832 0.06391863 0.042168465 -0.099514976
0.0347558 0.105050854 -0.15825702 -0.01123446 0.090318814 -0.05725894 -0.20429568 -0.1474177
0.076428324 0.04379506 -0.035716463 0.17348573 0.08992561 0.13240547 0.056496914 -0.07885917
-0.18528791 0.18564862 0.21209292 0.08227615 -0.008346003 -0.07097534 -0.069603376 0.045990314
0.16155495 -0.12330337 -0.11966462 -0.09509308 0.1337049 -0.077272475 -0.014532501 -0.10407865
-0.06050738 0.049415015 -0.033118702 0.06548562 -0.035063162 -0.08592373 -0.08854826 0.081684396
0.015464009 0.048760552 -0.15494932 0.06500789 0.036303714 0.073651075 0.14426565 0.051928584
0.04470836 -0.06706896 -0.04795806 0.06286986 -0.1047384 -0.07346027 0.16089784 0.043757703
-0.021953845 0.035041906 -0.15037721 0.15155847 0.05332052 0.040361855 0.1694403 0.17124772
0.10387816 0.017036574 0.05694181 0.0067787427 -0.01814575 0.084201105 0.07954101 -0.07926403
-0.050068475 -0.13804902 -0.15652171 -0.15208445 -0.12339316 -0.0073516476 -0.1464172 0.11229993
-0.08011305 -0.07085362 0.017267179 -0.0972085 0.17811619 0.10285223 0.0049086045 -0.053381734
0.09953376 -0.11808721 -0.043871112 0.024342772 -0.037066907 0.12851517 0.07004515 -0.09048017
-0.1320928 -0.14689079 -0.05916947 -0.13146658 0.056053888 0.12545195 0.1251118 -0.039291464
0.052913073 -0.15330607 0.048594423 -0.040777218 0.03795207 -0.16949451 -0.096874036 -0.15671861
0.075303845 0.017188156 0.04957524 -0.026277233 -0.08114219 0.015381001 -0.07691716 0.077456534
-0.11325214 0.018421834 -0.085043095 0.13763343 -0.13752173 0.0795519 -0.09564006 0.025308052
0.14875364 0.03331504 -0.11599984 0.009381419 0.13396284 0.15603822 -0.059592966 0.11129481
00000000: 01c2 033d c047 933d 140b d7bd c646 f83c
00000010: 16f5 b2bd 78b4 ab3d e351 dc3c 2bba 2a3e
00000020: 8ff0 423d 2dcd 87bd 0447 b43d 304a c7bd
00000030: 8271 dc3d 07f7 dbbc cbca 843c dca9 4b3e
00000040: a6a9 b73d 97e6 51be f49a 103e 0e8c 1f3d
00000050: 5d75 493e 6cb5 d43d 7dc2 91bc af0c 01bd
00000060: 7032 1e3d 4ba5 e0bd 04b8 403d 6cc8 0e3e
00000070: 39e7 46be af73 34be 68f6 db3d 477e d6bd
00000080: 306b e93d d22d 1fbe 0e98 c03d 6112 1abd
00000090: 3ad1 75bd 1491 523d 766b 213e 8de2 57bd
000000a0: d618 fdbd 2e8c f6bc 8a74 d6bd f571 493d
000000b0: f4f4 bf3c a0c5 b13c d944 fc3d 34e6 f33d
000000c0: b627 aebd d80e 1a3a 6b20 ab3d 659d 8fbc
000000d0: a06d 023e f68f 343d 31c6 05bd 7bae 17be
000000e0: 9108 de3d 87e0 24be 9290 debd 53f1 0ebe
000000f0: d294 91bd 2c33 94bd cf24 2c3e d014 b1bd
00000100: 7991 8bbd cfbd bb3d 20bf e9bd 4368 fe3d
00000110: c005 1d3e 480f 833c 17da 023c 3c83 f4bd
00000120: 70bc 8a3d 4b0c 6ebd 3179 e6bd 689b ad3d
00000130: c321 d83d 7caa 8cbd 512e de3d 5775 383d
00000140: ed80 23be 9a6b 033e 25c9 a0bd c01b 193c
00000150: 8604 82bd d6c6 04be a948 51be c3a6 1bbe
00000160: 3112 df3d d0a9 a1bd db63 d4bd 4e59 d73b
00000170: 0579 a73d 89d6 483d abce d93d 27b9 4d3d
00000180: 8380 dcbd 5452 c73d 9c7f b23d 0aae 06be
00000190: 443b d83d bb08 62bd d20c 383c ea16 173d
000001a0: 25ee 4fbe d135 01be a74a d9bd 667c 2e3d
000001b0: 65c3 febd 5b90 863a 81c1 a6bd 5ad2 1e3e
000001c0: f0da 6cbd 3cba 6cbd 3a73 f5bd 0d65 b33d
000001d0: 930b e83c c5e7 823d d7b8 2c3d 82ce cbbd
000001e0: 195c 0e3d e724 d73d 210e 22be be10 38bc
000001f0: 12f9 b83d 5a88 6abd e332 51be aaf4 16be
00000200: 7486 9c3d 7362 333d 6d4b 12bd 3ea6 313e
00000210: eb2a b83d 4d95 073e 4f69 673d eb80 a1bd
00000220: 1dbc 3dbe ac1a 3e3e e32e 593e 6680 a83d
00000230: acbd 08bc 855b 91bd 378c 8ebd 5760 3c3d
00000240: a96e 253e 7a86 fcbd b912 f5bd 29c0 c2bd
00000250: f0e9 083e 0841 9ebd ba19 6ebc 3027 d5bd
00000260: 96d6 77bd 6667 4a3d 7aa7 07bd 531d 863d
00000270: 649e 0fbd c8f8 afbd ca58 b5bd 264a a73d
00000280: c15c 7d3c 25b9 473d 09ab 1ebe db22 853d
00000290: 34b3 143d 60d6 963d 60ba 133e 11b3 543d
000002a0: 1d20 373d 735b 89bd ac6f 44bd eac1 803d
000002b0: 1681 d6bd 5772 96bd 67c2 243e 473b 333d
000002c0: 8dd8 b3bc 1a88 0f3d 7cfc 19be 2532 1b3e
000002d0: 9e66 5a3d 7952 253d c281 2d3e 905b 2f3e
000002e0: 13be d43d 4990 8b3c d13b 693d 3720 de3b
000002f0: 65a6 94bc a171 ac3d 66e6 a23d 2e55 a2bd
00000300: 9a14 4dbd b95c 0dbe 3a47 20be 07bc 1bbe
00000310: 8eb5 fcbd 17e6 f0bb 64ee 15be 81fd e53d
00000320: 5012 a4bd b41b 91bd e673 8d3c 4015 c7bd
00000330: 1764 363e 31a4 d23d 5cd8 a03b cea6 5abd
00000340: 5bd8 cb3d b5d7 f1bd 32b2 33bd 7e6a c73c
00000350: 78d3 17bd 7b99 033e d573 8f3d ab4d b9bd
00000360: 5643 07be 8a6a 16be b05b 72bd 2d9f 06be
00000370: c398 653d 7a76 003e 4f1d 003e 16f0 20bd
00000380: 61bb 583d 44fc 1cbe f20a 473d 0306 27bd
00000390: a173 1b3d f88f 2dbe e565 c6bd d87a 20be
000003a0: e738 9a3d 2dce 8c3c 680f 4b3d 5a43 d7bc
000003b0: e02d a6bd 9800 7c3c be86 9dbd 88a1 9e3d
000003c0: bdf0 e7bd 63e9 963c 132b aebd c7ef 0c3e
000003d0: 7fd2 0cbe 1bec a23d f0de c3bd d552 cf3c
000003e0: e052 183e 5a75 083d 5391 edbd 86b4 193c
000003f0: 8e2d 093e 7cc8 1f3e c117 74bd 89ee e33d

const_fold_opt__20 f4 [1536, 32]
0.0013037409 0.007214767 0.015126046 -0.009338693 0.010148192 -0.009464566 -0.006156494 0.014083509
-0.018462239 0.019174853 -0.024481338 0.0111092115 -0.030259654 -0.0058006267 -0.004939882 0.014207936
-0.0091524115 -0.04434939 0.002747531 0.0044199675 -0.009952206 0.0052410085 0.020014007 -0.040483374
-0.018569402 0.012630939 -0.0062854257 0.0124389045 0.012741244 0.0127564715 -0.010738455 -0.020144397
-0.018567134 -0.0032984328 -0.008360796 -0.015055016 0.0067089302 0.008598953 -0.026560467 0.007904346
0.020966018 0.012212333 0.0062233075 0.016752418 0.010659783 -0.018120801 0.015267962 0.025830101
0.013515385 0.031908717 -0.015426321 0.0050062295 0.008680338 -0.022130277 -0.0043810257 0.01323329
0.025268938 0.010793087 0.009500259 -0.016133087 0.009650955 0.015097764 -0.011001468 0.02361381
-0.002641305 -0.017520547 -0.014247564 0.0038796968 0.015784105 -0.02229757 -0.016429791 0.017258974
0.008922196 0.009123775 0.012575844 0.0058241654 -0.00899942 0.0034502181 -0.013243726 -0.00825616
-0.00046841035 -0.006841429 -0.0039129644 0.0312033 0.0023992807 0.02345454 0.008150701 -0.009958906
-0.0060782526 0.008870076 0.00054840103 0.011282332 0.00036267718 0.0083564315 0.008378383 0.015188504
-0.0079712225 -0.021187052 0.017924968 -0.024212288 0.0061014052 -0.041948114 0.015370928 -0.0076038553
-0.018761039 -0.037602294 -0.015346412 0.0013009002 -0.03298763 -0.0051255324 0.005392515 -0.02193136
-0.024792928 0.014668331 -0.024212021 -0.032863893 0.010631095 -0.0066550244 -0.0013098783 0.015037916
-0.02717859 -0.007614397 0.010626276 0.020957947 0.002613641 0.010735642 0.005448161 -0.016968297
0.029909655 0.01779929 0.028568102 0.024808187 0.019377232 -0.0034641111 -0.014274737 0.02105725
0.00025683365 0.0007166285 0.0062546385 0.0067740586 0.025669478 0.01113132 0.0060750227 -0.0025082552
0.014291148 0.020887772 -0.011647531 0.012144596 0.01607426 -0.009994031 0.009145927 -0.027698163
-0.00084923353 0.016034743 0.00081954844 -0.01563183 0.025375571 0.008796057 0.024112063 -0.013095202
-0.0053225434 -0.0001982624 0.0011235847 0.025016012 0.0033144304 0.011805332 0.008489794 -0.009803671
0.01919129 -0.02383804 0.018183747 -0.00953252 0.0016099795 0.0034964741 -0.00029404648 -0.00022673725
0.0093574645 0.004206266 0.011806417 -0.014723389 -0.0034011786 -0.0031300155 -0.0044678748 0.0005591839
0.01543515 0.0059233955 0.006922336 -0.023760108 0.026583005 0.013492308 0.008571591 0.004457452
0.033347607 -0.034816984 0.032129835 -0.004796549 0.009250801 -0.014167935 0.037632488 0.005937945
-0.038549896 0.0012552626 -0.03130288 0.03312979 -0.026287012 0.00671868 -0.018968772 0.007148445
0.016801756 -0.008439002 -0.00029254513 -0.011545984 -0.010980377 0.010732133 0.018921154 -0.026379649
0.00017997397 -0.0061050085 0.019411799 0.015440532 0.011100459 -0.00095978804 0.014542277 -0.046120454
-0.030094545 -0.014205646 -0.012260752 -0.016775632 -0.024582095 -0.0044000023 -0.0010624467 0.013134715
0.006660969 0.023416156 -0.020451656 -0.02714582 -0.023723137 -0.019021152 0.011364296 0.004839762
-0.007434598 -0.004292081 -0.02164288 0.024671476 -0.011349284 -0.015293144 -0.016989477 -0.012316882
0.009236845 -0.01691364 -0.014456728 -0.0045541413 -0.015463271 0.0048889862 -0.0068225116 0.014845975
00000000: 49e2 aa3a da69 ec3b 3cd3 773c 5101 19bc
00000010: 9a44 263c 4411 1bbc 6abc c9bb 85be 663c
00000020: 1f3e 97bc 9514 9d3c 168d c8bc 6903 363c
00000030: 18e3 f7bc 2f13 bebb bcde a1bb 67c8 683c
00000040: fff3 15bc b5a7 35bd ec0f 343b 60d5 903b
00000050: 940e 23bc c4bc ab3b 6af4 a33c e5d1 25bd
00000060: dc1e 98bc fff1 4e3c f9f5 cdbb 8ccc 4b3c
00000070: a7c0 503c 8500 513c 58f0 2fbc dd05 a5bc
00000080: 1a1a 98bc 852a 58bb b8fb 08bc 50a9 76bc
00000090: 96d6 db3b 9fe2 0c3c 5695 d9bc 3b81 013c
000000a0: edc0 ab3c 3d16 483c e3ec cb3b 5e3c 893c
000000b0: 5fa6 2e3c 1372 94bc 7926 7a3c a699 d33c
000000c0: a26f 5d3c b7b2 023d aebe 7cbc 4c0b a43b
000000d0: fa37 0e3c 8e4a b5bc b58e 8fbb 71d0 583c
000000e0: ce00 cf3c 7dd5 303c f9a6 1b3c 8929 84bc
000000f0: 0a1f 1e3c 9d5c 773c 803f 34bc c071 c13c
00000100: bf19 2dbb 4087 8fbc 9d6e 69bc 8342 7e3b
00000110: ab4d 813c 65a9 b6bc c597 86bc b162 8d3c
00000120: 672e 123c e37b 153c ea0a 4e3c a4d8 be3b
00000130: 4e72 13bc 0e1d 623b 37fc 58bc d844 07bc
00000140: f994 f5b9 112e e0bb 5338 80bb 109e ff3c
00000150: 403d 1d3b bc23 c03c 858a 053c ae2a 23bc
00000160: 142c c7bb cc53 113c 92c2 0f3a 88d9 383c
00000170: b525 be39 6ae9 083c 7c45 093c 34d9 783c
00000180: bb99 02bc 7890 adbc 62d7 923c d958 c6bc
00000190: 4cee c73b c9d1 2bbd 58d6 7b3c c329 f9bb
000001a0: c0b0 99bc dd04 1abd 846f 7bbc f882 aa3a
000001b0: 0a1e 07bd 15f4 a7bb b2b3 b03b 65a9 b3bc
000001c0: 8a1a cbbc 7053 703c 4a58 c6bc 4a9c 06bd
000001d0: 0b2e 2e3c 6412 dabb 39b0 abba 9761 763c
000001e0: a2a5 debc 3182 f9bb d519 2e3c 00b0 ab3c
000001f0: 9f49 2b3b 8ce4 2f3c 7d86 b23b 1901 8bbc
00000200: 1805 f53c d1cf 913c a707 ea3c 8a3a cb3c
00000210: 00bd 9e3c 2406 63bb 96e0 69bc 4180 ac3c
00000220: a1a7 8639 20dc 3b3a b6f3 cc3b ecf8 dd3b
00000230: cc48 d23c 2460 363c fc10 c73b 8a61 24bb
00000240: 6b25 6a3c d51c ab3c 49d5 3ebc 21fa 463c
00000250: 2bae 833c 01be 23bc ccd8 153c 42e7 e2bc
00000260: 199f 5eba 4b5b 833c f7d6 563a 530e 80bc
00000270: 6ee0 cf3c 561d 103c a986 c53c 428d 56bc
00000280: bb68 aebb a8e4 4fb9 3f45 933a 61ee cc3c
00000290: ea36 593b 276b 413c c718 0b3c 949f 20bc
000002a0: 0d37 9d3c fe47 c3bc 15f6 943c 492e 1cbc
000002b0: f305 d33a 1a25 653b 402a 9ab9 51c0 6db9
000002c0: 0d50 193c b7d4 893b b46f 413c 5f3a 71bc
000002d0: 4fe6 5ebb f220 4dbb 4067 92bb 3296 123a
000002e0: b6e3 7c3c 0b19 c23b c3d4 e23b 8fa4 c2bc
000002f0: 9ac4 d93c d70e 5d3c dc6f 0c3c d10f 923b
00000300: 8097 083d 419c 0ebd 939a 033d 5f2c 9dbb
00000310: ac90 173c a020 68bc 8624 1a3d 1893 c23b
00000320: 7fe6 1dbd a087 a43a 7337 00bd 1ab3 073d
00000330: dc57 d7bc 5f28 dc3b 6664 9bbc 813d ea3b
00000340: d6a3 893c bd43 0abc be60 99b9 5e2b 3dbc
00000350: 0ae7 33bc d4d5 2f3c 8900 9b3c 221a d8bc
00000360: 65b7 3c39 860c c8bb 7e05 9f3c 49fa 7c3c
00000370: b3de 353c 499a 7bba bb42 6e3c cde8 3cbd
00000380: d688 f6bc ccbe 68bc 52e1 48bc 0d6d 89bc
00000390: 6460 c9bc e52d 90bb cc41 8bba fd32 573c
000003a0: 4244 da3b 3dd3 bf3c 3b8a a7bc e960 debc
000003b0: 0657 c2bc 3fd2 9bbc 5031 3a3c de96 9e3b
000003c0: ee9d f3bb 96a4 8cbb 694c b1bc d61b ca3c
000003d0: 59f2 39bc 1890 7abc 842d 8bbc bfcc 49bc
000003e0: 2356 173c 798e 8abc e9db 6cbc e83a 95bb
000003f0: a959 7dbc ca33 a03b 608f dfbb 883c 733c

Const_7 f4 [32]
0.0364635 0.012510449 0.06583655 0.058022052 0.06711766 0.016717367 0.023483193 0.03319608
0.25383574 -0.008955522 0.17149557 0.22405581 0.22691672 0.044582494 0.22111987 0.058200255
0.024249844 0.2326093 0.04992483 0.2569405 -0.010378774 -0.015697721 0.027070735 0.021919264
0.27438053 0.033543933 0.0048115747 0.03423494 0.24042936 0.23073287 0.22424755 0.026397409
00000000: c05a 153d a0f8 4c3c 50d5 863d 88a8 6d3d
00000010: fc74 893d dcf2 883c d35f c03c 9df8 073d
00000020: c2f6 813e 2fba 12bc 899c 2f3e e36e 653e
00000030: db5c 683e 229c 363d 3f6d 623e 6463 6e3d
00000040: 9ca7 c63c 2231 6e3e fb7d 4c3d b58d 833e
00000050: bc0b 2abc 8298 80bc 72c3 dd3c 0790 b33c
00000060: 9b7b 8c3e 5d65 093d 6aaa 9d3b f039 0c3d
00000070: 1d33 763e 3d45 6c3e 26a1 653e 613f d83c

Const_6 f4 [32]
1.0479145 1.0017909 1.0367863 1.0734034 1.0635251 1.039973 1.0691017 1.0271113
1.273615 0.98427874 1.1835618 1.21729 1.2145888 1.054831 1.2211729 1.1039056
1.043746 1.2364446 1.0499505 1.3041881 0.9960109 0.98924637 1.0110033 1.0105319
1.350519 1.0495818 1.0063835 1.0494921 1.2607114 1.2267624 1.2274747 1.0573579
00000000: 1022 863f af3a 803f 6ab5 843f 4865 893f
00000010: 9721 883f d61d 853f 53d8 883f 6278 833f
00000020: d105 a33f b1f9 7b3f f47e 973f 29d0 9b3f
00000030: a577 9b3f b404 873f 654f 9c3f c74c 8d3f
00000040: 7899 853f d143 9e3f c764 863f a3ef a63f
00000050: 92fa 7e3f 403f 7d3f 8e68 813f 1c59 813f
00000060: cedd ac3f b258 863f 2dd1 803f c255 863f
00000070: fe5e a13f 8d06 9d3f e41d 9d3f 8157 873f

Const_5 f4 [32]
-0.15277182 0.10537022 0.05886122 0.15731914 -0.17094064 -0.1696199 -0.013973119 0.08399257
0.10733809 0.08155623 -0.13403822 0.14713018 -0.10071823 -0.044083577 -0.030176973 -0.03303691
0.050464526 -0.07155569 0.12232944 0.09240144 0.00831925 0.11032173 -0.12035535 0.027496882
-0.07613679 -0.085952796 0.043176115 0.029804071 -0.072310686 -0.030282833 -0.033792786 0.018420262
00000000: 3770 1cbe 58cc d73d 7618 713d 4518 213e
00000010: 100b 2fbe d7b0 2dbe 82ef 64bc 4c04 ac3d
00000020: 13d4 db3d f406 a73d 5141 09be 4ba9 163e
00000030: 5c45 cebd fb90 34bd b335 f7bc b651 07bd
00000040: e4b3 4e3d ca8b 92bd dc87 fa3d f73c bd3d
00000050: 774d 083c 5cf0 e13d de7c f6bd 2441 e13c
00000060: 9bed 9bbd 0508 b0bd 70d9 303d ab27 f43c
00000070: a017 94bd b413 f8bc 4e6a 0abd 17e6 963c

Const_3 f4 [32]
0.012835458 -0.08813896 0.015703605 0.0031960893 0.02266535 -0.01851783 -0.0015625152 -0.06689554
-0.020582376 0.0045790235 -0.014860161 0.0052392143 0.009292356 0.021117346 -0.006510396 -0.004002625
0.020813392 -0.0059694126 -0.020675445 -0.02075957 -0.004773129 0.027537346 0.009981019 -0.008465222
-0.009279995 0.029353594 0.015631951 -0.010958907 0.0146922 0.049201727 0.01888978 -0.033689655
00000000: d04b 523c 3382 b4bd d9a4 803c 7b75 513b
00000010: afac b93c b4b2 97bc 4fcd ccba 8700 89bd
00000020: 5f9c a8bc a20b 963b 0878 73bc b7ad ab3b
00000030: f73e 183c 49fe ac3c 2955 d5bb 7428 83bb
00000040: d980 aa3c 109b c3bb 8d5f a9bc f90f aabc
00000050: e867 9cbb 0096 e13c 6e87 233c b7b1 0abc
00000060: 1f0b 18bc f376 f03c 940e 803c fd8c 33bc
00000070: 8eb7 703c c087 493d bdbe 9a3c 2afe 09bd

Const_2 f4 [32]
1.0354918 0.9597798 1.0179272 0.9897564 1.0376905 0.9814139 0.9761674 0.9643386
0.9780227 1.0176795 0.9978698 0.96586376 1.0240911 1.044569 0.99100405 0.9856812
1.0455428 1.0145746 1.0062042 0.9843561 0.95738906 0.99589556 0.9961627 0.989653
1.0050628 1.0088482 1.0343925 1.0026371 0.99637675 1.0117507 1.052686 0.9769453
00000000: ff8a 843f 21b4 753f 704b 823f ad60 7d3f
00000010: 0bd3 843f f13d 7b3f 1be6 793f e5de 763f
00000020: b25f 7a3f 5243 823f 6574 7f3f d942 773f
00000030: 6b15 833f 70b4 853f 71b2 7d3f 9a55 7c3f
00000040: 59d4 853f 95dd 813f 4dcb 803f c3fe 7b3f
00000050: 7317 753f 03f3 7e3f 8504 7f3f e659 7d3f
00000060: e6a5 803f f021 813f f966 843f 6a56 803f
00000070: 8c12 7f3f 0c81 813f 6abe 863f 1619 7a3f

Const_1 f4 [32]
-0.009833051 0.018304033 0.0069622514 -0.021602888 -0.021538673 0.020658297 -0.0074469373 0.025891501
-0.019692251 -0.0106484685 0.007322859 0.022293353 0.0071220156 -0.005192991 -0.005880061 -0.013147625
-0.014974992 0.021204934 0.0096364645 -0.018508824 0.031350728 -0.005609593 0.017257318 0.009715131
0.0005040432 0.0070696925 0.035287637 0.009430792 0.0047503505 -0.016497279 -0.009688576 0.016526436
00000000: ce1a 21bc 57f2 953c 9923 e43b 8af8 b0bc
00000010: df71 b0bc 973b a93c 7005 f4bb 6a1a d43c
00000020: a551 a1bc ea76 2ebc 98f4 ef3b 8da0 b63c
00000030: cc5f e93b f729 aabb 87ad c0bb 2369 57bc
00000040: ab59 75bc f8b5 ad3c 43e2 1d3c d19f 97bc
00000050: 9f69 003d add0 b7bb 385f 8d3c 362c 1f3c
00000060: c421 043a e1a8 e73b c589 103d 9c83 1a3c
00000070: d4a8 9b3b 4d25 87bc d5bc 1ebc 7362 873c
