zh/xiao_bu.onnx (onnx, 206870 bytes, 9 tensors)

model_8/tf.math.multiply_22/Mul/y f4 [1, 32]
00000000: e02e a63f 707f 9e3f c6f5 7f3f 43e2 9e3f
00000010: 4b30 7f3f 0215 853f acef 7d3f deee 803f
00000020: 479d 803f 68fe 7d3f 171e b33f 017a 7e3f
00000030: 53bd 8d3f e11c 8c3f 6512 803f 967f 833f
00000040: 5757 7f3f 1a08 803f ec06 9e3f feda 873f
00000050: a720 793f 82a1 8b3f 9fc5 a23f 1b98 7a3f
00000060: 272f 823f 3225 a43f 5285 8b3f cb93 903f
00000070: 4d87 7c3f 17ed 9d3f e541 993f 6208 833f
1.2983055 1.2382641 0.99984396 1.24128 0.99683064 1.0397036 0.99193835 1.0072896
1.0047997 0.9921632 1.3993558 0.99404913 1.1073402 1.0946313 1.0005614 1.0273311
0.99742645 1.0002472 1.2345862 1.0613706 0.9731545 1.0908663 1.2716559 0.97888345
1.017064 1.2823851 1.0900061 1.1295103 0.9864395 1.2337979 1.1973234 1.0236933

model_8/tf.math.multiply_10/Mul/y f4 [1, 32]
00000000: 0a95 763f 3d77 7b3f f1f6 783f f939 813f
00000010: 8775 7c3f c5b2 7c3f 52e8 7f3f e76e 7e3f
00000020: a77e 7f3f a0a5 813f 354d 7b3f 43f1 833f
00000030: b393 823f f55c 7f3f 2918 813f aa89 7f3f
00000040: cd21 7a3f 6b7d 7f3f b713 7d3f 5484 783f
00000050: e5fc 813f 607b 7d3f ed4b 7f3f dd82 7d3f
00000060: ec49 733f a945 823f b218 7b3f fad9 7e3f
00000070: 8101 823f cbe1 823f 50e8 7d3f b13b 7d3f
0.96321166 0.9822882 0.972518 1.0095817 0.9861683 0.9871028 0.9996387 0.99387974
0.9980263 1.012867 0.98164684 1.0308002 1.0201324 0.99751216 1.0085498 0.99819434
0.97707826 0.9980075 0.9885821 0.97076917 1.0155302 0.9901638 0.9972523 0.99027807
0.9503467 1.0177509 0.9808456 0.99551356 1.0156709 1.0225157 0.99182606 0.98919207

model_8/tf.math.add_5/Add/y f4 [1, 32]
00000000: 3fe8 863e 2dff 723e c35f 5c3b cb82 733e
00000010: f94e 8bbb bab2 1d3d 9f1b 68bc 63a9 303c
00000020: 394b 823b 728a 34bc 7646 9d3e d2e9 62bb
00000030: 825f 8a3d 1270 b23d 9fee e23a f8d9 503c
00000040: 44a8 87bb 5f85 6f3a 17a1 713e f632 ce3c
00000050: 2567 f7bc c692 4e3d c958 823e 9dc2 f8bc
00000060: 1b60 fc3b 0321 853e 7642 773d 844c 803d
00000070: 9138 19bc a47c 733e 9925 683e f68f 2b3d
0.26349065 0.23730154 0.0033626414 0.23780362 -0.0042513576 0.038500525 -0.014166742 0.010782572
0.0039762524 -0.011019336 0.3071782 -0.003462423 0.06756498 0.08712782 0.0017313546 0.01274728
-0.004139932 0.00091370003 0.23596607 0.025170784 -0.03020055 0.050432943 0.25458363 -0.030366236
0.0077018864 0.26001748 0.060366116 0.06264594 -0.009351865 0.23778015 0.22670592 0.04188534

model_8/tf.math.add_2/Add/y f4 [1, 32]
00000000: a867 903b 710e 86bc bafa e33b cc52 d93b
00000010: 218f 1abc e9c7 84bc 0cdd 063d b5b9 83ba
00000020: e44e 4dbc 89d2 553c ebb1 a83c 550e 673c
00000030: e46d 353c f9b5 6ebc 7902 bb3b d4d7 a73b
00000040: f3a0 43bd c62d 64bc 27f0 a43c 215e b03b
00000050: abc3 f03c 3ff5 f4bb 57ef 59bc 6a70 6fbc
00000060: 872b a83c 085b 1e3b 0bac 44bc 56d7 74bc
00000070: 84ea 273c 6430 163c e389 39bb 28dc 19bc
0.004406888 -0.016364308 0.006957379 0.0066321846 -0.009433539 -0.016208606 0.03292565 -0.0010049852
-0.012531016 0.013050684 0.02059265 0.014102538 0.011073563 -0.014569753 0.005707082 0.0051221643
-0.047760915 -0.013926929 0.020134045 0.005382315 0.029390177 -0.0074755247 -0.013301692 -0.014614204
0.020528568 0.0024163146 -0.012003909 -0.014943918 0.010248784 0.009166811 -0.0028310947 -0.009390868

model_8/tf.__operators__.add_1/AddV2/y f4 [32]
00000000: a1a5 323e 7ace 06be 9197 eabd f6c7 783d
00000010: 63cd ae3c b45f 7a3d 951c 9c3d 5fc2 bb3c
00000020: 5cf6 0a3e 4da3 093e 28de ba3d fae2 0e3e
00000030: 14d6 b93d e0fb bcbd a007 0e3d 8cea b9bd
00000040: be86 9fbd 94d3 223e cc0d 023d 6b78 263e
00000050: c387 b63d cb0f 0cbe a1d2 213d 52c2 04be
00000060: 3d69 ba3d f52f 8a3d 5c39 04be f673 7bbd
00000070: 3b0f 31be 13a2 f0bd 4ecd 6d3d ed7f 1a3d
0.17445995 -0.13164702 -0.1145469 0.060737573 0.02133817 0.061126426 0.07622639 0.022919832
0.13570541 0.134412 0.09124404 0.13953772 0.09074035 -0.09227729 0.03467524 -0.090779394
-0.07789372 0.15901023 0.03175144 0.16256873 0.08912613 -0.136779 0.039507512 -0.12964752
0.09102104 0.06747428 -0.12912506 -0.061389886 -0.17290966 -0.11749663 0.058057122 0.037719656

model_8/tf.__operators__.add/AddV2/y f4 [32]
00000000: ebb6 7bba 887e ea3b b62c 033b 405d 8b3c
00000010: dc5a 4fbb a1ea d7bb 8018 7e3c 14be c1bc
00000020: 9a2b 8dbc c986 1f3c a17e 69bc 54ba b93c
00000030: 4ed3 d4bc 4268 63ba a020 32bc c138 87ba
00000040: 6c1f 5e3c 79d8 42bc 225e b3bb 9673 b53c
00000050: 4694 05ba 5f9d 503a b416 363c c733 5ebc
00000060: bce5 a6bc ba46 d43b 6f05 3e3c 0a36 8b3b
00000070: 87f8 9fbc 9ce2 843c b4a2 9abc ccd0 ddbb
-0.0009602147 0.007156197 0.0020015663 0.017012239 -0.003163985 -0.0065892492 0.015508771 -0.023650207
-0.017232705 0.009736725 -0.014251382 0.022671856 -0.025979664 -0.00086748984 -0.010872036 -0.0010316597
0.013557296 -0.011892431 -0.005473868 0.022149842 -0.0005095642 0.00079580204 0.011113811 -0.013562149
-0.020373218 0.006478158 0.011597975 0.0042483853 -0.019527687 0.016221337 -0.018876411 -0.0067692753

const_fold_opt__23 f4 [1536, 32]
00000000: e9c7 70bc fb7b 14bc 3567 41bc 8c0f 5d3b
00000010: c887 15bc 6180 d43c 6937 523c 671e a23c
00000020: df5e 173c e002 a63c 6769 4f3c 5e19 64ba
00000030: f785 a03c 0729 69bb 06fd 86bc 7e32 34bc
00000040: cf60 04bb 4259 4e3c f91d 89bc 6f27 973c
00000050: 261f 603c 0c91 60bc 162c 11bc f234 f8bb
00000060: 0cd0 cf3b c4a5 97bc 53c1 1b3d 6d33 0bba
00000070: 378f 98bc 1647 05bc 7401 103c dba0 0d3c
00000080: 9af8 41bc 29a6 c2bc 9120 3f3c ba79 e33c
00000090: 326a b73c 64ef 33bc 2345 513a ad8b 813a
000000a0: 2912 323c de3e 433c ec31 33bb bab4 44bc
000000b0: a36c d73c bcae 90bc 63bf d43c ae0e d8bb
000000c0: d81b d5bc fe79 033c d5b3 f43a bd38 f93b
000000d0: fbab bf3c 11e1 a1bc 1124 cbbc 8ab3 96bc
000000e0: 45c7 283c c026 093c 9a63 183c 4299 cbbc
000000f0: 3d51 0dbc 9d9c f83b c6cb 4c3c 6f21 683c
00000100: d839 d6bb 6f16 933c 5c96 1bbc 7c95 1bbd
00000110: 5903 76bc dcfe ca3c a9e8 0b3b 323e 0c3c
00000120: 1da6 7cbc 0840 8fbc fbea 66bc dbb2 ad3c
00000130: c973 d4bc caa7 103c 9084 b83c 685f c63b
00000140: 757e b83c 2e9b 8bbc 2350 24bc 8556 803b
00000150: 7ea5 1c3c b08d 8e3c 0b63 9f3c b213 b03b
00000160: d5e5 183a 1c6c 2f3c 9a54 803c 0c9e 8dba
00000170: 659f b53c 1297 ccbc 83b7 4737 ca72 b93b
00000180: 7a23 6dba 839b 13bd 6ace 2f3c c027 5cbd
00000190: e8eb 81bc e9ae a5bc b361 6d3c ed01 28bd
000001a0: dc3a aa3b 0ba8 febc 0e91 a93b e577 d93c
000001b0: 572f f6bb 1c57 f7bc 6c4d 98bb 1c3e 863c
000001c0: 2667 37bd bd26 87bb 867c 4bbc 6f1d d1bc
000001d0: fb4a 373c 0f61 b8bc 87a3 e93b 6b3e abbc
000001e0: 4713 16b9 3f6a dbbc 55c4 5ebc 6875 1c3c
000001f0: 9ce7 103c 108f b0bb 4258 0abd bc11 1cbc
00000200: f012 80bc 8de4 b03c ffee 773b 2eb8 aa3c
00000210: 6dfb 70bc 2cc0 273d e06b c93b 887a 7c3c
00000220: 28aa d53b 3bea be3c e4b5 5e3b 6ecb f6bc
00000230: 95ea 473d f373 b8bc 879c 53bc 4747 cd3b
00000240: 27c7 e13c edb9 ca3c a0fb f6bc 4cd7 193b
00000250: 5c29 78bc 4d47 c13c 0168 97ba d464 bb3c
00000260: 53f9 8d3c 2fad e2bc 06e8 503c 31a1 00bc
00000270: a7eb 48bc 486b 593c 892d 08bc 4fd6 f83c
00000280: fffe 64bc 6f21 863b e2b9 53bc f530 99bc
00000290: 2cbc 76bc 4ae2 97bc 6d0c 8b3c 5004 9cb8
000002a0: d9de a03c 1fdf 653b 4cb3 413c a93e ba3c
000002b0: 8213 07bc 4242 66bc 5382 6e3c 598a 98bc
000002c0: 23de 5cbb 46e4 d03b 9a7f 89bc 4769 ef3b
000002d0: dda5 c1ba fc15 d1bb b74c 9a3c 87dd 773c
000002e0: 4671 bbbc 3c55 e63c d348 53bc 29a4 b13c
000002f0: 059f e7bb 47e0 293c 4803 d13b 699d 713c
00000300: e614 f33b 6a39 aebc 872c ac3c 9278 eabc
00000310: 76d3 6e3b 4ece 983c 9aae 94ba ec9b bdbc
00000320: 7a6a 49ba 7d07 9f3a 9c17 853c 94b7 e83c
00000330: c681 1d3b 76c8 85bc 9bba 37bc 4aed 813c
00000340: fb82 ae3b 971d 1abc f1ef 64bc 42e7 84bc
00000350: d772 4dbc fc62 b13c eb93 bcbc b6af 18bc
00000360: e06a 0c3b c68c 2abc 6dee 8a3c 6ddb 13bc
00000370: 7c63 5a3c bac4 9d3c f10d debc a17a dcbc
00000380: 2be1 af3b 092a 02bd ed49 043c de2e 3bbc
00000390: ec4f 8cbb acc8 6abc 90af 2e3c f414 57bd
000003a0: 46fa 51bc 03cd f8bc c9eb 733b b4f4 2c3c
000003b0: 53e1 fbbc f04e 3c3c 69f6 773c f733 18bb
000003c0: afa5 34bd 87d5 32bc f3bf fd3c 7e55 f7bb
000003d0: 5f3c 4cbc 0a74 533b 3efc a5bb 7764 f6bc
000003e0: 0cf9 123c 5573 f7bb 2c04 b3bc 4bcf 783c
000003f0: 717b 6fbc c4be 02bd ebca cdbc 7aa6 25bb
-0.0146961 -0.009062762 -0.011804392 0.003373119 -0.009126611 0.025940122 0.012830594 0.019789888
0.009238928 0.020265043 0.012659407 -0.000870129 0.01959513 -0.0035577433 -0.016478073 -0.010998366
-0.0020199304 0.012594523 -0.016737925 0.01845142 0.013679301 -0.013706457 -0.008860609 -0.007574671
0.00634194 -0.01851166 0.038026165 -0.0005310092 -0.018622978 -0.008134624 0.008789409 0.008644308
-0.011839056 -0.023760872 0.011665479 0.027768005 0.022389505 -0.010982368 0.00079830195 0.0009883546
0.0108685875 0.011916844 -0.0027342988 -0.012005979 0.02629692 -0.017661445 0.025970167 -0.006593547
-0.026014253 0.008024691 0.0018669317 0.0076056407 0.023397436 -0.01976064 -0.024797471 -0.018396158
0.010301416 0.008371055 0.009301091 -0.024853352 -0.008625326 0.007587029 0.012499755 0.014168127
-0.006537657 0.017955033 -0.009496298 -0.037984356 -0.015015447 0.02477973 0.0021348393 0.00855975
-0.015420464 -0.017486587 -0.01409411 0.021203449 -0.025934117 0.0088290665 0.022524148 0.006053854
0.022521237 -0.017041769 -0.010028872 0.003916564 0.009560941 0.017401546 0.019456407 0.0053734416
0.00058325875 0.010706928 0.015665341 -0.0010804548 0.022170732 -0.02497438 1.19040515e-05 0.005659436
-0.0009046119 -0.03603698 0.010730365 -0.053748846 -0.01585956 -0.020225005 0.014488625 -0.04101746
0.005195005 -0.031085989 0.0051747626 0.026546428 -0.0075129676 -0.030192904 -0.0046479013 0.016387038
-0.044776104 -0.004124491 -0.012419825 -0.02552673 0.01118731 -0.022507219 0.0071300897 -0.020903787
-0.00014312296 -0.02678406 -0.013596614 0.009549476 0.0088442825 -0.005388148 -0.033775575 -0.009525713
-0.01563403 0.021593357 0.0037831662 0.020839777 -0.014708382 0.040954754 0.006146893 0.015410073
0.0065205283 0.02330505 0.0033982927 -0.0301263 0.0488077 -0.022516226 -0.012915737 0.0062646004
0.027560784 0.02474686 -0.030149281 0.0023474274 -0.01514658 0.02359357 -0.0011551381 0.022875227
0.017330801 -0.027670471 0.012750631 -0.007850931 -0.012263215 0.013270207 -0.008311638 0.030375628
-0.013976811 0.004093341 -0.012922736 -0.018700102 -0.015059512 -0.01854052 0.016973699 -7.439463e-05
0.019637512 0.0035075617 0.011822533 0.022734957 -0.008244397 -0.014053883 0.014557439 -0.018620657
-0.003370174 0.0063748686 -0.016784478 0.007306251 -0.0014774163 -0.0063807946 0.018835409 0.0151285
-0.022881161 0.028116815 -0.012895781 0.021684723 -0.007068517 0.010368413 0.006378565 0.014747002
0.007418263 -0.021267612 0.021017326 -0.028621946 0.0036441959 0.018653061 -0.0011343539 -0.023145638
-0.0007683408 0.0012132969 0.01624661 0.02840785 0.002403365 -0.016330939 -0.011213924 0.015860219
0.0053256727 -0.009406469 -0.013973222 -0.016223554 -0.012539587 0.021653645 -0.023019752 -0.0093192365
0.0021426007 -0.01040954 0.016959393 -0.009024483 0.013329383 0.019258846 -0.027106257 -0.026913943
0.0053674183 -0.03177837 0.008074266 -0.011424748 -0.0042819884 -0.0143300705 0.010661975 -0.052510217
-0.0128160175 -0.030371195 0.0037219396 0.010556389 -0.030747091 0.01149343 0.015134432 -0.0023224333
-0.04410332 -0.010915167 0.030975318 -0.0075480333 -0.012465565 0.003226521 -0.00506547 -0.030077202
0.00897051 -0.0075515904 -0.021852575 0.015186141 -0.014616833 -0.03192021 -0.025121173 -0.002527623

const_fold_opt__22 f4 [32, 32]
00000000: 3ba3 ff3d da66 e8bd 346d 1cbe b3fe 2e3e
00000010: 3ee3 88bb 915b f73b 22bd da3d 6e90 b1bd
00000020: a046 2dbe 16b1 f03d c178 07be 1891 293e
00000030: 9bdb adbd 9d01 29be e5f6 d7bd 12b3 99bd
00000040: 1535 b33d 65b9 96bd 5793 ecbc 8769 2e3d
00000050: 024d 6dbd 0354 033e 8b21 1b3e 9b7b 46be
00000060: 3965 f4bd 34d2 b6bd 05cf 7b3c 0e52 c0bd
00000070: ac38 7c3d cb8c 3a3e d78e 1c3e 69cd cdbd
00000080: 9fd0 03be 86a2 e6bd 2c4d cabd 696a c6bd
00000090: e162 0cbe 9553 ee3d d57f 8fbb e974 193e
000000a0: 4f44 c3bd ddc9 9dbd b531 183c b990 06be
000000b0: 2380 24bd 2e18 05be 4e88 03be 4a9f 2d3d
000000c0: fd1b 15be 6250 8f3d e00b 363d 53ac 38bd
000000d0: c3a6 ec3c 6cf2 a9bd 4845 43bd 67dc ef3c
000000e0: ace4 9ebd db37 993c 55e7 3bbd 723f 36be
000000f0: 0ba6 2b3d e3ec a33b 384a 0e3d f89e 25be
00000100: 5160 073e 5246 cf3d e399 b6bd ec5d fc3d
00000110: e9e0 e93c 5617 a4bd c3f0 96bd 9d95 88bd
00000120: 4710 3ebd 1b15 48bc 084d 253c 8278 f7bd
00000130: 6203 b43c 612d 2b3e 35c5 0abe 5101 cb3d
00000140: f7c8 8b3d f2df 603d 91eb 333e e7d6 f03d
00000150: 9ddc a6bc e00d 1f3e c323 3c3d 3484 9d3d
00000160: 7207 803d 29e0 a73d 3269 1fbd e15b 053a
00000170: ee56 0dbe 5dbc 43bd e1fe 153e 4ce8 cebd
00000180: f2ca 753d 75a0 2cbe 052d 0cbe 7ebd cbbd
00000190: 80c2 603a a50c 8f3d b9f3 2e3d a358 b8bd
000001a0: 2ce0 e83d 46fc 893d 1c2b 0abe 4216 84bd
000001b0: 0f64 bdbd e0f7 8a3d 46d8 dfbd cfa7 0f3e
000001c0: 2f80 6ebb 8800 b13d 4b35 f3bd 4e51 023e
000001d0: 02e4 c1bb 81c3 fdbd b5aa 28be 4199 793b
000001e0: 519b cf3d 54f3 81bd a8a4 b6bd 30d3 d7bd
000001f0: 4f0a e43d 0dcb 9b3d 3bf8 c1bc b9ad b2bd
00000200: 3e52 b5bc 71d5 00be 9a49 d4bc 6c18 a73d
00000210: f34c abbd 3bff fd3d dd17 f63d 6dc4 9ebd
00000220: 0147 8d3d 2921 203e dfba a23c d745 a13d
00000230: 9cd4 6fbc be0e 303c 5718 bf3d 6a8c f93c
00000240: 5006 bb3d 7c97 1e3e b76e b2bd 666c bebc
00000250: 56b3 153c 0209 273e 79d4 133e d655 a4bd
00000260: a9be 7a3d 92c0 33be d306 08be 6933 20be
00000270: 5d4d de3d 3d25 b1bd e731 c13d f81e ff3d
00000280: 7230 553c bbfc fbbc d35d 1ebd 3b18 cebd
00000290: 42a4 47be c8d2 f23d a74e 5f3d 9721 2ebd
000002a0: 9890 febd 4704 03be a1ad ffbb 1c1c c5bd
000002b0: c767 b23c 3545 7bbd 9c20 ac3d 2aad b3bd
000002c0: 740e 333e dc3d b23d a6ba a03d bbc0 413c
000002d0: 9355 523c 6271 fd3d 88d1 bbbd 8e91 05be
000002e0: 2446 bbbc 97bf e5bd 953b aa3d 9b3c 7e3d
000002f0: 4e85 643c 1062 fbbd 69dd b23c e022 ad3d
00000300: 002f 043e 8e33 19bc fb53 09be bf1f 8f3d
00000310: 36ea a33c c77c 933d 94ac a23d c319 3bbe
00000320: fe9d 28be 0166 3abe 1c85 d73d 4774 9dbd
00000330: 25d4 4d3e 2e2e 553e 382a cabd bf89 1c3e
00000340: ad82 e9bd 2525 98bd bfa7 67bc 37ad 243c
00000350: f42b a33d ea87 f9bd 66a9 9fbd 4df1 fc3d
00000360: c6bc be3d d6c4 26be 40bf 323e e247 583e
00000370: e2a0 ffbc 0477 4abd 08fd ab3d f23f 87bd
00000380: 153d 4cbd 3c5f 96bc abd8 dbbd 8d78 a93d
00000390: 4f56 5fbd ec0e 103e 1035 e5bd 0445 283e
000003a0: 1ed6 2bbe c732 133e be7a 9abd 7ce0 263d
000003b0: 9ad7 f6bd ea2b 0fbe 870d c13d 9871 8d3b
000003c0: 338e 283e 8ef1 11bc 9d41 ff3d 812a 1fbe
000003d0: 5b1f 7f3d 510f febd d9a4 a8bd ddc6 103d
000003e0: 7b63 243e 9472 29bd 77a2 23be a573 b3bd
000003f0: 6392 053d f99f 18bc 8f64 5dbc 5698 2d3e
0.124823056 -0.113477424 -0.15276033 0.17089348 -0.00417748 0.0075487574 0.106806055 -0.08670126
-0.16921473 0.117525265 -0.13229658 0.16559255 -0.08489152 -0.16504522 -0.10545138 -0.07504858
0.08750359 -0.0735958 -0.02887885 0.042581107 -0.05793477 0.12825017 0.15149514 -0.19383089
-0.11933369 -0.08926812 0.0153691815 -0.09390651 0.061577484 0.18217771 0.15288864 -0.100489445
-0.12872551 -0.11261468 -0.098780006 -0.09688265 -0.13709594 0.11637036 -0.0043792524 0.14986004
-0.09534513 -0.07704518 0.009289195 -0.13141145 -0.040161263 -0.12997505 -0.12844965 0.042388238
-0.14561458 0.06997754 0.04444492 -0.045086216 0.028888112 -0.082981914 -0.047673494 0.0292799
-0.077584594 0.018703392 -0.045874912 -0.1779764 0.041906398 0.0050026043 0.03473875 -0.16173923
0.13220336 0.101208344 -0.0891607 0.12322602 0.028549628 -0.080122635 -0.073701404 -0.066691615
-0.046402242 -0.012212063 0.010089166 -0.12083532 0.02197427 0.1671653 -0.13551791 0.099123605
0.068254404 0.05490107 0.1757033 0.11759739 -0.020368868 0.15532637 0.045932543 0.07691231
0.0625142 0.08197052 -0.03891868 0.00050872384 -0.13802692 -0.04778706 0.1464801 -0.10102901
0.060007997 -0.16858084 -0.13689049 -0.09948252 0.00085739046 0.06984834 0.0427129 -0.09001281
0.113708824 0.067375705 -0.13493007 -0.06449558 -0.092476 0.0678556 -0.10929923 0.14028858
-0.0036392321 0.086426795 -0.11875399 0.12726328 -0.005917073 -0.12390805 -0.1647137 0.0038085731
0.10137046 -0.06345239 -0.089181244 -0.10538328 0.11134779 0.07607088 -0.023677936 -0.08724541
-0.022133943 -0.12581421 -0.025914002 0.08158955 -0.08364286 0.12402197 0.1201627 -0.07752309
0.068983085 0.1563765 0.019864498 0.07874649 -0.014638092 0.010745702 0.09330814 0.030462462
0.091320634 0.15487474 -0.087125234 -0.023245048 0.009136995 0.1631203 0.1443652 -0.080241844
0.061216984 -0.17553928 -0.13283853 -0.15644611 0.108545996 -0.08649681 0.09433346 0.12457079
0.013012039 -0.03076016 -0.038663696 -0.10063215 -0.19496253 0.118566096 0.054518368 -0.042512503
-0.12429923 -0.127946 -0.0078026806 -0.09624502 0.021778 -0.061345298 0.08404657 -0.08773263
0.17485982 0.08703205 0.078481 0.011825736 0.012837785 0.12375142 -0.09170824 -0.13043806
-0.022860594 -0.112181835 0.083121456 0.062069517 0.013947798 -0.12274563 0.021834092 0.084539175
0.12908554 -0.0093506705 -0.13410942 0.06988477 0.020009141 0.07201534 0.07943073 -0.18271546
-0.16466519 -0.18202974 0.105234355 -0.07688194 0.20100458 0.20818397 -0.09871334 0.15286921
-0.114018776 -0.0742896 -0.014139115 0.010051063 0.07967368 -0.12184127 -0.07795982 0.12350712
0.093133494 -0.16286024 0.17455769 0.21121171 -0.031204645 -0.04942991 0.08397871 -0.066039935
-0.04986294 -0.018355958 -0.107346855 0.08274946 -0.05452567 0.14068192 -0.111917615 0.16432577
-0.16780898 0.14374839 -0.075429425 0.04074143 -0.120528415 -0.13981596 0.09426408 0.00431652
0.16460495 -0.008907689 0.124636866 -0.15543558 0.062285762 -0.12405265 -0.08234567 0.0353459
0.16053574 -0.041369036 -0.15979944 -0.08762292 0.03261031 -0.009315484 -0.013512745 0.16952643

const_fold_opt__21 f4 [32, 1]
00000000: f142 a9be a59b bcbe 2048 dc3d f557 c2be
00000010: 78fb 50bd 109b 473e 2aa0 cbbb a0cd 60bd
00000020: ff2e 9bbc 0206 1f3d eef4 b3be fffd 043e
00000030: cac5 cd3d 37ab 253e 45b4 19bd 57ee 4a3d
00000040: ae4d de3c 548f 883d 118e babe b1bc 7e3d
00000050: ec93 56bd a2a1 703d 7109 a6be 846b 22bc
00000060: dfb3 223e f181 a6be b663 bb3d bcac f43d
00000070: 7f5e debd ed3b b3be 8ce1 b2be 8a91 5c3d
-0.33058885 -0.36837497 0.10755944 -0.3795773 -0.05102107 0.19492745 -0.0062141614 -0.0548836
-0.018943308 0.03882409 -0.35147804 0.12987517 0.10047491 0.16178595 -0.037525434 0.049543705
0.02713665 0.06667963 -0.36436513 0.06219167 -0.052387163 0.058747895 -0.32429078 -0.009913329
0.15888928 -0.32521012 0.09149878 0.11947009 -0.108578674 -0.35006657 -0.34937704 0.053849734
