zh/xiao_zhi.onnx (onnx, 206871 bytes, 9 tensors)

model_8/tf.math.multiply_22/Mul/y f4 [1, 32]
0	0x3fa7aea3	1.310017
1	0x3f7e730d	0.99394304
2	0x3f9c9cd7	1.2235364
3	0x3f7f8072	0.99805367
4	0x3f7d9af2	0.9906455
5	0x3f7f7359	0.9978538
6	0x3f82b14c	1.0210357
7	0x3f7f905a	0.9982964
8	0x3fb5154a	1.4147122
9	0x3f8a5fd9	1.08105
10	0x3fa4b2b3	1.2867035
11	0x3f9c284f	1.2199801
12	0x3fa1b76d	1.2634102
13	0x3fa29594	1.2701898
14	0x3f83a2c1	1.0284044
15	0x3f8ab164	1.0835385
16	0x3f80b752	1.0055945
17	0x3f88a1a6	1.0674331
18	0x3f7f443f	0.9971351
19	0x3f809dae	1.004812
20	0x3f8b811b	1.0898775
21	0x3f805a82	1.0027621
22	0x3f909dca	1.1298153
23	0x3f85defb	1.0458673
24	0x3f81938f	1.0123156
25	0x3f82c8e7	1.021756
26	0x3f835656	1.0260723
27	0x3fa18f36	1.262183
28	0x3f9d3b78	1.2283773
29	0x3f9db33f	1.2320327
30	0x3f8aa738	1.0832281
31	0x3f824a54	1.0178933

model_8/tf.math.multiply_10/Mul/y f4 [1, 32]
0	0x3f823ab3	1.0174164
1	0x3f7e650d	0.9937294
2	0x3f7f45d6	0.99715936
3	0x3f7f328d	0.9968651
4	0x3f7b0d73	0.98067397
5	0x3f8066c8	1.0031366
6	0x3f805579	1.0026084
7	0x3f7f03ab	0.9961497
8	0x3f7ddf33	0.991687
9	0x3f7f76d4	0.9979069
10	0x3f7f71c0	0.99782944
11	0x3f7e5034	0.9934113
12	0x3f7ef36c	0.9959018
13	0x3f81c7b6	1.0139072
14	0x3f7f983b	0.9984166
15	0x3f7f559a	0.9973999
16	0x3f84c132	1.0371459
17	0x3f80fa69	1.0076419
18	0x3f7ca083	0.9868242
19	0x3f7f27b2	0.99669945
20	0x3f7f5fb4	0.99755406
21	0x3f80e903	1.007111
22	0x3f807d2d	1.0038201
23	0x3f73bb32	0.9520751
24	0x3f81a168	1.0127382
25	0x3f809e79	1.0048362
26	0x3f7b3907	0.9813389
27	0x3f795bf3	0.9740593
28	0x3f794423	0.97369593
29	0x3f825eff	1.018524
30	0x3f81922f	1.0122737
31	0x3f6bc678	0.92099714

model_8/tf.math.add_5/Add/y f4 [1, 32]
0	0x3e8b1501	0.27164462
1	0xbca95184	-0.020668752
2	0x3e6c57f5	0.23080428
3	0xbb0bd8ea	-0.0021339008
4	0xbc007807	-0.007841117
5	0xbc4ec541	-0.012620271
6	0x3b15a11b	0.0022831622
7	0xbb070447	-0.0020601915
8	0x3ea17c98	0.3154037
9	0x3d794aa9	0.060862217
10	0x3e867109	0.26258114
11	0x3e727478	0.23677242
12	0x3e828b23	0.25496778
13	0x3e841998	0.25800776
14	0x3cc317d3	0.023815071
15	0x3d1a40a5	0.037659306
16	0x3cacedd0	0.021109492
17	0x3cc30a48	0.023808613
18	0xbbd659d3	-0.0065414696
19	0x3bd86155	0.0066033998
20	0x3d75f439	0.060047362
21	0x3b26ed93	0.0025471195
22	0x3da251c0	0.07925749
23	0x3c96f6c9	0.018428223
24	0x3c8a1f90	0.016860753
25	0x3c78361b	0.0151496185
26	0x3cd920c8	0.02650489
27	0x3e7da996	0.24771723
28	0x3e6fd0d9	0.23419513
29	0x3e72efd9	0.23724307
30	0x3d74cf8e	0.059768252
31	0x3c667e00	0.014068127

model_8/tf.math.add_2/Add/y f4 [1, 32]
0	0x3acf224f	0.0015803071
1	0xbb270769	-0.0025486595
2	0xbc30cdbf	-0.010791241
3	0x3c7ba536	0.015359214
4	0xbaf06c2e	-0.0018342787
5	0x3d400e32	0.046888538
6	0x3bcac2df	0.006187781
7	0xbbfbd2a5	-0.007685023
8	0xbbe8da0f	-0.0071060727
9	0x3c23a56f	0.009988173
10	0xbc241100	-0.010013819
11	0xbbe249ca	-0.006905769
12	0x3c40993f	0.011755287
13	0x3d16bb12	0.036799498
14	0xbc224b83	-0.009905699
15	0xbc42c109	-0.0118868435
16	0xbc4569cc	-0.01204915
17	0xbbcfd41b	-0.0063424236
18	0x3c407d85	0.011748676
19	0xbba4ee20	-0.0050332695
20	0x3a726e7b	0.000924803
21	0x3b6b4b5e	0.0035903077
22	0x3d070ad2	0.032969303
23	0xbc7596ee	-0.014989598
24	0xbb80a67b	-0.003926096
25	0x3c698351	0.0142525
26	0x3bee5825	0.0072736912
27	0x3be106f9	0.0068672863
28	0x3be0b7f4	0.0068578664
29	0x3c450e0c	0.012027275
30	0x3c5f1eb6	0.013618162
31	0x3b895aa2	0.0041917125

model_8/tf.__operators__.add_1/AddV2/y f4 [32]
0	0xbdd21b3c	-0.10259101
1	0x3dc82b37	0.097738676
2	0x3e3816e9	0.1797749
3	0x3da76198	0.081729114
4	0x3da9ddc2	0.0829425
5	0xbba5387d	-0.0050421343
6	0xbd83de26	-0.06438856
7	0x3e12685c	0.14297622
8	0x3de61738	0.112348974
9	0xbcde0c83	-0.027105575
10	0x3d7b07a8	0.0612866
11	0xbda531b0	-0.08066118
12	0x3e17f9b2	0.14841345
13	0x3e33108f	0.17486785
14	0x3d6dbdf5	0.058042485
15	0x3d4fc227	0.050722267
16	0xbccadd12	-0.024763618
17	0x3e3ecffb	0.18634026
18	0xbdf1b7a4	-0.11802605
19	0x3cbb1e2f	0.022841541
20	0x3dbba82c	0.091629356
21	0xbdf08cee	-0.1174563
22	0xbe06fea3	-0.13183074
23	0xbe26891f	-0.16263245
24	0xbe16b9c5	-0.14719303
25	0x3e1f90dd	0.15582605
26	0xbe0a10b2	-0.13482931
27	0x3d7f8b34	0.062388614
28	0xbdb4ab83	-0.08821776
29	0x3e143b21	0.14475681
30	0x3e1c28f7	0.15250002
31	0x3d462878	0.048378438

model_8/tf.__operators__.add/AddV2/y f4 [32]
0	0x3a4e0c18	0.00078600785
1	0xbc9e5ecd	-0.019332314
2	0xbce3ce5c	-0.02780836
3	0xbc00effe	-0.007869719
4	0x3b83f9b3	0.004027569
5	0xbcb748e1	-0.022373619
6	0x3cd4707d	0.025932545
7	0x3b8b5d18	0.004253041
8	0xbbc1031d	-0.0058902637
9	0xbbd60b85	-0.006532135
10	0xbcc9354d	-0.024561549
11	0xbbd8471b	-0.0066002733
12	0xbbbfd1f8	-0.0058538876
13	0x3c6c943f	0.0144396415
14	0xba75fae0	-0.00093833916
15	0xbb97d803	-0.004633905
16	0xbcc2f0ae	-0.023796406
17	0xb89a45f0	-7.356319e-05
18	0x3af0f0e2	0.0018382336
19	0xbc19aca1	-0.009379537
20	0xbad1f598	-0.0016018627
21	0xbc9d0d90	-0.019171506
22	0xbca5bd04	-0.020231731
23	0xb9d511f9	-0.00040639917
24	0xbc305293	-0.010761875
25	0xbc29e251	-0.010368899
26	0x3cb3b7ff	0.021938322
27	0x3c633b52	0.0138691235
28	0x3cad8e0c	0.021185897
29	0xbb00aa96	-0.0019632927
30	0xbc6fa37a	-0.014626378
31	0xbbd81880	-0.0065947175

const_fold_opt__23 f4 [1536, 32]
0	0x3c830926	0.015995573
1	0x3cb1c797	0.021701617
2	0x3c581fd3	0.013191181
3	0xbcbacdd3	-0.022803223
4	0x3ce1bc3e	0.027555581
5	0x3bf30642	0.0074165175
6	0xbc4e6360	-0.012596935
7	0xbb55bdef	-0.003261443
8	0x3ca3d524	0.019999094
9	0xbc2a0ad2	-0.010378556
10	0xbc083a07	-0.008314616
11	0xbc581a75	-0.013189902
12	0x3c3178c1	0.010832013
13	0xbbf58d2e	-0.0074936366
14	0xbcbf6bb9	-0.023366796
15	0xbc346d24	-0.011012349
16	0xbc00bec3	-0.007857981
17	0xbc85b65f	-0.016322313
18	0xbc3620e9	-0.011116245
19	0x3c50625d	0.012718764
20	0xb974cded	-0.00023346367
21	0x3c4c0352	0.0124519635
22	0xbcc59b4a	-0.0241219
23	0xbc235731	-0.0099695185
24	0xbc8e0303	-0.01733542
25	0xbc088a5f	-0.0083337715
26	0xbcc8a0f6	-0.024490815
27	0x3ba31299	0.0049765822
28	0x3cb7719a	0.022393037
29	0xbbbe9acb	-0.0058167926
30	0x3c3ef91a	0.01165607
31	0x3c3b6ae7	0.011439062
32	0x3c683916	0.014173767
33	0x3c6da620	0.014504939
34	0xbc8be8a1	-0.0170787
35	0x3bc89c83	0.0061221733
36	0xbbecfede	-0.007232531
37	0x3b191868	0.0023360495
38	0x3ccd93e3	0.025094932
39	0x3c3eb24a	0.011639187
40	0x3c63141f	0.013859778
41	0xbc454db2	-0.01204245
42	0x3c186bdc	0.009303059
43	0x3cd26ccb	0.025686642
44	0xbc0b4b6e	-0.008501871
45	0xbc92467c	-0.017855875
46	0x3cbda97e	0.02315211
47	0x3c3fadd4	0.011699159
48	0xbc7bbd59	-0.015364968
49	0xbacd391e	-0.0015657281
50	0xbc7483a5	-0.014923965
51	0x3ce19b08	0.027539745
52	0xbc353319	-0.011059546
53	0xbcad487e	-0.021152731
54	0xbb59d0c4	-0.0033236006
55	0xbbf6558e	-0.007517523
56	0x3cdbd68e	0.026835706
57	0x3cd09bd0	0.025464922
58	0x3c450ab8	0.012026481
59	0xbc19d070	-0.009388074
60	0xbc9136d1	-0.017726334
61	0xbc2d5360	-0.01057896
62	0x3bf0c7b5	0.0073480257
63	0x3b99d95d	0.004695101
64	0x3cdc324f	0.026879458
65	0xbb83273c	-0.00400248
66	0xba745148	-0.0009319973
67	0x3cb270d4	0.021782316
68	0xbd0d4c94	-0.03449686
69	0xbc673c95	-0.014113565
70	0x3c8fa7e4	0.017536111
71	0x3ae780e9	0.001766232
72	0x3c9178ba	0.017757762
73	0xbc3605ae	-0.011109753
74	0x3c471010	0.012149826
75	0x3c535c46	0.012900418
76	0xbca8abab	-0.02058967
77	0x3c80f20e	0.01574042
78	0xba72918e	-0.0009253257
79	0x3cae9df1	0.021315547
80	0x3b600e9b	0.0034188393
81	0xbca812ad	-0.020516718
82	0xbcbb38f2	-0.022854302
83	0x3c56271b	0.013070847
84	0xbcaa7c91	-0.020811351
85	0xbc081a72	-0.008307086
86	0x3c5fc524	0.013657842
87	0x3c513691	0.012769357
88	0x3c2a29e6	0.010385966
89	0x3c5ecfcc	0.013599347
90	0x3cda3411	0.026636155
91	0xbc90f8da	-0.017696787
92	0xbc20e5ef	-0.009820445
93	0x3c3fa116	0.011696121
94	0xbbf8a951	-0.0075885435
95	0x3c2d2448	0.010567732
96	0xbd1fbde5	-0.038999457
97	0xbd77ef0b	-0.060530704
98	0xbd248b59	-0.040171955
99	0xbbb8f4b1	-0.005644404
100	0xbcee759c	-0.029108815
101	0xbd049cf9	-0.032376263
102	0x3c9a3244	0.018822797
103	0xbcd6c016	-0.02621464
104	0xbcf93844	-0.030422337
105	0x3cb54d19	0.02213149
106	0xbd024166	-0.03180065
107	0xbd0900ff	-0.033448216
108	0xbcf60741	-0.030032756
109	0x3cc4c356	0.024018925
110	0x3b81e4d3	0.0039640456
111	0xbc04e91c	-0.008112218
112	0xbd48c9cd	-0.049020577
113	0xbbf90bf2	-0.007600301
114	0x3c8e3a29	0.017361717
115	0xbcc3b3f3	-0.023889517
116	0xb9bfd5f0	-0.00036589755
117	0x3cb5591b	0.022137215
118	0x39f4e67f	0.0004671104
119	0xbcbeac99	-0.02327566
120	0xbd37a521	-0.044835214
121	0xbd5eea23	-0.05442251
122	0xbb043153	-0.0020171
123	0x3ca0895d	0.01959675
124	0x3c112755	0.008859475
125	0x3cdd1166	0.026985835
126	0x3b3a710b	0.0028448727
127	0x3b8565a9	0.0040709567
128	0x3be7f1a7	0.0070783678
129	0x3cc112dc	0.023568563
130	0x3ba4ff14	0.0050352905
131	0x3c2c0199	0.010498428
132	0xbc1f25d8	-0.0097136125
133	0x3d04c187	0.032411125
134	0x3bc0c5dc	0.0058829617
135	0xbcaea946	-0.02132095
136	0x3b3ec1d9	0.0029107241
137	0xbc85227b	-0.016251793
138	0x3b2de824	0.0026536072
139	0x3c9eed5a	0.019400287
140	0x3d1c8754	0.038214996
141	0xbc9b3006	-0.018943798
142	0x3c0bde09	0.008536824
143	0x3c3e42af	0.011612578
144	0x3ce6c973	0.02817223
145	0x3c59688f	0.013269558
146	0xbb9c4eeb	-0.00477015
147	0x3c42e934	0.01189642
148	0xbba1e204	-0.0049402732
149	0xbb8433f9	-0.004034516
150	0x39c53789	0.00037616145
151	0xbb018794	-0.0019764649
152	0xbc026157	-0.007957778
153	0x3c75d6be	0.015004812
154	0xbc59a197	-0.013283155
155	0xbc072114	-0.0082476325
156	0xbc1dde10	-0.009635463
157	0xbc2e03df	-0.01062104
158	0x3bfaa6ee	0.007649294
159	0x3ca24c7c	0.019811861
160	0x3bb01892	0.0053740228
161	0xbc464861	-0.012102217
162	0xbc3fb349	-0.01170046
163	0x37cafc52	2.4197772e-05
164	0xbcdf6370	-0.027269095
165	0x3c770070	0.015075788
166	0xbc9e5147	-0.019325865
167	0xbc80b551	-0.015711458
168	0xbcccb45c	-0.024988346
169	0xba9bf479	-0.001189842
170	0xb8dd311d	-0.00010547249
171	0x3cc1a433	0.023637867
172	0x3ba4be43	0.005027564
173	0x3cb7c06a	0.022430617
174	0xbbfdf05f	-0.0077496017
175	0x3cbfaba2	0.02339727
176	0x3caff233	0.021477794
177	0x38cfe98f	9.914033e-05
178	0xb96b46a4	-0.00022437662
179	0x3ccac09f	0.024750052
180	0x3c02f1ee	0.007992251
181	0x3a2eba50	0.0006665336
182	0x3c4f9d1c	0.012671735
183	0x3c6defa2	0.014522465
184	0xbc79dfe2	-0.015251132
185	0xbc98beef	-0.018645732
186	0x38e05961	0.000106978005
187	0x3bdf8535	0.0068212994
188	0xbbcdd034	-0.0062809233
189	0x3cacfbb4	0.021116115
190	0xbc160c5b	-0.009158219
191	0x3c0201c8	0.007934995
192	0xbc961a11	-0.018322976
193	0xbac1c8c0	-0.001478456
194	0xbc9db616	-0.019251864
195	0x3ca2896e	0.019840922
196	0xbb08c372	-0.0020868448
197	0xbaea86c9	-0.0017892952
198	0xbb0a5720	-0.002110906
199	0x3c339176	0.010959974
200	0x3b9f60e3	0.0048638447
201	0x3be52c9a	0.0069938423
202	0xbc4c08a4	-0.012453232
203	0xbc5a0b52	-0.013308363
204	0x3c3d037d	0.011536476
205	0x3cbf4c9a	0.023351956
206	0xbca04db1	-0.019568296
207	0x3c8272c9	0.015923874
208	0xbb3a4226	-0.0028420775
209	0xbbe5faad	-0.0070184083
210	0x3c8aa06b	0.016922196
211	0xbc3f1943	-0.011663738
212	0x3c657111	0.014004008
213	0xbcc1875f	-0.02362412
214	0xbc6da245	-0.01450402
215	0x3cba0fe1	0.02271265
216	0xbc7eecd5	-0.015559395
217	0x3c36859c	0.011140253
218	0xbc84af46	-0.016196858
219	0x3c88aa15	0.016682664
220	0x3ca943c2	0.020662192
221	0x3c1ca50a	0.009560833
222	0xbc7bcdd3	-0.015368897
223	0x399abb0a	0.00029512524
224	0xbc3fcdec	-0.01170681
225	0xbbc3eec1	-0.0059793894
226	0x3c8ea0f5	0.017410735
227	0x3cc19376	0.023629885
228	0x3cbca2bc	0.023026817
229	0xba100871	-0.0005494422
230	0x3c45abbc	0.01206487
231	0x3ca3f04c	0.020012043
232	0x3c972083	0.01844812
233	0xbc97367e	-0.018458601
234	0x3cb6e39e	0.022325333
235	0xbc81f428	-0.015863493
236	0xbcbe61c6	-0.023239981
237	0x3c879532	0.016550634
238	0x3bd3cb8e	0.0064634746
239	0x3c7af80f	0.015317931
240	0x3c2fee71	0.010738001
241	0x3bfd7c46	0.007735762
242	0xbb3c81a4	-0.0028763795
243	0xbb866ae8	-0.0041020997
244	0xbc385319	-0.011250281
245	0x3c543c89	0.012953886
246	0xbc00e830	-0.007867858
247	0x3c8dabbd	0.017293805
248	0x3cbd6355	0.023118654
249	0x3b82c729	0.003991027
250	0xbcc29ae0	-0.02375549
251	0x3c806618	0.015673682
252	0x3be56df1	0.0070016314
253	0xbc9a98a2	-0.01887161
254	0xbbb3aa5c	-0.005482955
255	0xbcbf8bad	-0.023382032

const_fold_opt__22 f4 [32, 32]
0	0x3e0a31e8	0.134956
1	0xbd701098	-0.058609575
2	0xbe47edeb	-0.19524352
3	0x3e01de56	0.1268247
4	0xbdfc8cd8	-0.12331551
5	0x3da83319	0.08212871
6	0x3e2ef197	0.17084347
7	0x3d96b8a8	0.07359439
8	0xbd31325c	-0.043260917
9	0x3e27684f	0.16348384
10	0x3e1b5516	0.15169176
11	0x3d61ac8b	0.05509619
12	0x3de9b2a9	0.1141103
13	0x3d64e7d5	0.055885155
14	0x3d46c3ea	0.048526682
15	0xbdaf30e2	-0.085542455
16	0xbdc73283	-0.09726431
17	0xbcf783b3	-0.030214166
18	0x3d8abf28	0.067747414
19	0xbddefcc6	-0.108880565
20	0x3e431776	0.19051918
21	0x3e099fc3	0.1343985
22	0x3e24e51b	0.16103022
23	0x3bee7ab7	0.0072778123
24	0xbc4d4883	-0.012529495
25	0x3db8588d	0.09001265
26	0x3e2c1815	0.16806062
27	0x3d94a074	0.072571665
28	0xbe08986d	-0.13339396
29	0xbd246b00	-0.040141106
30	0x3d8264ec	0.063669056
31	0xbe16db5e	-0.1473212
32	0x3dca0095	0.09863392
33	0xbe0e732b	-0.1391112
34	0xbc9862a1	-0.018601717
35	0x3d862c67	0.06551438
36	0xbdd44607	-0.10364919
37	0xbdc272a5	-0.09494523
38	0x3e29bdd3	0.16576318
39	0xbe2995c4	-0.16561037
40	0x3e053d0a	0.13011566
41	0x3de86091	0.113465436
42	0xbdb2b1e6	-0.08725338
43	0xbe0efac2	-0.13962844
44	0xbda7d004	-0.08193973
45	0xbdad5bd7	-0.08464783
46	0xbd9152be	-0.0709586
47	0x3df25d34	0.11834183
48	0x3e155075	0.14581473
49	0x3d88dd3b	0.06682821
50	0xbe11f846	-0.14254865
51	0x3e28565b	0.16439192
52	0xbd631270	-0.055437505
53	0x3e132495	0.14369424
54	0x3de247f2	0.11048879
55	0x3e0f2cb4	0.13981897
56	0xbd816eaf	-0.06319939
57	0x3d1dade1	0.038495902
58	0xbc0fb02c	-0.00877003
59	0x3db008da	0.08595438
60	0xbd955a4c	-0.072926134
61	0x3e07f3c1	0.13276578
62	0xbc89c9b0	-0.016819805
63	0x3df0c21a	0.11755772
64	0x3e0dd3f0	0.13850379
65	0xbe2eebf9	-0.17082204
66	0x3b62aefd	0.0034589164
67	0x3e09d63a	0.13460627
68	0x3ddebc7f	0.108757965
69	0x3e1de1a8	0.15418112
70	0x3d023a20	0.031793714
71	0x3d5bf646	0.05370166
72	0xbd947d00	-0.07250404
73	0xbe20b20b	-0.15692918
74	0x3c17402c	0.009231608
75	0xbd5a8300	-0.053347588
76	0x3d6d4381	0.057925705
77	0x3e0a983a	0.13534632
78	0x3cd0a97e	0.025471445
79	0xbd716d82	-0.058942325
80	0xbc80604a	-0.015670914
81	0x3da9466a	0.082653835
82	0x3e1b9649	0.15194048
83	0x3e2a42ef	0.16627096
84	0xbba82bf5	-0.005132193
85	0x3e3501b9	0.17676438
86	0xbde33f4c	-0.11096057
87	0x3e186e35	0.1488579
88	0xbdd24b96	-0.10268323
89	0xbdc309ff	-0.09523391
90	0xbcf99f6f	-0.030471532
91	0x3b354604	0.002766014
92	0xbd6624d2	-0.05618746
93	0x3cd9df64	0.026595779
94	0x3d7b410c	0.06134133
95	0x3e1e392a	0.15451494
96	0xbd85f86d	-0.06541524
97	0xbdea8529	-0.114511795
98	0x3c6269b1	0.013819144
99	0xbe054379	-0.1301402
100	0x3e2ae60a	0.16689315
101	0x3dd84592	0.105601445
102	0x3dc0ad07	0.09408002
103	0xbd5cb6a4	-0.053885117
104	0xbd7fba29	-0.062433396
105	0x3dea5260	0.11441493
106	0xbc0d39c6	-0.008619731
107	0x3b02e739	0.0019974245
108	0xbc4f943d	-0.01266962
109	0xbdb895f5	-0.09012977
110	0xbd9db9f4	-0.07701483
111	0x3cc9fa4c	0.024655484
112	0xbdc67c29	-0.096916504
113	0x3e16f190	0.14740586
114	0x3e20bf68	0.15698016
115	0x3dcee00a	0.10101326
116	0x3c227201	0.009914876
117	0xbdb4421d	-0.088016726
118	0x3e5ce237	0.21570669
119	0x3e242620	0.16030169
120	0x3c0315ca	0.0080008
121	0xbdcc7c7c	-0.09984681
122	0xba6a73a6	-0.00089436246
123	0xbd6e84c7	-0.058232095
124	0x3e1cad92	0.15300587
125	0xbdf00f51	-0.117216714
126	0x3dc9a4ce	0.09845887
127	0x3e416468	0.18885958
128	0x3e059b3f	0.13047503
129	0x3e10d944	0.1414538
130	0x3cafbd66	0.021452617
131	0xbe098683	-0.13430218
132	0xbce9da44	-0.02854646
133	0x3e262aa8	0.1622721
134	0xbdde210b	-0.10846146
135	0xbde2a096	-0.110657856
136	0x3e10e32e	0.14149162
137	0x3d9a5c6a	0.07537158
138	0xbd93e656	-0.072216675
139	0x3dd3f394	0.10349193
140	0x3e26772f	0.16256402
141	0xbc769221	-0.015049488
142	0x3e0fe664	0.14052731
143	0x3e236d47	0.15959655
144	0xbe07021c	-0.13184398
145	0xbd6b2da0	-0.05741656
146	0xbd8e31aa	-0.069430664
147	0x3d8eb0da	0.069673255
148	0x3c2c42f3	0.010514009
149	0x3d8b2b75	0.06795398
150	0x3e188a40	0.14896488
151	0x3e3d8c0d	0.18510456
152	0xbe0a32d3	-0.1349595
153	0x3d79bf19	0.06097326
154	0x3dbf7c86	0.09349923
155	0xbd99c6f9	-0.07508654
156	0xbdd21075	-0.10257045
157	0x3db48b40	0.08815622
158	0x3e2a9fd8	0.16662538
159	0x3d7d53a9	0.061847363
160	0xbd551ee9	-0.05203143
161	0x3e029473	0.12751941
162	0xbd2cb2fd	-0.042162884
163	0x3d8475ec	0.06467804
164	0xbc83e8c4	-0.016102202
165	0xbe10fb3d	-0.1415834
166	0x3e06d923	0.13168769
167	0xbe8595a2	-0.26090723
168	0x3de33bda	0.110954
169	0x3db5c125	0.0887473
170	0x3d7608a0	0.06006682
171	0x3dde4857	0.108536415
172	0x3e15bf3b	0.1462373
173	0xbdb238f1	-0.08702267
174	0xbe5f5610	-0.21810174
175	0x3d60ed58	0.05491385
176	0x3dcb7208	0.09933859
177	0x3e90a03d	0.28247252
178	0xbd26f34e	-0.040759377
179	0xbd4f60a9	-0.05062929
180	0x3e892cbd	0.26791945
181	0xbc93a14a	-0.018021245
182	0x3dcd1d69	0.10015375
183	0x3e27ee27	0.16399442
184	0xbcce35ae	-0.02517208
185	0xbd239bba	-0.039943434
186	0xbe1a6c1c	-0.15080303
187	0x3d99f078	0.07516569
188	0x3e056267	0.13025819
189	0x3d39b8a4	0.045342103
190	0x3e8ee8c7	0.2791197
191	0xbe78839c	-0.24268955
192	0x3ce8613f	0.028366683
193	0x3d25769e	0.040396325
194	0xbc8cb2dc	-0.01717513
195	0x3e03f1bf	0.12885188
196	0x3d9ad8ab	0.075608574
197	0xbe1c04de	-0.15236232
198	0xbd832212	-0.06402983
199	0x3c3d6f97	0.01156225
200	0x3da43cbf	0.08019399
201	0x3b5c1b9c	0.0033585792
202	0x3e073ee6	0.13207588
203	0x3d93a648	0.0720945
204	0xbdb2b4fc	-0.08725926
205	0x3e36788f	0.17819427
206	0xbdc65dd5	-0.09685866
207	0x3c9701c1	0.018433454
208	0x3e06640c	0.13124102
209	0xbd9599f0	-0.07304752
210	0xbe0dd54e	-0.138509
211	0xbe088da4	-0.13335282
212	0xbd58c3a0	-0.052920938
213	0x3e20ef0a	0.15716186
214	0xbdc5fc7a	-0.09667297
215	0x3d762529	0.060094032
216	0x3e02698a	0.12735572
217	0xbe094a05	-0.13407142
218	0x3b6ffede	0.0036620419
219	0x3e378ad2	0.1792405
220	0xbd5e9553	-0.054341625
221	0x3dc2de49	0.09515054
222	0x3db19a81	0.086720474
223	0xbcf6dd23	-0.030134743
224	0xbc7f9b02	-0.015600922
225	0x3e1f4474	0.15553457
226	0xbe05bb12	-0.13059643
227	0x3d9742c5	0.07385782
228	0xbd8ab1cd	-0.06772194
229	0xbd6e1d44	-0.05813338
230	0xbce56e54	-0.02800671
231	0xbd10484f	-0.03522521
232	0xbd7cf531	-0.06175727
233	0x3df395e8	0.11893827
234	0xbe161be5	-0.14659078
235	0xbe0e3e6e	-0.13891003
236	0x3bb83d67	0.005622554
237	0x3db4c5c7	0.088267855
238	0x3e244893	0.1604331
239	0x3d9f485a	0.07777472
240	0xbcbca07d	-0.023025746
241	0x3e2d5edd	0.16930719
242	0xbb6f9359	-0.0036556332
243	0x3dac4ca6	0.08413057
244	0x3c7c2f1c	0.015392091
245	0x3d1ff6d4	0.039053753
246	0x3d258bc9	0.040416513
247	0xbe215c7b	-0.15757935
248	0x3ddb1501	0.106973656
249	0xbe0b9aec	-0.13633317
250	0xbe0eef80	-0.1395855
251	0x3c787cd9	0.015166485
252	0x3e122549	0.14272036
253	0x3e170658	0.14748514
254	0xbbc072d1	-0.005873062
255	0xbc11eee8	-0.008907057

const_fold_opt__21 f4 [32, 1]
0	0xbea1ee32	-0.3162704
1	0x3de79354	0.113073975
2	0xbeb8df65	-0.36107937
3	0x3da96ebe	0.082730755
4	0xbdd043ef	-0.10169207
5	0xbcd2ad81	-0.025717499
6	0x3e0629a9	0.1310183
7	0x3d1060ea	0.035248674
8	0xbead252b	-0.3381742
9	0x3dc9009d	0.0981457
10	0xbea55dfa	-0.3229826
11	0xbeade4d4	-0.33963645
12	0xbe9b5653	-0.30339298
13	0xbe9c0b4d	-0.30477372
14	0x3dfcaa82	0.12337209
15	0x3e443f68	0.19164813
16	0x3c8bfd28	0.017088488
17	0x3e64afaf	0.22332643
18	0xbbfaa875	-0.007649476
19	0x3cbefc37	0.023313625
20	0x3e568a6d	0.20951243
21	0xbd841b2f	-0.06450497
22	0x3e38def3	0.18053798
23	0x3dc869e9	0.09785826
24	0xbd086f1f	-0.0333091
25	0x3e450f5c	0.1924414
26	0x3de980e0	0.11401534
27	0xbead7c45	-0.33883873
28	0xbebc039d	-0.36721507
29	0xbead58a4	-0.3385669
30	0x3e256fdd	0.16155954
31	0x3d02bc3a	0.031917788
