lisa/Lisa.tflite (tflite, 206380 bytes, 9 tensors)

Const_1 f4 [32]
0	0x3ce3cf90	0.027808934
1	0x3c4c827f	0.012482285
2	0x3c5c4cd0	0.013446048
3	0xbbd68e2c	-0.00654771
4	0x3c2bf838	0.010496192
5	0xbb37c643	-0.0028041757
6	0xbb2d3a52	-0.0026432467
7	0xba960f96	-0.0011448737
8	0x3c3802f1	0.01123117
9	0xbbcd7ee6	-0.006271231
10	0x3c56675d	0.013086167
11	0xbc40ddfe	-0.011771677
12	0xbce49d37	-0.027906997
13	0xbcb3015d	-0.021851236
14	0x3c1188aa	0.008882681
15	0xbbb55238	-0.005533483
16	0x3b2e1b4b	0.002656656
17	0x3b847685	0.004042449
18	0xbb934e75	-0.004495437
19	0xbbd69746	-0.006548795
20	0xbb5f77bd	-0.003409847
21	0x3c798252	0.015228825
22	0x3c4ab230	0.012371585
23	0x3c938ede	0.01801246
24	0xbc522bbf	-0.012827813
25	0xbbc71bea	-0.0060763257
26	0x3be19e80	0.0068853498
27	0x3ca1d745	0.019755969
28	0x3c8b17a4	0.016979046
29	0xbcafd342	-0.02146304
30	0x3c7ea2a3	0.015541705
31	0xbc9e0b78	-0.019292578

Const_2 f4 [32]
0	0x3f82e801	1.0227052
1	0x3f82d6dd	1.0221821
2	0x3f7bd143	0.98366183
3	0x3f84e874	1.0383439
4	0x3f7d5e50	0.98972034
5	0x3f81d581	1.0143281
6	0x3f7f24fe	0.9966582
7	0x3f7cdc21	0.9877339
8	0x3f80ebb0	1.0071926
9	0x3f831b53	1.0242714
10	0x3f826a0d	1.0188614
11	0x3f7a1b8f	0.976983
12	0x3f7841e1	0.96975523
13	0x3f74f23f	0.9568214
14	0x3f7c9f7d	0.9868086
15	0x3f7f2efe	0.9968108
16	0x3f7d028e	0.98832023
17	0x3f837705	1.0270697
18	0x3f7f00ab	0.99610394
19	0x3f78de1c	0.9721391
20	0x3f8132cb	1.0093626
21	0x3f8132c5	1.0093619
22	0x3f7e2c31	0.9928618
23	0x3f7c81e6	0.9863571
24	0x3f8162c5	1.0108267
25	0x3f7e4282	0.9932023
26	0x3f793b66	0.9735626
27	0x3f7a09d1	0.9767123
28	0x3f7e81f4	0.9941704
29	0x3f7e45b0	0.99325085
30	0x3f79bae9	0.9755083
31	0x3f7c7215	0.98611575

Const_3 f4 [32]
0	0x3d0eb7e8	0.034843355
1	0x3c3f084a	0.011659691
2	0xbc6ab0b0	-0.014324352
3	0x3ca4d607	0.020121587
4	0xbc84e14f	-0.016220717
5	0x3c9b69f6	0.018971425
6	0x3bb1112a	0.0054036574
7	0xbbabcfe4	-0.0052432884
8	0x3caa4d3b	0.02078878
9	0x3c7be35a	0.015374029
10	0x3c00bd67	0.007857657
11	0x3ca9505d	0.020668203
12	0xbd21c55a	-0.03949485
13	0xbd15d3fb	-0.036579113
14	0xbc5a9776	-0.013341775
15	0xbc9e4495	-0.019319812
16	0x3c416ef4	0.011806238
17	0x3d22e663	0.039770495
18	0xbc96cdb8	-0.018408641
19	0x3c73ebbe	0.014887748
20	0x3c0089d4	0.007845361
21	0xbb902a55	-0.0043995776
22	0xbcb2424c	-0.021760128
23	0x3c8731cf	0.016503243
24	0x3c697238	0.014248423
25	0xbb861412	-0.004091748
26	0x3cbcf860	0.023067653
27	0xbcd8c3cc	-0.02646055
28	0xbc651ab2	-0.013983415
29	0xbc07afa8	-0.008281626
30	0xbc6f284d	-0.014597011
31	0xbcc3d37c	-0.023904555

Const_5 f4 [32]
0	0xbdaa9914	-0.083299786
1	0x3d1bafc7	0.03800943
2	0xbddfd1cc	-0.109286875
3	0x3d3ede6f	0.046598848
4	0x3ddb9877	0.1072244
5	0x3dbcbb62	0.09215428
6	0x3e3079ff	0.17234038
7	0xbc4356cd	-0.01192255
8	0x3ddec41e	0.1087725
9	0x3d8eb403	0.06967928
10	0xbcd623b5	-0.026140073
11	0x3d6e6989	0.058206115
12	0x3df471c2	0.1193576
13	0xbc6029b4	-0.013681818
14	0xbc2adb8b	-0.01042832
15	0xbd8612ac	-0.0654653
16	0xbde3c089	-0.111207075
17	0x3dff8470	0.12476432
18	0xbe0b5991	-0.13608386
19	0xbe310bd4	-0.17289668
20	0x3c47c612	0.01219322
21	0xbdca0667	-0.098645024
22	0x3c6fe9fe	0.01464319
23	0x3e284d62	0.16435769
24	0xbdfbd3d5	-0.12296263
25	0xbe11d872	-0.14242724
26	0xbc91461a	-0.017733622
27	0x3d804381	0.06262875
28	0xbdf58570	-0.11988342
29	0x3d6809fa	0.05665014
30	0xbca969c8	-0.020680323
31	0xbdeb249f	-0.11481594

Const_6 f4 [32]
0	0x3f7deb4c	0.9918716
1	0x3f920b50	1.1409702
2	0x3f85b2d5	1.04452
3	0x3f832da3	1.0248302
4	0x3f80eb21	1.0071756
5	0x3f818b03	1.0120548
6	0x3fb8d61f	1.4440345
7	0x3f8ebcc4	1.1151357
8	0x3f8456a9	1.0338947
9	0x3fa36656	1.2765605
10	0x3fa4c3d2	1.287226
11	0x3f873040	1.05616
12	0x3f85614f	1.0420321
13	0x3fa10af9	1.2581474
14	0x3f93b775	1.1540362
15	0x3f9fe750	1.2492466
16	0x3f8509de	1.0393636
17	0x3f9ab4c6	1.2086418
18	0x3f8a0bca	1.0784848
19	0x3f7b9f76	0.98290193
20	0x3f82630a	1.0186474
21	0x3f8288c7	1.0197991
22	0x3f8169f8	1.0110464
23	0x3f806c79	1.0033103
24	0x3f9d0bce	1.2269228
25	0x3fb8e8be	1.4446027
26	0x3f95ae13	1.1693748
27	0x3f8ee30d	1.116304
28	0x3f7525e1	0.95760924
29	0x3f82a12d	1.0205437
30	0x3f802aaa	1.001302
31	0x3f7fb9bb	0.9989278

Const_7 f4 [32]
0	0xbbefb246	-0.007314953
1	0x3d18fdaf	0.037351307
2	0x3b106483	0.0022032566
3	0x3c73f279	0.014889353
4	0xbc9ffd09	-0.019529836
5	0x3c400ad3	0.011721331
6	0x3eaefb18	0.34175944
7	0x3db7174a	0.08939989
8	0x3ce986be	0.028506633
9	0x3e899240	0.26869392
10	0x3e87eceb	0.26547942
11	0x3d37d715	0.044882853
12	0x3d03b674	0.032156423
13	0x3e80de36	0.25169533
14	0x3da48885	0.080338515
15	0x3e7cbd33	0.24681549
16	0x3dc0213a	0.093813375
17	0x3e742716	0.23843035
18	0x3c7b3aa9	0.01533381
19	0xbc3d857c	-0.01156747
20	0x3d87c066	0.06628494
21	0x3c7e79cc	0.015531968
22	0x3cdb8d45	0.026800761
23	0xbb8af229	-0.0042402935
24	0x3e75ad76	0.23991951
25	0x3eafb142	0.34314924
26	0x3d981b32	0.07427062
27	0x3d97668b	0.073926054
28	0xbd6756e2	-0.056479342
29	0x3c87c2c3	0.016572362
30	0x3b80058c	0.0039069112
31	0xbc112907	-0.008859879

MatMul f4 [32, 1536]
0	0xbba5d917	-0.0050612795
1	0x3c8142dc	0.015778951
2	0x3d17920c	0.037004516
3	0x3d3bcbe1	0.04584873
4	0xbc4692d4	-0.0121199675
5	0xbc48f7a7	-0.012266076
6	0x3ca95616	0.020670932
7	0xba88b2d4	-0.0010429271
8	0x3cb064d0	0.021532446
9	0xbb8da27a	-0.004322347
10	0x3c6d7a6c	0.01449452
11	0xbc6dbaab	-0.014509837
12	0xbcb60108	-0.022217289
13	0x3aa4b446	0.0012565933
14	0xbc2deb99	-0.010615253
15	0x3c411380	0.011784434
16	0x3c327209	0.010891446
17	0xbc25aa92	-0.010111468
18	0x3c073722	0.008252891
19	0xbcbf38de	-0.023342546
20	0xbc23b2ab	-0.009991328
21	0x3c8af7cc	0.016963862
22	0xbc1b7729	-0.009488859
23	0xbc56d4b4	-0.013112236
24	0x3c869d20	0.016432345
25	0x3b79734c	0.0038063107
26	0xbc99e01a	-0.018783618
27	0xbbb68400	-0.005569935
28	0x3cce2fe9	0.02516933
29	0x3c020942	0.007936778
30	0x3b9ef927	0.0048514786
31	0x3bdece11	0.0067994674
32	0xbcf33a1b	-0.029690793
33	0xbd0396ca	-0.032126226
34	0x3b20c886	0.0024533584
35	0x3ba66c72	0.0050788457
36	0xbc6b3cd1	-0.0143577615
37	0x3ca5059c	0.020144276
38	0xbcf8c4f3	-0.03036735
39	0x39fa3537	0.00047723364
40	0xbc013e57	-0.007888398
41	0x3b580b5d	0.0032965757
42	0xbc6ed2f2	-0.0145766605
43	0xbc1e5fcf	-0.009666397
44	0xbc865120	-0.016396105
45	0xbca0abc6	-0.019613158
46	0x3c811e7b	0.015761605
47	0xbc7b4d95	-0.015338321
48	0xbc22b85b	-0.009931649
49	0xbd005b82	-0.03133727
50	0xbbcc0366	-0.006225991
51	0x3baa999a	0.005206299
52	0x3ba6f0d9	0.0050946292
53	0x3ac7014a	0.0015182879
54	0xbc50fe2e	-0.012755914
55	0xbc86abe8	-0.016439393
56	0x3c34d566	0.011037206
57	0x3c084f94	0.008319754
58	0xbb4b350b	-0.0031006958
59	0xbc0543d1	-0.0081338445
60	0xbc4910d8	-0.012272082
61	0xbc05f36f	-0.008175715
62	0x3b471a42	0.003038064
63	0x3aed3741	0.0018098132
64	0xbc42366c	-0.0118537955
65	0x3c167726	0.009183681
66	0xbd03a384	-0.032138363
67	0xbc27cbc9	-0.010241457
68	0x3bac4f2b	0.005258461
69	0x3c53542f	0.012898489
70	0x3cf4f235	0.02990065
71	0x3c9996b1	0.018748613
72	0x3c9501d4	0.018189348
73	0x3cbe4c01	0.0232296
74	0xbc0f36b0	-0.008741066
75	0x3a1ac0ba	0.0005903352
76	0xbccdade0	-0.025107324
77	0xbcc42c4c	-0.023946904
78	0xbc806d86	-0.015677225
79	0xb9958596	-0.00028519024
80	0xbbb6e057	-0.0055809426
81	0xbb4e31b1	-0.0031462724
82	0x3cf0d93c	0.02940046
83	0x3c8e622c	0.017380796
84	0xbc047e11	-0.008086697
85	0xbcb37b82	-0.021909479
86	0xbbbcb0ee	-0.0057583963
87	0xbbee6423	-0.007275121
88	0x3cbadb13	0.02280954
89	0x3cd928bd	0.026508683
90	0x3c0b8f65	0.008518075
91	0xbabf0baf	-0.0014575626
92	0xbc84bc78	-0.01620315
93	0x3bedcfe8	0.0072574504
94	0x3c6c7ede	0.014434544
95	0xbbb36ffc	-0.005475996
96	0x3cfefdf8	0.031126961
97	0x3c955b06	0.01823188
98	0xbcafdefb	-0.02146863
99	0x3cb5f90a	0.022213478
100	0xbcec7d48	-0.028868333
101	0xbc479820	-0.0121822655
102	0xbc8359a1	-0.01603395
103	0xbcb64864	-0.022251315
104	0xbc235c9c	-0.00997081
105	0x3b9f9bcc	0.0048708674
106	0x3ca594d3	0.020212566
107	0x3abf056a	0.0014573757
108	0xb9d48fff	-0.00040543076
109	0xbc8305d1	-0.015993984
110	0x3cefccdc	0.02927249
111	0xbc128e01	-0.008944989
112	0xbc9baeb4	-0.019004203
113	0xbcd98c01	-0.026556017
114	0x3a382210	0.00070241187
115	0xbb8eb6b6	-0.004355277
116	0x3cd63157	0.026146574
117	0xbbceecc7	-0.006314847
118	0x3c539529	0.0129139805
119	0xba2ffc06	-0.00067132746
120	0xbc6c90ee	-0.014438851
121	0x3ca46f5b	0.02007263
122	0x3c42b6fe	0.011884449
123	0x3cc50ac6	0.024052989
124	0x3a8396b2	0.0010039418
125	0xbcfb1070	-0.030647486
126	0x3b91ac61	0.004445598
127	0xbbc07a26	-0.005873936
128	0xbc59d21a	-0.013294721
129	0x3b967069	0.004591037
130	0x3c2b4a32	0.010454701
131	0x3b4c0116	0.0031128577
132	0x3b32cb1c	0.0027281707
133	0xbb005736	-0.0019583232
134	0xbc4a22db	-0.012337412
135	0x3c504f30	0.012714192
136	0xbc6307b5	-0.013856818
137	0xbcda1fe0	-0.026626527
138	0x3b9dcb7f	0.0048155184
139	0xbbf46a57	-0.0074589658
140	0xbb7530be	-0.0037413086
141	0xba5b5e67	-0.0008368254
142	0xbd01129f	-0.0315119
143	0xbc0e9844	-0.008703295
144	0x3ba89940	0.005145222
145	0xba09653c	-0.00052412204
146	0xbb54dd49	-0.003248053
147	0x3c26985c	0.010168161
148	0xbc269cfb	-0.010169263
149	0xbcb26f4a	-0.021781582
150	0xbad1659f	-0.001597572
151	0x3a9351e5	0.0011239616
152	0xbc8fd0eb	-0.017555675
153	0x3be86e37	0.0070932168
154	0xbcb625fc	-0.02223491
155	0x3c424dda	0.011859382
156	0x3bdbf5ac	0.006712636
157	0x3c87f253	0.016595041
158	0x3b9ee96b	0.004849603
159	0xbb5b00ac	-0.0033417149
160	0x3c2c6029	0.010520973
161	0x3c9d7fa6	0.019225907
162	0xbd098f09	-0.033583675
163	0x3c1734a5	0.00922886
164	0xbb4988af	-0.0030751636
165	0xbbf6e50b	-0.0075346283
166	0x399cddef	0.00029919992
167	0x3c719d40	0.014746964
168	0x3c83d9cb	0.016095063
169	0xbc000b89	-0.00781525
170	0x3cba441f	0.02273756
171	0xbb2cea0a	-0.0026384615
172	0xbb353a68	-0.002765322
173	0xbb32fb6b	-0.0027310501
174	0xbcdf841c	-0.027284674
175	0x3c85e078	0.016342387
176	0x3d051ac2	0.03249622
177	0xbca9fb69	-0.020749765
178	0x3c3b2af9	0.01142382
179	0xbc9d60b5	-0.019211153
180	0x3ad31eb7	0.0016107176
181	0x3cba4428	0.022737578
182	0x3b63c1cd	0.0034752965
183	0x3cb502c0	0.022096038
184	0xb84d7bcd	-4.8991107e-05
185	0xbb49f6bb	-0.0030817229
186	0xbc07774b	-0.008268188
187	0x3cde8fac	0.027168117
188	0xbc0b41a8	-0.00849954
189	0xbc25c4e7	-0.010117746
190	0x3c76a6cc	0.015054416
191	0x3ce6f617	0.028193517
192	0x3ca69ab6	0.020337444
193	0x3d0db1bf	0.03459334
194	0x3c4c4285	0.012467031
195	0x3b937028	0.004499454
196	0xbc8c97fb	-0.017162314
197	0x3c7aed5f	0.015315383
198	0x3c1c3fef	0.009536727
199	0x3c8d0fb9	0.017219411
200	0x3c15f1d8	0.009151898
201	0x3c07e476	0.008294215
202	0x3ba252e8	0.004953731
203	0x3c36482d	0.0111256065
204	0xbc30e8e3	-0.010797712
205	0xbc870f6b	-0.016486844
206	0xbc047e6e	-0.008086784
207	0x3cce01ec	0.0251474
208	0x3cbd5dd4	0.02311603
209	0xbcbd7ad3	-0.023129856
210	0x3c0041d5	0.007828196
211	0x3c45962d	0.0120597305
212	0xbc7649f7	-0.015032283
213	0xbbc3e140	-0.0059777796
214	0x3b972d7c	0.0046135765
215	0xbd46179d	-0.048362363
216	0xbc9ffc26	-0.019529413
217	0xbb154622	-0.0022777398
218	0xbcb090df	-0.021553455
219	0xbd0473a8	-0.03233686
220	0x3bce2023	0.006290452
221	0xbcee15c3	-0.029063111
222	0xbc96d96e	-0.018414225
223	0x3c83d6dc	0.016093664
224	0xbc633ee8	-0.0138699785
225	0xbc077643	-0.008267942
226	0x3c8ab93e	0.016934033
227	0xbc25eddc	-0.010127511
228	0x3cd8852c	0.026430689
229	0xbc8f1404	-0.017465599
230	0x3ceb81f8	0.028748497
231	0xbc9147bc	-0.0177344
232	0x3c67dc97	0.014151714
233	0xbb01f047	-0.0019827054
234	0xbc99d943	-0.018780356
235	0xbbaba748	-0.0052384473
236	0x3c2a32c6	0.010388082
237	0xbd2a1c0d	-0.041530658
238	0xbc740d8f	-0.014895811
239	0xbc95daf2	-0.018292878
240	0xbad849d0	-0.001650149
241	0xbd33f8ca	-0.043938436
242	0x3c86b4cb	0.01644363
243	0x3c511f9d	0.012763885
244	0x3bf38fcf	0.007432915
245	0xbc2598b4	-0.010107208
246	0xbb1d582b	-0.002400885
247	0x3c592d57	0.013255439
248	0xbc6c80ce	-0.014435006
249	0xbc7ab292	-0.015301364
250	0x3ca95c8e	0.020674016
251	0xbb5eb235	-0.0033980731
252	0x3d1e7f61	0.038695697
253	0x3afec4de	0.0019437333
254	0x3b81be81	0.0039594774
255	0xbc16ab6b	-0.009196143

MatMul_1 f4 [32, 32]
0	0xbe1574e8	-0.14595377
1	0xbbc63b2d	-0.006049535
2	0xbe09809a	-0.13427964
3	0x3dcb7a4a	0.09935434
4	0xbdb6b069	-0.08920366
5	0xbe34c55d	-0.17653413
6	0xbce9c4aa	-0.02853616
7	0x3e1840b8	0.14868438
8	0xbd06e5d3	-0.03293402
9	0x3e15c8a3	0.14627318
10	0xbda2ecdc	-0.079553336
11	0x3d40a260	0.047029853
12	0xbc6969cb	-0.014246414
13	0x3d63ce33	0.05561657
14	0xbdfbe372	-0.12299241
15	0x3deec85c	0.11659309
16	0x3dc7352f	0.09726941
17	0x3cfd7679	0.030940281
18	0xbdc7e2a8	-0.09760028
19	0x3d8a445a	0.06751318
20	0xbd8cfe6c	-0.068844646
21	0xbde69302	-0.11258508
22	0xbdae7eb1	-0.08520258
23	0xbcc3a0ff	-0.02388048
24	0x3dddba07	0.108264975
25	0x3e0ce347	0.13758574
26	0xbda59604	-0.08085254
27	0x3dc96733	0.09834137
28	0xbd59a675	-0.05313726
29	0x3d8b6676	0.06806652
30	0xbd7ec820	-0.062202573
31	0xbdcd64b5	-0.10028974
32	0x3e1c7959	0.15280665
33	0x3e25488f	0.1614096
34	0x3e034b6d	0.12821741
35	0xbe363d20	-0.17796755
36	0x3cd9f7f2	0.026607487
37	0x3c8ae5f2	0.01695535
38	0xbe4f99a7	-0.20273457
39	0xbc915503	-0.017740732
40	0x3dd3cf4c	0.10342273
41	0x3dc5e865	0.09663466
42	0x3e365a8e	0.17807981
43	0x3df7356e	0.12070738
44	0x3cfb118a	0.030648012
45	0xbd3c6fcf	-0.046005066
46	0xbda266ea	-0.079297855
47	0xbd7df731	-0.06200332
48	0xbd3c2ca6	-0.045941018
49	0x3e095d61	0.13414527
50	0xbe34d688	-0.17659962
51	0xbe4986bc	-0.19680303
52	0xbdb8ef26	-0.09029989
53	0x3dd51cb4	0.10405865
54	0x3dc22b3c	0.094809026
55	0xbe2c3c44	-0.16819865
56	0xbcb793b9	-0.022409307
57	0x3dc8f05c	0.0981147
58	0x3d68b813	0.05681617
59	0xbe060af1	-0.13090111
60	0xbd367015	-0.044540484
61	0xb9d0534b	-0.0003973491
62	0xbdc2718b	-0.09494313
63	0xbe309d62	-0.17247537
64	0x3e129967	0.14316331
65	0x3df0c8f1	0.117570765
66	0xbda0b855	-0.078476585
67	0xbdd0cf81	-0.10195828
68	0xbdf04835	-0.117325224
69	0x3e04a8a6	0.1295496
70	0xbdadce3e	-0.08486603
71	0xbdf4597f	-0.119311325
72	0x3e13f556	0.14449057
73	0xbd83ae17	-0.064296894
74	0x3e2e01d5	0.16992886
75	0xbdc36446	-0.0954061
76	0xbe0dfece	-0.13866732
77	0x3dcac821	0.09901453
78	0xbe0c05e8	-0.13674128
79	0x3d260e03	0.040540706
80	0x3e43de4b	0.19127767
81	0xbda7303e	-0.08163498
82	0xbdf94cce	-0.121728525
83	0xbde6ef82	-0.11276151
84	0x3cb68b9d	0.02228337
85	0xbdb4c207	-0.0882607
86	0xbe155d64	-0.14586407
87	0xbd41c18d	-0.047303725
88	0xbe0e169f	-0.13875817
89	0x3ccb5dac	0.02482494
90	0xbb433ac6	-0.002978967
91	0xbe1f3a5c	-0.15549606
92	0xbd829cd9	-0.063775726
93	0xbe1df506	-0.154255
94	0xbd920547	-0.07129913
95	0xbd959460	-0.07303691
96	0xbd5e5e7e	-0.054289334
97	0x3de320a0	0.11090207
98	0xbde44bf7	-0.11147302
99	0xbdd417f9	-0.10356135
100	0xbc9f514a	-0.019447941
101	0x3da9c0aa	0.08288701
102	0x3d50b7d8	0.050956577
103	0x3e1c8d5e	0.15288302
104	0xbdcb91b1	-0.09939898
105	0x3cc2d1cd	0.023781681
106	0x3de37920	0.11107087
107	0x3d89abbd	0.067222096
108	0x3d9bb334	0.0760254
109	0x3e115c8f	0.14195465
110	0xbb15e81c	-0.0022873944
111	0x3c95a8e3	0.018269008
112	0xbb95287a	-0.0045519443
113	0x3c1ddf2b	0.009635727
114	0x3d2ee37e	0.042697422
115	0xbd67b4e8	-0.05656901
116	0x3db109e9	0.08644468
117	0x3d5b0c6c	0.053478643
118	0x3e118239	0.14209832
119	0xbdeea404	-0.11652377
120	0xbdae08ff	-0.084978096
121	0xbd728dbd	-0.059217203
122	0x3dfdc459	0.12390966
123	0xbdc155d6	-0.094402
124	0xbe107f63	-0.14111094
125	0xbd07919f	-0.03309786
126	0xbe0d238e	-0.13783094
127	0xbe22a95f	-0.15884922
128	0xbe1a66a7	-0.15078221
129	0x3e3aedc2	0.1825476
130	0x3df45047	0.11929374
131	0x3d6a0c0a	0.057140388
132	0x3dba533c	0.09097907
133	0xbd862630	-0.065502524
134	0x3db4d800	0.08830261
135	0x3d298ac6	0.04139211
136	0xbe142881	-0.14468576
137	0xbe04f2c9	-0.1298324
138	0xbc8a32f8	-0.016870007
139	0x3cccb8b0	0.02499041
140	0x3e1583e5	0.14601095
141	0x3e20df67	0.15710221
142	0xbdcdcc85	-0.10048775
143	0xbd449e0e	-0.048002295
144	0xbdd00a62	-0.1015823
145	0x3c698868	0.014253713
146	0x3e2d233a	0.16907969
147	0x3d911bb8	0.07085365
148	0x3dab3955	0.083605446
149	0xbd9e06d2	-0.077161446
150	0x3dbb1217	0.0913431
151	0xbe2eab10	-0.17057443
152	0xbc0e9037	-0.008701376
153	0xbd8d65f6	-0.06904213
154	0x3d62bf98	0.0553585
155	0xbdca5b9a	-0.09880753
156	0x3def6a52	0.11690201
157	0xbd8c815b	-0.0686061
158	0xbe23ad93	-0.15984182
159	0x3e2dbf06	0.16967401
160	0xbcae3712	-0.021266494
161	0xbd704d64	-0.058667555
162	0xbe080444	-0.13282877
163	0xbe324adf	-0.17411374
164	0xbc1ab169	-0.009441712
165	0xbe2c441f	-0.16822861
166	0x3de06209	0.10956199
167	0xbe05f819	-0.13082923
168	0xbc8d9f7a	-0.017287958
169	0x3df0510e	0.1173421
170	0x3e5604f5	0.20900328
171	0xbdd90ccc	-0.10598144
172	0xba5f6e35	-0.0008523197
173	0x3d4a3651	0.049368206
174	0xbde7314c	-0.112886995
175	0x3e0da591	0.1383269
176	0xbe0e0d43	-0.13872246
177	0x3dbb4204	0.09143451
178	0xbddd61ad	-0.10809646
179	0xbccb34be	-0.024805423
180	0x3c4d38f3	0.012525785
181	0xbdc9e0d2	-0.09857334
182	0x3d02dc52	0.031948395
183	0x3d9458a7	0.072434716
184	0x3dd9f53b	0.10642477
185	0xbde78114	-0.113039166
186	0x3d826b5e	0.06368135
187	0xbdec11fb	-0.11526867
188	0xbdaaae1b	-0.08333989
189	0x3d8a5139	0.06753773
190	0xbdefa707	-0.1170178
191	0x3cb51cbf	0.022108434
192	0x3d098a08	0.033578902
193	0x3ca68f06	0.02033187
194	0xbe479ac7	-0.19492637
195	0x3d7ce1c3	0.06173874
196	0xbe0f9994	-0.14023429
197	0xbb0687dc	-0.0020527756
198	0x3e324ebf	0.17412852
199	0x3d9a95fe	0.0754814
200	0xbbd8716e	-0.0066053187
201	0xbe1378eb	-0.14401595
202	0x3d04e2f9	0.03244302
203	0x3d8da2ff	0.06915855
204	0x3dd28927	0.10280066
205	0x3caaf0ef	0.02086684
206	0xbd045827	-0.03231063
207	0x3dcd7d3f	0.100336544
208	0xbe39bc4d	-0.18138237
209	0x3e17f1db	0.14838354
210	0x3e23928b	0.1597387
211	0xbda3aa05	-0.07991413
212	0xbc88b06e	-0.01668569
213	0xbc9a9be4	-0.018873163
214	0x3dbc4761	0.09193302
215	0x3d276c61	0.040874843
216	0x3dd2e3be	0.102973446
217	0x3d4fa65e	0.05069577
218	0xbe3358e8	-0.17514384
219	0xbd15d3d2	-0.03657896
220	0x3e1d9d4f	0.1539204
221	0x3bd348cb	0.0064478866
222	0x3d460548	0.04834488
223	0x3e20db14	0.15708572
224	0x3e235e0d	0.15953846
225	0xbd3fd273	-0.04683156
226	0xbd32dbf8	-0.04366681
227	0x3d2b2d37	0.041791167
228	0xbd0d96fa	-0.03456781
229	0x3b87d576	0.0041453196
230	0x3bd39f8a	0.0064582275
231	0x3e37ec9b	0.17961352
232	0xbd92b12a	-0.071626976
233	0x3d39585e	0.04525029
234	0x3e68c853	0.22732668
235	0xbd5cf9c3	-0.05394913
236	0x3d58e9d4	0.05295737
237	0x3d8cfb22	0.06883837
238	0x3cca14db	0.024668148
239	0x3a93e007	0.0011281975
240	0xbccaa7e9	-0.024738269
241	0x3cb56e80	0.022147417
242	0xbe058489	-0.1303884
243	0xbe37a1f8	-0.1793288
244	0xbd8f87d4	-0.07008329
245	0x3de65cef	0.112481944
246	0xbc0d9d9c	-0.008643534
247	0xbdf44c50	-0.11928618
248	0xbc92a720	-0.017901957
249	0x3d99979e	0.07499622
250	0x3d4151c4	0.04719712
251	0xbd9a1919	-0.07524318
252	0x3db49114	0.08816734
253	0xbce3fd05	-0.02783061
254	0xbe21b06c	-0.15789956
255	0xbdd2c875	-0.102921404

MatMul_2 f4 [1, 32]
0	0x3cf08348	0.029359475
1	0x3e73d674	0.23812276
2	0x3db9dcad	0.09075294
3	0x3dff85ce	0.12476693
4	0x3d0b141b	0.03395472
5	0x3d729105	0.059220333
6	0xbebc945d	-0.36831942
7	0x3e324b93	0.17411642
8	0x3e505f06	0.20348749
9	0xbe9f1fef	-0.3107905
10	0xbeafd2a7	-0.34340402
11	0x3d948141	0.07251216
12	0x3e36c285	0.17847641
13	0xbebb1baf	-0.36544558
14	0x3e6aa3ab	0.22913997
15	0xbec0f74a	-0.37688667
16	0xbdef74df	-0.11692213
17	0xbeb2b12c	-0.34900796
18	0x3e7676fa	0.24068823
19	0xbc8be917	-0.01707892
20	0xbc83b0ba	-0.01607548
21	0x3dc821fb	0.09772106
22	0xbc835aad	-0.016034449
23	0x3d7d4294	0.061831072
24	0xbec1ace3	-0.37827215
25	0xbeafc11f	-0.34327027
26	0x3e0dd9c8	0.13852608
27	0x3dd55eac	0.10418448
28	0xbd8e094e	-0.069353685
29	0x3d58b82d	0.05291002
30	0x3d9d7833	0.07688942
31	0x3ded6901	0.115922935
