en/computer/computer_v1.onnx (onnx, 208138 bytes, 9 tensors)

model/tf.math.add_1/Add/y f4 [32]
00000000: 6cf6 06be 101f 7d3a 3d9c dfbc 178f 85bc
00000010: 513e 893c 9e62 13bc 6468 17be 7089 86bd
00000020: ade1 c1bd fd10 8abd adea e83d 2149 9b3d
00000030: 3a55 123e f5b4 4cbd 4ba2 c4bd 6305 623e
00000040: 0208 eebb e1a0 d8bd e929 143e dea2 39bd
00000050: 2ea3 333d a69a 2ebe 5f2a e43c 61dd 753c
00000060: 24cc c4bd 0538 32be d7f0 d93d 9887 9dbd
00000070: 077a 153e 6a6d a63c 91e5 713d b921 843d
-0.1317994 0.0009655813 -0.02729618 -0.016303582 0.016753348 -0.00899568 -0.14785916 -0.06569183
-0.09466872 -0.067415215 0.11372886 0.075823076 0.14290324 -0.04997726 -0.096012674 0.22072367
-0.007264138 -0.1057756 0.14469112 -0.045321338 0.043856792 -0.17051181 0.027852235 0.015006394
-0.09609249 -0.17404182 0.1064164 -0.07691878 0.14597331 0.020315845 0.059056822 0.064517446

model/tf.math.add/Add/y f4 [32]
00000000: 8aab 913d be79 8d3b e7d3 8c3d c58f a83d
00000010: b2bf 9c3c d5c7 a93c 64e5 aa3d c66a 0cbc
00000020: 52da 923c a835 8b3c 2b67 243b fbb9 4d3c
00000030: 005e a83d cfe7 993b 7bb2 103d f097 0b3d
00000040: e7c2 f63c 01fe ca3d 7d98 123d a17a 673d
00000050: 117d 8d3c c837 d83b 1a0e 2b3c 158d 853d
00000060: 58ae b63c 0a6c 2abb 8b04 e73d d067 423d
00000070: b683 86bc 5512 9a3d 7d6b 803c 1e1c 5d39
0.071127966 0.0043174913 0.06876355 0.08230547 0.019134376 0.02072517 0.08344534 -0.008570379
0.017926369 0.016993359 0.0025085907 0.012556548 0.08221054 0.004696823 0.035326462 0.034080446
0.030122234 0.09911729 0.035789955 0.056513432 0.01727155 0.0065984465 0.010440374 0.0652105
0.02229993 -0.0026004338 0.112801634 0.047462285 -0.016420227 0.07523028 0.015676254 0.00021086677

model/layer_normalization_1/batchnorm/mul/ReadVariableOp/resource f4 [32]
00000000: 5d63 a43f 2c20 9c3f b310 a83f c33b ae3f
00000010: 9551 a53f 00b5 b53f 7557 a33f e0aa a93f
00000020: 18c5 b03f 75d9 9f3f 3903 aa3f 70c5 c93f
00000030: e0c2 a33f 63b4 a23f 3712 a33f 65af b63f
00000040: e6fe 923f f849 ad3f 4239 9d3f f397 a13f
00000050: a11c 673f 78c0 973f f342 a23f bbb6 a33f
00000060: 5746 5e3f 236b 9e3f 988d 7d3f 259f a53f
00000070: 438a 9e3f eae0 8d3f b00c 9e3f 53c8 ac3f
1.2842823 1.2197318 1.3130096 1.3611988 1.2915522 1.4195862 1.2761065 1.3255272
1.3810148 1.2488238 1.3282233 1.5763378 1.2793846 1.27113 1.2739934 1.4272276
1.1484039 1.3538198 1.2283099 1.2624496 0.9027806 1.1855612 1.2676681 1.279014
0.8682608 1.2376446 0.9904418 1.2939192 1.2385944 1.1084263 1.2347622 1.3498634

model/layer_normalization_1/batchnorm/ReadVariableOp/resource f4 [32]
00000000: 4f5d d03d e39c 323e 7acb d53d 64f2 c23d
00000010: 0de3 5d3d 8360 10bd 78cf eb3d 57f8 ff3d
00000020: c8ff a53d b49d 8c3e 107b 893e d3ca a43d
00000030: 816b 363e df97 3c3e d0e4 823e cb58 983e
00000040: 2391 ff3d 0fe0 133e ed6b 603e 989f dc3d
00000050: 7e96 1ebe 6bef 273e babb 263e 368c 263e
00000060: 2dfd 9fbe 8f6b 9f3d f75e 1bbe 783a b63d
00000070: ad15 013e 361a 053e 0c1f c03d 005d 9a3e
0.10174047 0.1744266 0.10439201 0.095188886 0.05417161 -0.03524829 0.11514181 0.12498539
0.08105427 0.27464068 0.26851702 0.08046498 0.17814447 0.18417309 0.25565195 0.29755244
0.124788545 0.1444094 0.2191617 0.107726276 -0.15487096 0.16399924 0.1628255 0.16264424
-0.31247845 0.07784187 -0.15172945 0.08897871 0.12605925 0.1299828 0.09380922 0.30149078

model/layer_normalization/batchnorm/mul/ReadVariableOp/resource f4 [32]
00000000: 30b1 8a3f 175a 803f 5ed4 833f 0596 963f
00000010: bb9b 993f 77d4 863f f41e 813f b287 8c3f
00000020: a5ec 7d3f 6af7 803f d0c7 803f f9be 8a3f
00000030: ef07 843f 94ce 8f3f d4f4 893f 9313 813f
00000040: ab1a 823f b421 8d3f 3524 793f 9459 a43f
00000050: f5ec 7e3f 81ba 813f 3426 8d3f 0a4a 8a3f
00000060: b432 8d3f caec 833f d2c9 a63f 3b44 823f
00000070: b43a 963f fc8f 873f cb28 823f 2745 823f
1.0835323 1.0027493 1.0299184 1.1764532 1.200065 1.0533589 1.0087571 1.0978911
0.99189216 1.0075505 1.0060978 1.083953 1.0314921 1.1234918 1.0777841 1.0084099
1.0164388 1.102591 0.9732087 1.2839837 0.9958032 1.0135041 1.1027284 1.0803845
1.1031098 1.0306637 1.3030341 1.0177072 1.1736665 1.0590816 1.0168699 1.0177354

model/layer_normalization/batchnorm/ReadVariableOp/resource f4 [32]
00000000: 7612 bb3d 5b31 bb3d 3de0 0dbd 50b5 763d
00000010: b43f 18bd 7d64 11bc 2846 8b3d 89e7 e7bb
00000020: 626a 833c b7f6 11bd a514 28bb 560a 31bd
00000030: d2fb 983d 2cc1 f1bc 07d0 8f3d 1a7e ac3d
00000040: 1202 eab9 62ae fa3d f6ac 75bd a587 6e3d
00000050: 1b66 713d eec9 6ebd c72c 873a 0ed1 d73c
00000060: eade 0fbc 2e85 043c 7226 a93d 2240 aa3c
00000070: dc30 c5bc 0a38 aa3d 3042 2f3e 8a44 21bd
0.091343805 0.09140273 -0.03463768 0.060231507 -0.037170127 -0.008874056 0.068004906 -0.0070771617
0.016041938 -0.035635676 -0.002564707 -0.043222748 0.07469906 -0.029511057 0.070221 0.084224895
-0.000446335 0.12240292 -0.0599794 0.05823483 0.058935266 -0.058298044 0.0010313027 0.026344802
-0.008781174 0.008088393 0.08259286 0.020782534 -0.02407115 0.0831147 0.17115092 -0.039372005

const_fold_opt__25 f4 [32, 32]
00000000: 40cb 92ba 80bd 03bc 280c 37be ee5f d23d
00000010: c189 8e3d 7222 dd3d 0cf4 e53d 8f69 86bd
00000020: 0193 0a3d d641 073e 22d2 9c3d 36f2 38bc
00000030: 4cbc ac3c 68cc 85bd e997 ebbc 5ea5 763e
00000040: e104 7a3d 4c49 403b d246 313e 3e69 4dbd
00000050: 1003 98bc a4b9 ccbd 405e b6bd c18a 5ebd
00000060: e3fa f23d 8bd9 37be f387 073c 55e7 c5bc
00000070: 7e7b 51be 077a 1e3e 905f a1bc 1ad7 e33d
00000080: d713 043e 0a6a 9fbd 0c17 413e 88ac d73c
00000090: 573c 1a3e 0dd2 353e d53b 173d 927f 563d
000000a0: 7389 1d3e e059 81bd 74ea b0bd 7110 de3c
000000b0: 0fcd e73d c0d2 3d3e 3117 40be f926 35be
000000c0: 3522 1b3d a6c1 0e3e f20c 8ebe 4ba9 e33d
000000d0: d60c 5b3c 6edd c83d 5184 333e 97dd db3d
000000e0: d844 e2bd 2eec 713e 7b9a 99bd 620b 103e
000000f0: efda 503e 5206 20bb 553a 2e3e 639f 4bbe
00000100: 54d6 5bbe 9188 0dbe 3254 e23d df61 5a3e
00000110: 00eb e7bd 448a 5c3d 6e31 843d 9bc7 bf3d
00000120: 2293 193e 2aff 0a3e 4df7 6f3e e53a 823e
00000130: 5238 05be a7dc 75bd 5e59 043e 068b 523e
00000140: cef2 663d 7d56 9dbd 9139 5d3e 2d09 30be
00000150: 867e abbb 413a f83c 8865 f5bd e96b b5bd
00000160: 23c5 c73d 9a87 0d3e 4390 3f3e 3dbf 313b
00000170: ada1 3a3d 0efc 8abe b5f1 0ebe bb66 6b3e
00000180: abfc 4cbb dcbd 403e 69af eabd fbd5 e9bd
00000190: a6bf fcbd b203 cd3d 74cd 40bd 266d 53bc
000001a0: e813 ffbd 7771 993e 69f4 fb3d da19 663d
000001b0: 867c 5cbe 242d 2b3e 4a3f a73e 570e 943e
000001c0: 3299 903d d034 113c 0b0a 813e 99cc 1ebd
000001d0: e2ce 213e e65e 4cbe 05ff e9bd 8ccd 45be
000001e0: 202b 763c 488a f9bd 332c a53e 4984 16bc
000001f0: 8924 5abe cb2a 403d 4cc6 bdbd 7082 9e3e
00000200: 06c6 483e 5d1d 8b3c 3355 8d3e 1d70 273e
00000210: 7a49 bc3e c596 f63c 683b be3e 86c4 813e
00000220: a511 a93e 0119 62be 5e50 43be ced6 56bd
00000230: 9716 d53e 76f7 823d 0a04 dfbe e80f a9be
00000240: 8a2a 133e 77e5 693e 0b3a a5be 3ce2 a13e
00000250: 9ff4 60be 2919 a53e b2d0 3c3e 5db8 953e
00000260: 8f91 53be e727 c73e 7445 2dbe 07ca ac3e
00000270: 791e da3e b7fe 62bd a29e 0d3d 5321 c6be
00000280: 5b4e 643e e66a 453d aba7 9c3e 9d07 993e
00000290: d42c 8f3e f376 473e 8e66 583e befe a13d
000002a0: b1bb 9e3e 717d 20be af3c 903b c4f0 a23e
000002b0: b60b 5e3e c1eb 433e abda 42be d050 08bb
000002c0: 90e8 60bd 0f43 953e 1eeb 3dbe 56c8 413e
000002d0: 9e41 0c3d e075 163e ea7e 023e 000e bf3d
000002e0: 3b70 b7bd f86b 883e 0399 15be 1e30 563e
000002f0: fa42 8b3e c7a9 4e3e dd3f 6c3e adfd 3bbe
00000300: e194 643c 58b1 95bd c30b 593d e287 14be
00000310: 9841 dc3d c01d 31be 9444 13bd 490e 0dbe
00000320: a0e6 2a3e 195c ac3d 6b99 59bc 4c0b d3bd
00000330: acf0 22be 4e6d eabd f0fd 793e 3984 9a3c
00000340: 3449 873d 3070 3abe 4383 83bd a8c3 8c3b
00000350: 2e6e 023e 341d bebc 20e3 0bbe 48d7 c8bd
00000360: 3313 813d bb57 203d 9de3 95bc 7c90 98bd
00000370: 0dcb f23d 7a07 c5bd 2960 82bd 75fa 823e
00000380: 1ca5 7b3e 27d5 9ebd 6cb7 793e f540 533e
00000390: d5a6 493e 6a0f 323e dcae 743e d98d 8e3d
000003a0: d7f6 1b3e 6d93 8ebe 50c9 20be 3485 c73d
000003b0: 34da 823e 43bb eb3d f698 37be 1ff3 71be
000003c0: 75eb 8a3d 8ca6 8d3e c4b5 b4be 15f2 483e
000003d0: 7cc4 36be 46ec 253e 6069 0e3e d869 6e3e
000003e0: 225d 02be 5420 1e3e 0496 2ebe 93f7 653e
000003f0: 3a47 193e a5a6 8f3d 5bc8 6b3e 04f0 8dbe
-0.0011199489 -0.008040786 -0.17875731 0.102722034 0.06959868 0.107975855 0.11228189 -0.065631025
0.0338316 0.13208708 0.07657267 -0.011288216 0.02108588 -0.06533128 -0.02875896 0.2408652
0.06103981 0.0029340563 0.17312172 -0.050149195 -0.018556148 -0.09996346 -0.089046955 -0.054331545
0.11864259 -0.1795408 0.008272159 -0.02415816 -0.20457265 0.15476237 -0.019698888 0.11125012
0.12898193 -0.07783897 0.18856448 0.026327386 0.1506208 0.1775591 0.036922295 0.052367754
0.15384464 -0.063159704 -0.086384684 0.02710745 0.11318409 0.18537426 -0.18758847 -0.17690648
0.03787442 0.13941059 -0.2774425 0.111162744 0.01336976 0.09807859 0.17530943 0.10735624
-0.11048287 0.23625252 -0.07500168 0.14066842 0.20396017 -0.002441783 0.1701444 -0.1988502
-0.21468478 -0.13821627 0.11051215 0.21326397 -0.113241196 0.053842798 0.064547405 0.093642436
0.14997533 0.135739 0.23434182 0.25435558 -0.13009766 -0.060024884 0.12924716 0.20560846
0.0563839 -0.07682512 0.21603991 -0.17191 -0.0052335886 0.030301215 -0.11982256 -0.08858473
0.09754398 0.13821259 0.18707375 0.0027122044 0.045564342 -0.27145427 -0.13959391 0.22988407
-0.0031278532 0.18822426 -0.11459238 -0.11417767 -0.123412415 0.100104704 -0.047070935 -0.012904441
-0.12454969 0.2996938 0.12302477 0.056176998 -0.21531877 0.16716439 0.32665473 0.2891719
0.0706047 0.008862689 0.25202975 -0.03876934 0.15801576 -0.19958076 -0.11425594 -0.19316691
0.01502493 -0.12184578 0.32260284 -0.009186813 -0.21303 0.04691581 -0.09266338 0.3095889
0.1960679 0.016981775 0.27604064 0.16351362 0.36774808 0.03010119 0.37154698 0.25345248
0.33021274 -0.2207985 -0.19073626 -0.052450947 0.41618797 0.06394856 -0.4355777 -0.33019948
0.14371696 0.2284144 -0.32270846 0.31617916 -0.21968316 0.32245758 0.18438986 0.2924222
-0.20660995 0.3889763 -0.16921026 0.33747885 0.42601374 -0.055418696 0.034575112 -0.386973
0.22295515 0.04819765 0.3059667 0.2988862 0.2796389 0.1947897 0.21132872 0.07909916
0.31002572 -0.15672852 0.0044017653 0.31824315 0.21684155 0.19132902 -0.19028728 -0.002080012
-0.05490929 0.29152724 -0.18546721 0.18924078 0.034242265 0.14693403 0.12743726 0.09328842
-0.08956953 0.26644874 -0.1460915 0.20916793 0.27199537 0.20181952 0.23071237 -0.18358488
0.013951511 -0.07309216 0.052989732 -0.1450496 0.107546985 -0.17296505 -0.035954073 -0.1377498
0.16689539 0.08416004 -0.013281207 -0.10304889 -0.15912122 -0.114466295 0.24413276 0.018861877
0.06605759 -0.18206859 -0.064215206 0.004295785 0.12737343 -0.023207285 -0.1366086 -0.09806687
0.0630249 0.039146166 -0.018297011 -0.07449433 0.11855135 -0.09620567 -0.06365997 0.2558171
0.24574703 -0.07755499 0.24386376 0.20630248 0.19692548 0.17388692 0.23894829 0.06960649
0.1523088 -0.27846852 -0.15701795 0.09742203 0.255571 0.11510327 -0.17929444 -0.236279
0.06783191 0.27666128 -0.35294926 0.19623597 -0.1784839 0.16203412 0.13907385 0.23282564
-0.1273084 0.1544202 -0.17049414 0.22457723 0.14968577 0.07014207 0.23025648 -0.2772218

const_fold_opt__23 f4 [32, 1]
00000000: 049b 8d3e 546d 623e 360b c83e e99e d93e
00000010: 0a72 a83e aa8e e63e 41e0 ba3e 0933 993e
00000020: ba2b ad3e 6be0 cfbe e262 f1be d1ef 043f
00000030: 2faa b63e ef5e a23e 5b15 d7be bfab 14bf
00000040: 5dd9 093e e5d6 cd3e 603e a3be b3aa 9c3e
00000050: 89f4 fc3c 4423 8f3e 12e3 a33e 894d b13e
00000060: d053 38bd 3090 c73e 42e1 26be d322 973e
00000070: 351b c23e 884d 293e ba10 a73e 5bc4 f4be
0.2765733 0.22112018 0.39071053 0.4250405 0.32899505 0.4503072 0.36499217 0.2992175
0.33822423 -0.40600905 -0.47145754 0.5192843 0.35676715 0.31713054 -0.4200848 -0.58074564
0.13461824 0.40203014 -0.31883526 0.30598983 0.030878322 0.27956593 0.32009178 0.34629467
-0.045001805 0.38977194 -0.16296867 0.29518756 0.37911382 0.16533482 0.3262995 -0.47806057

const_fold_opt__22 f4 [1536, 32]
00000000: 6e90 bf3c 2477 34bd 9ffb c03d 50bf ad3c
00000010: 4bcb f6bd 7308 e7bc 4ca6 063d 2d9e d13c
00000020: e0e1 cdbd 2aab dcbc fcff aebd 1923 97bd
00000030: c08c 243c 80aa 09be f803 c3bc c692 78bd
00000040: 7152 c6bd 9458 0bbc 0330 c23c ce20 c23c
00000050: f00b f0bc 7b5c d43c 584d 31bd 78a4 1fbb
00000060: 3092 f0bd 61fb 3fbe 2b51 45bd 8690 04bd
00000070: a08f 0bbb 35ae 673d 9611 13bd d5e1 bdbd
00000080: d0b6 0e3d 34a4 8c3d e86c 673d 9f8a b63b
00000090: 7052 dd3d 8ead 663d 53be eaba 2caf 123d
000000a0: 9289 cb3d bfd3 783d 2205 503d c4e0 9f3d
000000b0: 4d9d fa3c 6a56 553d ff39 903d 8de8 753d
000000c0: 47d6 8e3d 66b4 ca3c 2fd9 943d 299a 8b3c
000000d0: ef97 7d3d a23d 653d cd31 8e3d b005 d13d
000000e0: e299 e23d 94e3 843d ccff 74bb 82a3 9c3d
000000f0: 42c6 bc3d 1331 263c c38e 693d 3fed 463d
00000100: 9f77 b03b d71b ab3c 2705 abbd 3e49 98bc
00000110: 7ce1 e93c d22a 6e3d dff0 8f3b 0328 123d
00000120: 3fba eb3b 08cf cdbb 7be7 a53d b3e5 633d
00000130: b8bb 133c 3378 13bc cc99 103b 4fff 623c
00000140: 7328 403d 84b4 cd3c a07e 493c 0029 b43b
00000150: 4e5e 143c 786a 2d3d 182d 4a3c 8a00 2c3d
00000160: ade8 633b 0071 4c3d e006 7f3d 3b26 323d
00000170: fcb9 0f3d 5b94 cdbb d7d3 6b3d 66ba 423d
00000180: 2a66 2d3d fa0e b83c 043d 133d 03d0 c3bc
00000190: 9df8 25bd b04b 54bb 1a10 cf3c 1902 41bd
000001a0: dc76 acb8 5525 1ebd d980 cbbc 573b 67bc
000001b0: 9ac3 bd3b 2e64 21be 6873 913b 2557 5c3c
000001c0: a9fa 9fbd 8855 b73d 4238 fdb9 4b1c 7bbd
000001d0: 7010 e5bd 5f19 bfbc ab6f e9bc 4f3f a83d
000001e0: 99c0 05be 54c1 23be f60d bb3b b4cb e7ba
000001f0: 3511 493c 6638 523d 55e8 303c d124 51bd
00000200: 0c8d b63c c98f 21b9 74ae ad3d 2449 053c
00000210: 7c62 983c 7d97 2d3d bfa0 9f3c 92fb 0f3d
00000220: 1c20 abbb efb6 5f3d ca5a 8f3d 7238 0f3e
00000230: 8cd3 153d bad5 a83d 97ed a83d 9843 813c
00000240: 2576 623d 878c aeba 30a7 0b3d ca5a bf3a
00000250: 19f0 a73d 754d 8f3d 069b ef3c 0be8 073c
00000260: b670 4f3d e493 d73d ff37 fdbc 7f13 443d
00000270: a77e fc3c 72f1 243d d2e4 7b3d 5a61 883d
00000280: bbb8 c13d 98b3 4d3d fe48 aa3d 3125 8c3d
00000290: ea1c 713d f95b e4bb 3e4c b33d 2cf0 f538
000002a0: 4240 653d de19 6e3c 6947 75bc bd92 a33c
000002b0: 2262 ab3d 5d9b c13c 2add 843d 60d4 f13c
000002c0: 64c3 313d 9cd1 e33d 179b 5c3d 959c 543d
000002d0: 285f 453c 7422 b33b e7e9 fabb eea5 923d
000002e0: 8a5c 8a3c 0f38 373c da79 803d be4a 5a3d
000002f0: 3002 2fbc fb98 8e3d fad3 6a3c 6ecf d9bc
00000300: 9f55 683d 3a4d af3c e84b 433d 1ed6 6a3d
00000310: 26d3 133d 61e2 853d a144 1d3d b91e 8a3d
00000320: 7f4f 9a3c 86f9 913d 5468 3c3d ee58 553d
00000330: dc8b 833d 5eca 383d 7a99 613d fdf3 6c3d
00000340: 9d96 653d dce8 593d ea2e 563d 96eb 4f3d
00000350: 2416 953d 64d2 ab3d afc3 a33d 6795 9b3d
00000360: 12ce 373c fd16 7b3d 35f6 8d3d d41f 1c3d
00000370: 136f 863d e932 1c3d 2805 7c3d 7d27 203d
00000380: 776d a7bd 2c63 8dbc d936 11be 096a 2bbd
00000390: 9de2 4dbd f20f 32bd cf8f e2bd b340 99bd
000003a0: a1b7 243d d7dc 52bd ab52 71bd 8f85 993b
000003b0: 54b2 d5bd 48d5 13bd d1bb e0bb 64a6 33bd
000003c0: 0509 44bc 3517 85bd d68c f0bc 76da c4bd
000003d0: 0e59 25bd fdc0 5ebd 955d f3bc dfb4 de3c
000003e0: 5a65 72bd 9b27 0cbc 0494 3abd 0d6f b7bc
000003f0: a548 82bd 8c92 c5bd 5a02 8d3c 52d3 42bc
0.0233843 -0.044058934 0.09422993 0.021209389 -0.12050494 -0.028202271 0.032873437 0.02558812
-0.10052848 -0.026937086 -0.08544919 -0.07379741 0.010043323 -0.13443947 -0.023805603 -0.06068685
-0.09683693 -0.008505005 0.023704534 0.023697283 -0.029302567 0.025923004 -0.04328665 -0.0024359506
-0.11746633 -0.18748237 -0.04817311 -0.03236439 -0.0021295324 0.05656262 -0.035905443 -0.0927159
0.034842312 0.06867257 0.056500345 0.005570724 0.10806739 0.05631786 -0.0017909504 0.03581159
0.09938349 0.06074881 0.050786145 0.078065425 0.030592585 0.052084364 0.07042312 0.06003623
0.06974464 0.024744224 0.07267987 0.017041283 0.061912473 0.05596698 0.069430925 0.10206163
0.11064507 0.064887196 -0.0037383912 0.07648374 0.09217502 0.010143536 0.057020914 0.0485661
0.0053853537 0.020887299 -0.08350592 -0.018589612 0.028549902 0.058146305 0.0043927277 0.03568269
0.007193833 -0.0062807836 0.08100792 0.05563898 0.009016924 -0.009000826 0.0022064326 0.013854816
0.046913575 0.02511049 0.012298256 0.0054980516 0.009055687 0.042337865 0.012339853 0.0419927
0.0034776137 0.049912453 0.062262416 0.04349349 0.035089478 -0.006273789 0.057575073 0.047541045
0.04233376 0.022468079 0.03594686 -0.023902899 -0.0405203 -0.0032393746 0.025276233 -0.04712114
-8.2237384e-05 -0.03860982 -0.024841713 -0.014113269 0.00579114 -0.15760872 0.0044388063 0.013448511
-0.078114815 0.08951861 -0.00048297836 -0.06130628 -0.11184776 -0.023327528 -0.02849563 0.082152
-0.13061751 -0.15991718 0.0057084514 -0.001768461 0.012272169 0.051323317 0.01079758 -0.0510605
0.022284053 -0.0001540772 0.0848054 0.008135114 0.018601649 0.0423808 0.01948583 0.035152026
-0.0052223336 0.05461782 0.069997385 0.13986376 0.0365787 0.0824389 0.08248442 0.015779302
0.055288453 -0.0013317027 0.03409499 0.0014599201 0.08200092 0.06997196 0.029248726 0.008295069
0.0506446 0.10526255 -0.03091049 0.047870155 0.030822111 0.040269323 0.061497517 0.06659193
0.09459063 0.050220102 0.083147034 0.06843031 0.058865465 -0.006968972 0.087547764 0.00011727246
0.055969484 0.014532534 -0.014970639 0.019967431 0.08368327 0.023633653 0.06487496 0.029520214
0.04339923 0.11123964 0.053858843 0.05190714 0.012046613 0.0054667536 -0.007657278 0.07160555
0.01688983 0.011182799 0.06273241 0.053293936 -0.010681674 0.069627725 0.014332766 -0.026588168
0.05672228 0.02139913 0.04767981 0.057333104 0.03609004 0.06537319 0.038395528 0.06744141
0.018836735 0.07127671 0.045997933 0.052086763 0.064231604 0.045114867 0.055078007 0.057849873
0.05605184 0.053200588 0.052290834 0.05076178 0.072796136 0.08389738 0.07996308 0.075968556
0.011218565 0.06130122 0.06931726 0.03811629 0.065641545 0.03813449 0.061528355 0.03910016
-0.08175176 -0.017259203 -0.14181079 -0.04184917 -0.050264943 -0.043472238 -0.110625856 -0.074830435
0.040214185 -0.05148014 -0.05891673 0.004685111 -0.10434404 -0.036092073 -0.006858327 -0.043859854
-0.011965041 -0.06498567 -0.02936403 -0.096119806 -0.040368132 -0.054383267 -0.02970771 0.027185855
-0.059178688 -0.008554365 -0.045551315 -0.02239182 -0.06361512 -0.09647092 0.017213035 -0.011891203
